output/section8/checkpoint23.pt (torch, 5881 bytes, 1 tensors)

fc.weight f4 [4, 300]
0	0x3e91c3c7	0.2846968
1	0xbd8034a4	-0.062600404
2	0x3f4ca690	0.79941654
3	0x3dff6f48	0.12472397
4	0xbda05dff	-0.07830428
5	0xbfa31923	-1.2742046
6	0xbf96bb73	-1.1775955
7	0x3ebe2308	0.37136102
8	0xbefa1190	-0.48841524
9	0xbf86375b	-1.0485643
10	0x3e7888cf	0.24270938
11	0x3fb577a3	1.4177135
12	0xbf8e920d	-1.1138321
13	0xbf832799	-1.0246459
14	0xbfc49515	-1.5357996
15	0x3f61dc17	0.88226455
16	0x3f904d5d	1.1273609
17	0x3d2e177a	0.042502858
18	0xbf3c60ec	-0.7358539
19	0xc0000ff4	-2.0009737
20	0x3f21e7fb	0.632446
21	0x3ea397d4	0.31951773
22	0x3f4b58e0	0.7943249
23	0xbffd79d8	-1.9802809
24	0x3fe3da85	1.7801062
25	0x3e8dd0e6	0.2769844
26	0x3f0ea764	0.5572417
27	0x3f8348f4	1.0256639
28	0xbf16e449	-0.58942086
29	0xbf42969e	-0.76011074
30	0x3eb7a0c2	0.35864836
31	0x3f4995dd	0.787443
32	0x3f83973d	1.0280529
33	0xc008d869	-2.1382086
34	0xbe879b47	-0.26485655
35	0x40245606	2.5677505
36	0xbf137178	-0.57595015
37	0xbd611367	-0.054950144
38	0xbfd355a8	-1.6510515
39	0x3ec4f6f4	0.3846966
40	0xbf822bcf	-1.0169619
41	0xbfa7ac41	-1.3099443
42	0x403b119a	2.9229493
43	0xbfd2a74a	-1.6457303
44	0xbfe8dde2	-1.8192713
45	0xc00545d4	-2.082387
46	0x3fc9531d	1.5728489
47	0x3fd056d9	1.6276504
48	0xbf201768	-0.62535715
49	0x3fd1b5fd	1.6383663
50	0x3f8e8f6e	1.1137521
51	0xbf81ddb0	-1.0145779
52	0xbf00e9b8	-0.50356627
53	0x3f046f2d	0.5173214
54	0xbf901fdb	-1.1259722
55	0xbf8d23f4	-1.1026597
56	0x3dcfbe8b	0.10143765
57	0x3f9b6dc8	1.2142878
58	0x3eb0ba8d	0.34517327
59	0xbfe12e4f	-1.7592257
60	0xbf95d934	-1.170691
61	0x3f50dc4f	0.81586164
62	0xc0188247	-2.3829515
63	0xbf73b6e7	-0.9520096
64	0x3f933aea	1.1502354
65	0xbefce4ac	-0.49393213
66	0xbfb18e17	-1.3871487
67	0x3f7c48d1	0.9854861
68	0x3e099030	0.1343391
69	0x3e97a844	0.29620564
70	0x3eac3fa4	0.33642304
71	0xc026c0d8	-2.6055202
72	0x3f3b2115	0.73097354
73	0x3e7138cc	0.23556823
74	0x3fb3a6c0	1.4035263
75	0x3e98aa09	0.29817227
76	0xbf0356c9	-0.513043
77	0x40053e99	2.0819457
78	0x3f268a05	0.6505435
79	0x400f523f	2.239395
80	0x3f803e8b	1.0019087
81	0xbf1e36a8	-0.6180215
82	0xbfe44e78	-1.7836447
83	0x3f994640	1.1974564
84	0xbdf9645f	-0.121773474
85	0x3f984601	1.1896363
86	0xbea2873b	-0.31743798
87	0x3efa5a46	0.48896998
88	0xbe97c25a	-0.29640466
89	0x3fb67ca6	1.425679
90	0xbdcf8091	-0.10131944
91	0x3dcb0169	0.09912378
92	0x4016ee3d	2.358291
93	0xbf57e575	-0.843345
94	0xbf8b6f95	-1.0893427
95	0xbd8f635f	-0.070013754
96	0x3dbcd52e	0.09220348
97	0xbed8580d	-0.42254677
98	0x3f74de91	0.9565211
99	0xbbe961a7	-0.007122237
100	0xbed3124a	-0.4122489
101	0x3f89dfad	1.0771385
102	0x3da751bf	0.08169889
103	0x3f6efee2	0.9335767
104	0xbe1b28bf	-0.15152262
105	0xbf6a3536	-0.91487443
106	0xbfcf09af	-1.617483
107	0x3eeded91	0.4647031
108	0xbf8bf0cb	-1.0932859
109	0x3df337b5	0.1187586
110	0xbf0ad57b	-0.54231995
111	0xbf02b6e8	-0.5106034
112	0xbf77bb15	-0.9676984
113	0xbf2ae9b6	-0.66762865
114	0xbfa67364	-1.3003964
115	0x3fa9691a	1.32352
116	0xbfbcecba	-1.4759743
117	0x3ec6e2f1	0.38845018
118	0x3eab6b2a	0.33480197
119	0x3f92a1da	1.1455643
120	0x3f4657f2	0.77477944
121	0xbeac40ce	-0.33643192
122	0x3da64927	0.081194215
123	0x3f624e47	0.8840069
124	0x3f1eb30e	0.61991966
125	0x3d073975	0.03301378
126	0x3fc55d43	1.5419086
127	0xbe8c6bba	-0.2742594
128	0x3ed08047	0.40722868
129	0x3f41b1fb	0.756622
130	0x3e460e4d	0.19341393
131	0x400264fd	2.0374138
132	0x3de5c88e	0.112198934
133	0x3f46377a	0.774284
134	0xbf959897	-1.1687192
135	0xbfd1d644	-1.6393514
136	0x3e2b4047	0.16723739
137	0xbe5c11be	-0.21491143
138	0xbedf8bf5	-0.43661466
139	0x3f29fa8c	0.6639793
140	0xbe8fb3e8	-0.28066945
141	0xbf6d0b6d	-0.9259556
142	0x3f3b374e	0.73131263
143	0xbfd182a0	-1.6367989
144	0x3e107f72	0.14111117
145	0xbfb38b7c	-1.4026942
146	0xbfafefab	-1.3745016
147	0xbd9896c3	-0.074506305
148	0xbff50b9b	-1.9144167
149	0x3f6ac10c	0.91700816
150	0x3d0e4e95	0.03474291
151	0x3f09c272	0.53812325
152	0x3d18c54a	0.037297525
153	0x3f18b0d5	0.59644824
154	0x3d5f1492	0.054462977
155	0x3fa05999	1.2527343
156	0x3f30a9a2	0.6900884
157	0x3fc82ea0	1.5639229
158	0x3f29f5da	0.66390765
159	0x3f080c77	0.5314402
160	0xbd803be3	-0.062614225
161	0xbf980f2c	-1.187963
162	0xc0249637	-2.5716684
163	0xbfd28803	-1.6447757
164	0xbf6f9d2e	-0.9359921
165	0x3e21fb2b	0.15818469
166	0x3f076bfc	0.52899146
167	0x3f4003f4	0.7500603
168	0x3fc3da2c	1.5300956
169	0xbf21eb6f	-0.6324987
170	0xbfb5a261	-1.4190179
171	0xbf93942f	-1.1529597
172	0x3f4aadcd	0.7917145
173	0xbe992dfc	-0.29917896
174	0x3f2a8b94	0.6661923
175	0xbfdb9dc8	-1.7157526
176	0x3f1d7458	0.6150565
177	0x3dd12e0b	0.1021386
178	0x401ddfaa	2.4667764
179	0xbe17f3bb	-0.1483907
180	0xbfa91b97	-1.3211545
181	0xbea618a4	-0.32440674
182	0x3f37dd7d	0.7182234
183	0xbf009dfe	-0.50241077
184	0x3f67e27c	0.9057996
185	0xbf1a5dea	-0.6029955
186	0x3f0b64a9	0.5445047
187	0x3f023c14	0.5087292
188	0xbef7d07a	-0.48401242
189	0xbf79c6e4	-0.9756911
190	0xbe9a92dc	-0.3019017
191	0x3f202164	0.6255095
192	0xbef7c084	-0.48389065
193	0xbe0e5ccd	-0.13902588
194	0xbf24895d	-0.642721
195	0x3c8e6288	0.017380968
196	0xbd05dab9	-0.032679293
197	0x404da24c	3.2130308
198	0x3f83529f	1.0259589
199	0xbf845a3a	-1.0340035
200	0xbf90a2a5	-1.1299635
201	0xbf5e4ab0	-0.86832714
202	0x3ff45071	1.9087049
203	0xbf57b25b	-0.84256524
204	0x3ec88b87	0.3916895
205	0x3e9f8d07	0.31162283
206	0xbde255d6	-0.11051528
207	0xbfc55257	-1.5415753
208	0xbfd1e08c	-1.6396651
209	0xbf837d99	-1.0272704
210	0x3fe9a08a	1.8252118
211	0xbee7d994	-0.45283186
212	0x3f74746b	0.9549014
213	0x4009de71	2.1542017
214	0xbf3c033c	-0.73442435
215	0x3ee61833	0.44940338
216	0x3ca9ac17	0.020711942
217	0x3db87f14	0.09008613
218	0x3f2402b3	0.6406662
219	0x3fce1c8d	1.6102463
220	0xbfb44beb	-1.4085668
221	0x3f63ab5c	0.8893335
222	0xc0124b87	-2.2858598
223	0xbe8c31d5	-0.2738177
224	0xbf734091	-0.95020396
225	0xbe6ab1fb	-0.22919457
226	0xbfcb0a3b	-1.5862497
227	0xbe2a5d78	-0.16637218
228	0x3e9a730a	0.30165893
229	0x3f815792	1.0104849
230	0xbf83a3af	-1.0284327
231	0x3d510abe	0.051035635
232	0x3edf5f88	0.43627572
233	0x3f1dcd5d	0.61641484
234	0xbf5c00c9	-0.859387
235	0xbef51d59	-0.47873953
236	0x3f2a4511	0.66511637
237	0xbe19db74	-0.15025121
238	0xbf0056c3	-0.5013239
239	0x3f76a8dd	0.96351415
240	0xbf8d1b5b	-1.1023973
241	0x3fed9f1b	1.856418
242	0xbfb1cf09	-1.3891307
243	0x3edce330	0.4314208
244	0x3e1595fe	0.14607999
245	0x3d25aaf9	0.040446255
246	0xbf4de493	-0.804269
247	0x3edc733f	0.43056676
248	0x3ecea2b0	0.40358496
249	0xbefc0a6a	-0.49226695
250	0x3f6da986	0.928368
251	0x3e9a2464	0.3010589
252	0xbe0d2a3a	-0.1378564
253	0x3f702195	0.9380124
254	0xbe200ab8	-0.15629089
255	0xbffefb3a	-1.9920418
