output/section8/checkpoint14.pt (torch, 5881 bytes, 1 tensors)

fc.weight f4 [4, 300]
0.37390333 -0.06370412 0.87078667 -0.016590314 -0.12559162 -1.1422232 -1.224111 0.2918167
-0.584646 -1.0821126 0.3761795 1.4617065 -1.3378795 -1.1951374 -1.5203584 0.80573434
1.1202203 0.053772833 -0.84392494 -1.798042 0.55100304 0.40843105 0.72873473 -2.0384202
1.7256272 0.088646896 0.64341575 0.93420005 -0.5258991 -0.8694971 0.23183954 0.8467218
1.1234661 -2.1458077 -0.24125803 2.5711787 -0.6913521 -0.20549582 -1.6416577 0.54621065
-1.0917691 -1.3527442 2.7182198 -1.5442892 -1.8350068 -2.0316505 1.7369812 1.6224983
-0.6224298 1.6040955 1.0428454 -1.0396281 -0.71626335 0.44354525 -0.9886572 -1.043476
0.16395393 1.1841782 0.13165106 -1.5852046 -1.1536005 0.9010089 -2.1700664 -0.92863774
1.1665632 -0.29456794 -1.4082878 1.2387613 0.027920146 0.35257638 0.37597582 -2.644338
0.7045665 0.2385328 1.4093462 0.28171518 -0.5659989 1.9246961 0.63426995 2.4624739
0.9964402 -0.7068956 -1.9044676 1.1288971 -0.40929946 1.2199622 -0.32960042 0.47497645
-0.52594966 1.5541029 -0.052890077 -0.014582654 2.368163 -1.0188828 -0.8931847 0.050638516
0.09246787 -0.3123106 1.0418816 -0.009834393 -0.40606636 1.1811718 0.07963512 1.0325648
-0.20850201 -0.85399014 -1.8573321 0.44574586 -1.1088233 0.11734401 -0.609117 -0.4040629
-0.77997553 -0.64890105 -1.187617 1.3889586 -1.677707 0.2966344 0.30134475 1.1674136
0.60100055 -0.43522018 0.0817651 0.80812263 0.6348248 0.11795549 1.641902 -0.13202149
0.23160899 0.8418841 0.095604606 2.108771 -0.13929562 0.7081994 -1.1581875 -1.6978705
0.33865374 -0.2227927 -0.51744735 0.60132974 -0.32801476 -0.6961264 0.7154662 -1.5664294
0.06594265 -1.391925 -1.115789 0.086169824 -1.9891038 0.7948171 0.04980953 0.43759394
-0.16855855 0.695718 0.09954229 1.2181666 0.7040196 1.5022912 0.74210095 0.45574406
-0.09052081 -1.2606264 -2.7044833 -1.6900512 -0.96528155 0.32836547 0.51293045 0.6898698
1.4412215 -0.72493947 -1.1676371 -1.2980857 0.6490499 -0.34913924 0.6238846 -1.6924034
0.6170339 0.15044348 2.484143 -0.076306485 -1.343039 -0.19861619 0.87261134 -0.64690787
0.7525422 -0.36150455 0.47488233 0.3322419 -0.59553915 -0.87666094 -0.15903847 0.63057566
-0.43491268 -0.23950587 -0.7078248 0.019653233 0.20626071 3.2960956 1.1239042 -1.0857891
-1.0282301 -0.9134863 2.0792634 -0.68808836 0.5104881 0.18930818 -0.16454512 -1.6861702
-1.8301469 -1.0375928 1.8734347 -0.47437757 0.9400207 2.0683317 -0.855769 0.38572583
-0.12754105 -0.03948117 0.68982244 1.5968058 -1.5204626 0.9020599 -2.0789974 -0.15800908
-1.0739005 -0.3424293 -1.5867131 -0.2720096 0.18683477 0.91581017 -1.0220523 0.07243086
0.42595097 0.5109264 -0.9853792 -0.5974329 0.5556652 -0.25408256 -0.46539393 1.0400133
-1.0951782 1.9281471 -1.223425 0.28773206 0.022455325 0.12985174 -0.931933 0.502829
0.33889967 -0.6108503 0.9766465 0.3944103 -0.029657211 1.0067999 -0.034408543 -2.0385847
00000000: 4270 bf3e 4e77 82bd e0eb 5e3f 69e8 87bc
00000010: 179b 00be 5f34 92bf abaf 9cbf 0069 953e
00000020: 5cab 15bf aa82 8abf 999a c03e 3319 bb3f
00000030: a33f abbf 43fa 98bf 1b9b c2bf 9b44 4e3f
00000040: 6163 8f3f e740 5c3d 770b 58bf 3e26 e6bf
00000050: 890e 0d3f e01d d13e 5c8e 3a3f 7a75 02c0
00000060: 5ae1 dc3f 818c b53d e5b6 243f bc27 6f3f
00000070: 53a1 06bf 5d97 5ebf 5867 6d3e c3c2 583f
00000080: bdcd 8f3f ea54 09c0 580c 77be 318e 2440
00000090: 74fc 30bf 7f6d 52be d721 d2bf 76d4 0b3f
000000a0: 17bf 8bbf b926 adbf 50f7 2d40 45ab c5bf
000000b0: 81e1 eabf 9006 02c0 6655 de3f 06ae cf3f
000000c0: 8f57 1fbf 0053 cd3f f57b 853f 8912 85bf
000000d0: 095d 37bf 5d18 e33e a318 7dbf 9f90 85bf
000000e0: 8ae3 273e 2793 973f 89cf 063e fce7 cabf
000000f0: 2ea9 93bf 85a8 663f 5ee2 0ac0 34bb 6dbf
00000100: f151 953f 9cd1 96be c642 b4bf bb8f 9e3f
00000110: cab8 e43c e484 b43e e77f c03e d53c 29c0
00000120: 785e 343f f141 743e 7565 b43f f93c 903e
00000130: 4ee5 10bf 715c f63f 845f 223f 2c99 1d40
00000140: b416 7f3f 1cf7 34bf 98c5 f3bf b37f 903f
00000150: b38f d1be b927 9c3f 63c1 a8be 1d30 f33e
00000160: a3a4 06bf d8ec c63f 44a3 58bd 16ec 6ebc
00000170: fc8f 1740 c06a 82bf c1a7 64bf 556a 4f3d
00000180: cb5f bd3d 2de7 9fbe 605c 853f 6f20 21bc
00000190: eee7 cfbe a330 973f bd17 a33d 152b 843f
000001a0: 8d81 55be 199f 5abf 0fbd edbf cd38 e43e
000001b0: eced 8dbf 0e52 f03d 17ef 1bbf 55e1 cebe
000001c0: 7aac 47bf 611e 26bf d503 98bf 65c9 b13f
000001d0: 1abf d6bf 77e0 973e dc49 9a3e cf6d 953f
000001e0: 2cdb 193f 2ed5 debe 7674 a73d 20e1 4e3f
000001f0: e183 223f a692 f13d d829 d23f a430 07be
00000200: e82a 6d3e b785 573f 59cc c33d 1bf6 0640
00000210: 83a3 0ebe 8e4c 353f 7d3f 94bf d253 d9bf
00000220: 0664 ad3e c523 64be 6e77 04bf bff0 193f
00000230: 8df1 a7be 5735 32bf cb28 373f c280 c8bf
00000240: f10c 873d 992a b2bf 2dd2 8ebf ce79 b03d
00000250: f49a febf 2279 4b3f 1405 4c3d 500c e03e
00000260: 9d9a 2cbe 931a 323f d4dc cb3d e2ec 9b3f
00000270: a13a 343f 144b c03f 54fa 3d3f 4957 e93e
00000280: f962 b9bd 355c a1bf 4116 2dc0 9953 d8bf
00000290: b11c 77bf 851f a83e 694f 033f 4f9b 303f
000002a0: f279 b83f a295 39bf 2275 95bf ac27 a6bf
000002b0: 2228 263f 61c2 b2be e7b6 1f3f ada0 d8bf
000002c0: eff5 1d3f db0d 1a3e 33fc 1e40 9346 9cbd
000002d0: b4e8 abbf 0b62 4bbe 7563 5f3f c19b 25bf
000002e0: 9ba6 403f 2017 b9be c723 f33e 9c1b aa3e
000002f0: 4175 18bf da6c 60bf fbda 22be 686d 213f
00000300: e0ac debe 0741 75be 0234 35bf d1ff a03c
00000310: 0236 533e 3bf3 5240 18dc 8f3f 23fb 8abf
00000320: 0b9d 83bf 3dda 69bf a712 0540 8f26 30bf
00000330: 59af 023f 01da 413e 847e 28be 6dd4 d7bf
00000340: 4142 eabf d7cf 84bf b5cc ef3f 9ee1 f2be
00000350: 32a5 703f 8c5f 0440 ad13 5bbf db7d c53e
00000360: 1f9a 02be 02b7 21bd 3498 303f 2264 cc3f
00000370: 859e c2bf 66ed 663f 4b0e 05c0 22cd 21be
00000380: 9275 89bf e552 afbe 6a19 cbbf d844 8bbe
00000390: 9d51 3f3e 8972 6a3f 9cd2 82bf a156 943d
000003a0: 3f16 da3e 13cc 023f d041 7cbf 5df1 18bf
000003b0: 1340 0e3f 1c17 82be 1d48 eebe 281f 853f
000003c0: cd2e 8cbf 86cd f63f 3199 9cbf 9e51 933e
000003d0: 3bf4 b73c dbf7 043e 2993 6ebf 67b9 003f
000003e0: 4284 ad3e af60 1cbf 8105 7a3f 26f0 c93e
000003f0: aef3 f2bc d2de 803f f9ef 0cbd 2c78 02c0
