output/section8/checkpoint19.pt (torch, 5881 bytes, 1 tensors)

fc.weight f4 [4, 300]
0.31661287 -0.059895813 0.8274508 0.065015696 -0.09322388 -1.224732 -1.1989427 0.3408682
-0.52886474 -1.0623617 0.29268113 1.4422233 -1.2071515 -1.0932348 -1.5354472 0.8516362
1.1216851 0.044893134 -0.77990776 -1.9186587 0.60071594 0.3605397 0.7719942 -2.002133
1.7637626 0.20275335 0.59391814 0.98842865 -0.5683226 -0.7997968 0.31549504 0.81445646
1.0662764 -2.1417766 -0.25012887 2.5706115 -0.6212719 -0.11277653 -1.6447669 0.44996482
-1.0511272 -1.3316872 2.845669 -1.609076 -1.831052 -2.061492 1.639233 1.6270571
-0.62556016 1.6261086 1.0911796 -1.0251875 -0.5897001 0.4914435 -1.0681229 -1.0765501
0.12344353 1.2054322 0.2603872 -1.6929902 -1.1672335 0.8479489 -2.2976148 -0.9412141
1.155809 -0.41704267 -1.3958848 1.0842344 0.08935654 0.317453 0.35818177 -2.6225092
0.7280879 0.24208954 1.4097137 0.29270768 -0.5346669 2.0279622 0.64234555 2.331646
0.9998471 -0.65811336 -1.8374223 1.1700267 -0.23541051 1.2045313 -0.3206975 0.47814316
-0.39165527 1.4807379 -0.07457835 0.052837323 2.3651755 -0.9146009 -1.0093267 -0.022880381
0.08693675 -0.37782267 0.99369806 -0.0136076845 -0.41224802 1.1220262 0.082274154 0.9805278
-0.17306821 -0.8898774 -1.7160515 0.45237783 -1.1057642 0.11898438 -0.5668793 -0.47082525
-0.88863724 -0.65676576 -1.2551206 1.3525476 -1.5601212 0.3527092 0.3197335 1.1565261
0.7105192 -0.3736161 0.08074394 0.8540558 0.62486655 0.069175474 1.5841769 -0.2188679
0.3350587 0.7880893 0.15239476 2.0734534 0.014853662 0.74657834 -1.1644512 -1.6637428
0.23160797 -0.21821263 -0.47124633 0.6391263 -0.2972757 -0.83481276 0.72708035 -1.61322
0.10776575 -1.3997378 -1.269308 -0.011652166 -1.9353582 0.8719329 0.03754858 0.49935508
-0.04391859 0.638011 0.07532708 1.2395467 0.6969131 1.5424452 0.6961467 0.50263196
-0.07300367 -1.2222936 -2.6271193 -1.6671573 -0.94503385 0.23011984 0.52293384 0.7239113
1.4993329 -0.66680896 -1.3219872 -1.2149699 0.73989904 -0.31919068 0.6529233 -1.7125719
0.61616945 0.12440618 2.4797385 -0.120482825 -1.3330259 -0.27231503 0.7826926 -0.5588683
0.84342307 -0.50690997 0.51991946 0.43783587 -0.52673095 -0.933016 -0.2416525 0.62839895
-0.46424106 -0.17861487 -0.6684953 0.013796673 0.06203677 3.2529635 1.0682173 -1.0562257
-1.0933342 -0.88715273 1.9794867 -0.7842804 0.43755108 0.26333797 -0.1297908 -1.602594
-1.7185122 -1.0332106 1.8498498 -0.46534708 0.95063525 2.1250486 -0.78270483 0.42498633
-0.04173977 0.034865763 0.66396326 1.6057229 -1.4521552 0.893667 -2.209508 -0.22461618
-1.0029712 -0.2776417 -1.5831685 -0.20978643 0.26113358 0.9729704 -1.0253344 0.05961565
0.4326658 0.5789405 -0.9087989 -0.52514017 0.6257648 -0.1924777 -0.48942614 0.9929332
-1.0991182 1.889357 -1.3248981 0.37976947 0.09618882 0.0755076 -0.8567493 0.45309797
0.38376758 -0.54047656 0.94937956 0.33889744 -0.099266395 0.96652955 -0.11051904 -2.0105546
00000000: 151b a23e 5055 75bd d1d3 533f f326 853d
00000010: 29ec bebd 05c4 9cbf f476 99bf 4786 ae3e
00000020: ae63 07bf 78fb 87bf 4dda 953e c69a b83f
00000030: f183 9abf 1eef 8bbf 8989 c4bf d404 5a3f
00000040: 6193 8f3f dde1 373d 09a8 47bf 9c96 f5bf
00000050: 85c8 193f a998 b83e 69a1 453f f222 00c0
00000060: f9c2 e13f 939e 4f3e 050b 183f a909 7d3f
00000070: 977d 11bf 7cbf 4cbf 9188 a13e 3880 503f
00000080: bf7b 883f de12 09c0 e410 80be e684 2440
00000090: ad0b 1fbf 62f7 e6bd b987 d2bf ca61 e63e
000000a0: 568b 86bf ba74 aabf 711f 3640 34f6 cdbf
000000b0: e95f eabf 7cef 03c0 63d2 d13f 6843 d03f
000000c0: b624 20bf 5424 d03f c6ab 8b3f 5839 83bf
000000d0: 96f6 16bf 7c9e fb3e 40b8 88bf 65cc 89bf
000000e0: f6cf fc3d 9a4b 9a3f 7951 853e e7b3 d8bf
000000f0: e867 95bf 2e13 593f 1f0c 13c0 68f3 70bf
00000100: 8df1 933f 9e86 d5be 5aac b2bf 31c8 8a3f
00000110: 9000 b73d 3389 a23e 9a63 b73e 31d7 27c0
00000120: f863 3a3f 52e6 773e 8071 b43f c8dd 953e
00000130: eedf 08bf 22ca 0140 c270 243f b039 1540
00000140: fbf5 7f3f 1e7a 28bf a730 ebbf 6fc3 953f
00000150: 740f 71be 152e 9a3f 7632 a4be 2ecf f43e
00000160: 0a87 c8be d288 bd3f 89bc 98bd f36b 583d
00000170: 095f 1740 4923 6abf 9e31 81bf a36f bbbc
00000180: e50b b23d f971 c1be ff62 7e3f c4f2 5ebc
00000190: 2c12 d3be 8e9e 8f3f 5a7f a83d df03 7b3f
000001a0: cb38 31be 01cf 63bf 93a7 dbbf 119e e73e
000001b0: ae89 8dbf 15ae f33d 001f 11bf 0210 f1be
000001c0: bb7d 63bf cd21 28bf cba7 a0bf 4820 ad3f
000001d0: 0db2 c7bf 4d96 b43e 1cb4 a33e 0c09 943f
000001e0: 96e4 353f 9c4a bfbe 145d a53d 67a3 5a3f
000001f0: 41f7 1f3f dfab 8d3d 4fc6 ca3f e81e 60be
00000200: d08c ab3e 38c0 493f 5f0d 1c3e 76b3 0440
00000210: c65c 733c c21f 3f3f bd0c 95bf 86f5 d4bf
00000220: a42a 6d3e 2273 5fbe 3347 f1be c89d 233f
00000230: 8534 98be 4ab6 55bf f021 3a3f fe7d cebf
00000240: 4ab4 dc3d 9c2a b3bf af78 a2bf bae8 3ebc
00000250: d1b9 f7bf ff36 5f3f 8acc 193d 78ab ff3e
00000260: fbe3 33bd b054 233f 1645 9a3d 77a9 9e3f
00000270: e668 323f d86e c53f ac36 323f 7dac 003f
00000280: f382 95bd 1e74 9cbf b922 28c0 6965 d5bf
00000290: bded 71bf 89a4 6b3e fede 053f 4052 393f
000002a0: 24ea bf3f feb3 2abf e036 a9bf 2284 9bbf
000002b0: 066a 3d3f f66c a3be fb25 273f 8e35 dbbf
000002c0: 48bd 1d3f abc8 fe3d 09b4 1e40 b3bf f6bd
000002d0: 98a0 aabf e06c 8bbe 8b5e 483f fe11 0fbf
000002e0: 93ea 573f dac4 01bf 7119 053f 062c e03e
000002f0: d7d7 06bf 23da 6ebf c173 77be c1de 203f
00000300: 01b1 edbe d1e6 36be 8222 2bbf 710b 623c
00000310: 451a 7e3d 8e30 5040 58bb 883f 6732 87bf
00000320: 60f2 8bbf 711c 63bf d25f fd3f 9ac6 48bf
00000330: b206 e03e 3cd4 863e e1e7 04be cd21 cdbf
00000340: 35f8 dbbf 3f40 84bf e1c7 ec3f f941 eebe
00000350: d55c 733f cc00 0840 585f 48bf cf97 d93e
00000360: 52f7 2abd 67cf 0e3d 7ff9 293f 5488 cd3f
00000370: 39e0 b9bf 5cc7 643f 9468 0dc0 c901 66be
00000380: 5c61 80bf 0e27 8ebe 44a5 cabf 41d2 56be
00000390: 4db3 853e 9714 793f 283e 83bf 8a2f 743d
000003a0: 5f86 dd3e 7235 143f 0ba7 68bf 966f 06bf
000003b0: 1f32 203f e018 45be 1096 fabe df30 7e3f
000003c0: e8af 8cbf 73d6 f13f 4396 a9bf 2571 c23e
000003d0: a5fe c43d bba3 9a3d ec53 5bbf 75fc e73e
000003e0: 2f7d c43e ac5c 0abf 8a0a 733f f783 ad3e
000003f0: 2e4c cbbd 7b6e 773f ce57 e2bd edac 00c0
