output/section8/checkpoint1.pt (torch, 5881 bytes, 1 tensors)

fc.weight f4 [4, 300]
0	0x3f47b15b	0.78005
1	0xbe38d0bb	-0.18048374
2	0x3f8e9c62	1.1141474
3	0xbe99b0fc	-0.3001784
4	0xbeaaf322	-0.3338862
5	0xbf0ffcfa	-0.56245387
6	0xbf9970e6	-1.1987579
7	0xbd959c9a	-0.0730526
8	0xbf6d9b0c	-0.9281471
9	0xbf91caff	-1.1390074
10	0x3f80a4d5	1.0050303
11	0x3f98ef3c	1.1948009
12	0xbffa0737	-1.9533452
13	0xbfd58988	-1.6682596
14	0xbf915afe	-1.1355894
15	0x3f230b28	0.636889
16	0x3fa4d5d6	1.2877758
17	0x3e5cbb06	0.21555719
18	0xbf8c4c40	-1.096077
19	0xbf9f829d	-1.2461735
20	0x3e921bfd	0.28536978
21	0x3eb8b2ea	0.36074
22	0x3ee80653	0.45317325
23	0xc013e40f	-2.3107946
24	0x3fa313d2	1.2740424
25	0xbf1327b6	-0.5748247
26	0x3f3bc05b	0.73340386
27	0x3f47b9f9	0.78018147
28	0xbe1499b8	-0.14511764
29	0xbfb693c1	-1.4263841
30	0xbede4ef2	-0.43419605
31	0x3f82dad6	1.0223033
32	0x3fb2b723	1.3962139
33	0xc009ba2e	-2.1519885
34	0xbeddba1d	-0.43306056
35	0x4026dfd4	2.6074114
36	0xbf7bdf9b	-0.9838807
37	0xbf207972	-0.6268531
38	0xbfe97443	-1.8238605
39	0x3f7d5ad0	0.98966694
40	0xbf9554c9	-1.1666499
41	0xbfb36834	-1.4016175
42	0x3fff5e4b	1.9950651
43	0xbf8e0ef2	-1.1098311
44	0xbfbe1518	-1.4850187
45	0xbff63d58	-1.9237471
46	0x400a752a	2.1634011
47	0x3fb5bc15	1.4198023
48	0xbf067672	-0.52524483
49	0x3fc40dcf	1.5316714
50	0x3ed8e0d9	0.42359045
51	0xbf7454fd	-0.9544218
52	0xbf9803e6	-1.187619
53	0x3dd4c8fe	0.10389899
54	0xbf3ac7dc	-0.7296121
55	0xbf802d11	-1.0013753
56	0x3eebf886	0.46088046
57	0x3f75f3b6	0.96075
58	0xbf1329a6	-0.57485425
59	0xbf61f070	-0.88257504
60	0xbf61b483	-0.88166064
61	0x3f9fbeab	1.2480062
62	0xbfc6af02	-1.5522158
63	0xbf6e45e1	-0.93075377
64	0x3fa53b0b	1.2908643
65	0x3e9f69bc	0.31135356
66	0xbfbf58b4	-1.4948945
67	0x3ff64284	1.9239049
68	0xbe35de64	-0.17760617
69	0x3f28e98c	0.65981364
70	0x3ee9e744	0.45684254
71	0xc0219b2b	-2.5250957
72	0x3de78035	0.113037504
73	0x3c862d7e	0.016379114
74	0x3f9e40af	1.236349
75	0x3e812c55	0.25229135
76	0xbf471f4c	-0.7778213
77	0x3f70b9d5	0.9403356
78	0x3f1d4f64	0.61449265
79	0x403d2c8c	2.955844
80	0x3f6bcab7	0.92106193
81	0xbf40f9e2	-0.7538129
82	0xbffab79a	-1.9587281
83	0x3f3d2d28	0.7389703
84	0xbfa6174a	-1.2975857
85	0x3f9ccac6	1.2249382
86	0xbec030da	-0.3753727
87	0x3f1b4a48	0.6066022
88	0xbf5ca70e	-0.86192405
89	0x3fdd07fb	1.726806
90	0xbeeaef11	-0.45885518
91	0xbe5aea19	-0.21378364
92	0x400fe84e	2.2485538
93	0xbfc118d9	-1.5085708
94	0xbeeb5a17	-0.4596717
95	0x3f1b20a2	0.6059667
96	0x3e9b8f19	0.30382612
97	0xbd343634	-0.043997005
98	0x3f8f4ada	1.1194718
99	0x3e05658d	0.1302702
100	0xbeb5b16e	-0.3548693
101	0x3fb6543e	1.4244459
102	0x3dae7990	0.0851928
103	0x3f754369	0.95805985
104	0xbeeb01d0	-0.4589982
105	0xbf2fd5c9	-0.68685585
106	0xc016a43f	-2.3537748
107	0x3f13bf20	0.5771351
108	0xbf74d56d	-0.9563816
109	0x3ddca928	0.107744515
110	0xbf68c3e2	-0.90923893
111	0xbd132910	-0.035927832
112	0xbe936f17	-0.28795692
113	0xbf4efa69	-0.80850846
114	0xbf63a261	-0.88919646
115	0x3fb4d5c3	1.4127735
116	0xc008b6ff	-2.1361692
117	0x3c86382e	0.01638421
118	0x3dd476c4	0.10374215
119	0x3f86c1d6	1.0527904
120	0xbbd57bc7	-0.0065149995
121	0xbf54864d	-0.83017427
122	0x3e453025	0.19256647
123	0x3f00f78c	0.50377727
124	0x3f46de9f	0.7768344
125	0x3e83d7cd	0.2575058
126	0x3fe7569f	1.807331
127	0x3ecff0ff	0.40613553
128	0xbdd90ad2	-0.10597767
129	0x3f94f78a	1.1638043
130	0xbe609fcb	-0.21935956
131	0x3ff92ad6	1.9466197
132	0xbf7d00b1	-0.9882918
133	0x3f36500a	0.7121588
134	0xbf9658b8	-1.1745825
135	0xbfe26113	-1.7685875
136	0x3f54feb5	0.8320115
137	0xbe68db2d	-0.22739859
138	0xbef153e0	-0.47134304
139	0x3eefae86	0.46812838
140	0xbf1599f0	-0.58438015
141	0x3e2283b0	0.15870547
142	0x3f24035f	0.64067644
143	0xbfb135a3	-1.3844494
144	0x3d0ca397	0.0343357
145	0xbf8e21fa	-1.1104119
146	0xbf15659d	-0.58358175
147	0x3f1d4887	0.6143879
148	0xc0253090	-2.581089
149	0x3e857f7b	0.26073822
150	0x3e9c2e15	0.30503908
151	0x3dfa3a1e	0.12218116
152	0xbf65e83a	-0.89807475
153	0x3f5cce58	0.86252356
154	0x3d56be13	0.052427363
155	0x3f83903f	1.0278395
156	0x3f510df7	0.81661934
157	0x3fa5d7f2	1.2956526
158	0x3f792bc0	0.9733238
159	0x3e301ea1	0.17199184
160	0xbe29113d	-0.16510482
161	0xbf96ee24	-1.1791425
162	0xc03c6afd	-2.94403
163	0xbfc333ad	-1.5250145
164	0xbf91b158	-1.1382246
165	0x3f0adf2d	0.5424679
166	0x3ef9444b	0.48684916
167	0x3f0479aa	0.51748145
168	0x3f58fddf	0.84762377
169	0xbf83be98	-1.029254
170	0xbe8b3253	-0.27186832
171	0xbfc49624	-1.5358319
172	0x3d8997a1	0.06718374
173	0xbed66745	-0.41875663
174	0x3e6d1743	0.23153405
175	0xbf9ff812	-1.249758
176	0x3f30f3fa	0.6912228
177	0x3e538fad	0.20660277
178	0x4016d9ae	2.357036
179	0x3e3de1ba	0.18543139
180	0xbf938b3e	-1.1526868
181	0x3e32feb2	0.17479971
182	0x3fa3a430	1.2784481
183	0xbf8343e6	-1.0255096
184	0x3e5b4d44	0.21416193
185	0x3ec14b4e	0.37752765
186	0x3e2d7a1a	0.1694111
187	0xbeb51a3d	-0.3537158
188	0xbf7978a5	-0.97449714
189	0xbf4a87df	-0.7911357
190	0x3e471aa7	0.19443761
191	0x3f2bbdc0	0.6708641
192	0xbe456df7	-0.1928023
193	0xbee1a91a	-0.44074327
194	0xbf3398f5	-0.7015527
195	0x3e73e652	0.23818329
196	0x3f80ab95	1.0052363
197	0x4054f7ca	3.3276238
198	0x3f9be3ed	1.2178932
199	0xbf880f7e	-1.0629728
200	0xbf229a42	-0.6351663
201	0xbf8c0177	-1.0937947
202	0x4018e0cc	2.3887205
203	0xbe30bb8f	-0.17259048
204	0x3f8291c9	1.020074
205	0xbe67ed6f	-0.22649167
206	0xbee88bed	-0.45419255
207	0xbfe03dfb	-1.7518915
208	0xc0132e4e	-2.2997012
209	0xbf7627f0	-0.9615469
210	0x3ff3ec23	1.9056438
211	0xbeacd5a9	-0.3375676
212	0x3f53246e	0.8247746
213	0x3faf50cd	1.3696533
214	0xbf9811d0	-1.1880436
215	0x3e368b69	0.17826618
216	0xbeeddd05	-0.46457687
217	0xbe99aa3c	-0.3001269
218	0x3f42ddc6	0.7611965
219	0x3fb44839	1.4084541
220	0xbfef4042	-1.8691485
221	0x3f73a34e	0.9517106
222	0xbf8ec1ed	-1.1152931
223	0x3d6020e8	0.05471888
224	0xbf904ba4	-1.1273084
225	0xbf03abb2	-0.5143386
226	0xbfe230d6	-1.7671154
227	0xbed1141e	-0.4083566
228	0xbf0978fe	-0.53700244
229	0x3f01c4c1	0.5069085
230	0xbf4b1024	-0.79321504
231	0x3d6b8dd7	0.057508316
232	0x3e5101e5	0.20410879
233	0x3dd4dbb6	0.10393469
234	0xbfa4898c	-1.2854476
235	0xbf70f1b3	-0.94118804
236	0x3df043a1	0.11731649
237	0xbef40ffe	-0.4766845
238	0xbe883b62	-0.26607805
239	0x3fb29b20	1.395359
240	0xbf8e8371	-1.1133863
241	0x3ffea239	1.9893256
242	0xbf2c8b2e	-0.6739987
243	0xbea4128c	-0.320454
244	0xbead70cd	-0.33875123
245	0x3f048308	0.5176244
246	0xbf9867c3	-1.1906666
247	0x3f89fcfc	1.078033
248	0xbdadd502	-0.08487894
249	0xbf7313ef	-0.9495229
250	0x3f9999ea	1.2000096
251	0x3f4b2f64	0.7936919
252	0x3f2e4f93	0.6809017
253	0x3fa08f01	1.2543641
254	0x3f0b960c	0.5452583
255	0xc00867fb	-2.1313465
