output/section8/checkpoint11.pt (torch, 5881 bytes, 1 tensors)

fc.weight f4 [4, 300]
0	0x3ed852a6	0.42250556
1	0xbd955698	-0.07291907
2	0x3f672bb1	0.9030104
3	0xbd8f2ea4	-0.06991318
4	0xbe1ebaa7	-0.1550089
5	0xbf89940e	-1.0748308
6	0xbf9e5cb6	-1.2372043
7	0x3e81f101	0.25379184
8	0xbf201689	-0.62534386
9	0xbf8c4531	-1.0958616
10	0x3ee480f1	0.44629624
11	0x3fbb3689	1.4626018
12	0xbfb69a40	-1.4265823
13	0xbfa25913	-1.2683433
14	0xbfbf789d	-1.4958683
15	0x3f4593ce	0.7717866
16	0x3f8fe1b1	1.124075
17	0x3d82d971	0.0638913
18	0xbf637abc	-0.8885915
19	0xbfdb1007	-1.7114266
20	0x3f0363f6	0.51324403
21	0x3edd2049	0.43188694
22	0x3f30afd1	0.69018275
23	0xc0046165	-2.0684445
24	0x3fd7dcaf	1.6864222
25	0x3b4cdfe1	0.0031261372
26	0x3f2ce3f9	0.6753536
27	0x3f6584eb	0.8965594
28	0xbef96122	-0.4870692
29	0xbf6db977	-0.9286112
30	0x3e20c082	0.15698436
31	0x3f5ddab6	0.8666185
32	0x3f954de2	1.1664393
33	0xc0097fcb	-2.1484249
34	0xbe7b65a7	-0.24550496
35	0x40247d55	2.5701497
36	0xbf3e372a	-0.74302924
37	0xbe8de32d	-0.27712384
38	0xbfd2ce4e	-1.6469209
39	0x3f1d5aca	0.6146666
40	0xbf8e958e	-1.113939
41	0xbfae2b18	-1.3606901
42	0x40278591	2.6175272
43	0xbfbed817	-1.4909695
44	0xbfe987c6	-1.824456
45	0xc0009f28	-2.0097141
46	0x3fe73514	1.8063073
47	0x3fcec3c7	1.6153497
48	0xbf1dcd48	-0.6164136
49	0x3fcaff92	1.5859244
50	0x3f7eae6e	0.9948491
51	0xbf86134b	-1.0474638
52	0xbf4e0c9c	-0.8048799
53	0x3ecdc6d2	0.4019075
54	0xbf6f965e	-0.9358882
55	0xbf831d41	-1.0243303
56	0x3e4d3ab2	0.20041922
57	0x3f94fb55	1.16392
58	0x3d112c9f	0.035442945
59	0xbfbfced3	-1.4984993
60	0xbf9151a3	-1.1353039
61	0x3f7150f9	0.9426418
62	0xc004e53f	-2.076492
63	0xbf6c01d4	-0.9219029
64	0x3f96c484	1.1778722
65	0xbe4d9db4	-0.2007969
66	0xbfb57559	-1.4176437
67	0x3fad29cc	1.352838
68	0xbc4d448b	-0.012528549
69	0x3ec2fb69	0.38082436
70	0x3ec30548	0.38089967
71	0xc029f3a3	-2.6554954
72	0x3f2b9629	0.67026
73	0x3e66a103	0.22522359
74	0x3fb38556	1.4025066
75	0x3e8b925a	0.27260095
76	0xbf16f1e4	-0.58962846
77	0x3fea2a7e	1.8294218
78	0x3f2198f7	0.6312403
79	0x4023515e	2.5518413
80	0x3f7e15e2	0.9925214
81	0xbf3c00da	-0.734388
82	0xbff88e7e	-1.9418485
83	0x3f8c4f27	1.0961655
84	0xbf0a1777	-0.53942055
85	0x3f9d00c1	1.2265855
86	0xbeac9d62	-0.33713824
87	0x3ef5b648	0.47990632
88	0xbf1d708a	-0.61499846
89	0x3fccb9c1	1.5994188
90	0xbd6964ba	-0.056980826
91	0xbd750657	-0.0598205
92	0x40175d5e	2.3650737
93	0xbf8be37e	-1.09288
94	0xbf4ff4e1	-0.8123303
95	0x3dddbce8	0.10827047
96	0x3dd8f818	0.10594195
97	0xbe8814b7	-0.26578304
98	0x3f88d642	1.0690386
99	0x3a9e98d7	0.0012099993
100	0xbecbd469	-0.39810494
101	0x3f9c0c2b	1.2191213
102	0x3d9c552e	0.07633434
103	0x3f872655	1.0558573
104	0xbe72ca38	-0.23709953
105	0xbf54326d	-0.82889444
106	0xbffa1553	-1.9537758
107	0x3ee5f79e	0.4491548
108	0xbf8cf4b9	-1.1012183
109	0x3ded2478	0.115792215
110	0xbf24df34	-0.6440308
111	0xbeb3c1f1	-0.35108903
112	0xbf34bdab	-0.7060191
113	0xbf267463	-0.6502134
114	0xbf92127a	-1.1411889
115	0x3fb456d1	1.4088994
116	0xbfe0df52	-1.7568152
117	0x3e8297a4	0.25506318
118	0x3e92814c	0.2861427
119	0x3f95a560	1.1691093
120	0x3f035f96	0.5131773
121	0xbef8276a	-0.4846757
122	0x3db00773	0.08595171
123	0x3f45b361	0.77226835
124	0x3f24a834	0.6431916
125	0x3e1ab186	0.15106782
126	0x3fd71f0c	1.680635
127	0xbd86cce9	-0.06582052
128	0x3e23f985	0.16013153
129	0x3f62ae73	0.8854744
130	0x3d66fe09	0.05639461
131	0x4007bb8f	2.1208227
132	0xbe836c6e	-0.25668663
133	0x3f2f6850	0.68518543
134	0xbf93acac	-1.153707
135	0xbfdc5167	-1.7212342
136	0x3ed814c2	0.42203337
137	0xbe665422	-0.22493032
138	0xbf0b79df	-0.54482836
139	0x3f12fe29	0.5741907
140	0xbeb6e53c	-0.35721767
141	0xbf173424	-0.59063935
142	0x3f342961	0.7037564
143	0xbfc39c66	-1.5282104
144	0x3d29a3af	0.041415866
145	0xbfb09d6f	-1.3798045
146	0xbf8139e2	-1.009579
147	0x3e2342c3	0.15943436
148	0xc002e6eb	-2.045344
149	0x3f3b5c3b	0.7318761
150	0x3d833261	0.064060934
151	0x3ec7ec09	0.39047268
152	0xbe86315c	-0.26209533
153	0x3f3bf87b	0.73426026
154	0x3de49165	0.11160544
155	0x3f99dd81	1.2020723
156	0x3f3553fb	0.7083127
157	0x3fbbf683	1.4684604
158	0x3f464e52	0.7746326
159	0x3ed6e556	0.41971844
160	0xbdd59cf7	-0.10430329
161	0xbfa3a030	-1.278326
162	0xc03066dc	-2.756278
163	0xbfd92a4f	-1.6966037
164	0xbf7c43a9	-0.9854074
165	0x3ec90a9a	0.392659
166	0x3f012e6b	0.50461453
167	0x3f2b1df7	0.668426
168	0x3fb1c5e6	1.3888519
169	0xbf45d821	-0.7728291
170	0xbf862381	-1.0479585
171	0xbfacce97	-1.3500546
172	0x3f12b391	0.57305247
173	0xbebc9c2a	-0.36837894
174	0x3f17f7a8	0.5936227
175	0xbfd506e0	-1.6642723
176	0x3f1df9cc	0.61709285
177	0x3e29dd76	0.16588387
178	0x401e8d33	2.477368
179	0xbd29eb96	-0.041484438
180	0xbfabb434	-1.3414369
181	0xbe167c64	-0.14695889
182	0x3f6f3ada	0.93449175
183	0xbf362f1e	-0.71165645
184	0x3f2fac48	0.68622255
185	0xbe82a51d	-0.25516596
186	0x3edf5bd6	0.43624753
187	0x3e80c3b4	0.2514931
188	0xbf26693d	-0.6500433
189	0xbf57832c	-0.8418453
190	0xbdd55ea7	-0.10418444
191	0x3f217b53	0.630788
192	0xbed29942	-0.4113255
193	0xbe91150f	-0.2833638
194	0xbf3bea11	-0.7340403
195	0x3d02a2e7	0.031893637
196	0x3ea16b85	0.31527343
197	0x4054409a	3.316443
198	0x3f94269a	1.157428
199	0xbf8d203b	-1.1025461
200	0xbf792ed9	-0.9733711
201	0xbf6ef8ac	-0.93348193
202	0x40094741	2.144974
203	0xbf1cf0f7	-0.61305183
204	0x3f114d89	0.56758934
205	0x3e08bd0d	0.13353367
206	0xbe47a57e	-0.19496724
207	0xbfde8984	-1.7385716
208	0xbff3f420	-1.9058876
209	0xbf84d4b9	-1.0377418
210	0x3ff0f621	1.8825113
211	0xbef2c40f	-0.47415206
212	0x3f6dce5f	0.9289302
213	0x4000dd70	2.0135155
214	0xbf6861e8	-0.90774393
215	0x3eb5ce5b	0.35509
216	0xbe3e4806	-0.18582162
217	0xbdb24613	-0.08704772
218	0x3f343dd9	0.7040687
219	0x3fcb30ad	1.587423
220	0xbfc926c5	-1.5714957
221	0x3f68b3d0	0.9089937
222	0xbffc6304	-1.9717717
223	0xbdef0254	-0.11670366
224	0xbf8ef81d	-1.1169468
225	0xbec42205	-0.38307205
226	0xbfcc669d	-1.5968815
227	0xbea0745b	-0.31338772
228	0x3df597d3	0.11991849
229	0x3f5f4cbe	0.87226474
230	0xbf8226cd	-1.0168091
231	0x3da47c2c	0.080314964
232	0x3ed6254f	0.4182534
233	0x3ee8f3dd	0.45498553
234	0xbf857f27	-1.0429429
235	0xbf26f4cb	-0.65217274
236	0x3efe0d0b	0.49619326
237	0xbe9743f2	-0.29544026
238	0xbee3d3d6	-0.44497555
239	0x3f89e0c0	1.0771713
240	0xbf8bf904	-1.0935369
241	0x3ff99bbe	1.9500654
242	0xbf92b308	-1.1460886
243	0x3e585cd5	0.21129163
244	0xbcf6e9c6	-0.030140769
245	0x3e2fcdee	0.171684
246	0xbf7b8c85	-0.9826129
247	0x3f0ceab5	0.55045635
248	0x3e96c3c3	0.2944623
249	0xbf28ddcb	-0.6596343
250	0x3f7ea010	0.99462986
251	0x3edee823	0.4353648
252	0x3d0723d2	0.032993145
253	0x3f847217	1.0347317
254	0x3cde3165	0.027123163
255	0xc003c17e	-2.0586848
