output/section8/checkpoint21.pt (torch, 5881 bytes, 1 tensors)

fc.weight f4 [4, 300]
0.29917887 -0.061282817 0.8127641 0.09405174 -0.08384466 -1.2503653 -1.1889923 0.35930353
-0.5098764 -1.056856 0.26742864 1.4322518 -1.1587191 -1.0579154 -1.5350497 0.8661194
1.12323 0.041478332 -0.7573395 -1.96009 0.6174661 0.3396294 0.7834108 -1.9902723
1.7726347 0.24188207 0.5768763 1.0061247 -0.58067214 -0.77817583 0.33958793 0.80140173
1.0470102 -2.1390646 -0.2560294 2.569475 -0.5972737 -0.08284418 -1.6479917 0.41490996
-1.0354061 -1.3198025 2.8845227 -1.6292474 -1.8254683 -2.0711231 1.6051499 1.628185
-0.6251911 1.6320741 1.1043524 -1.0204867 -0.5453721 0.5049508 -1.0974079 -1.0898758
0.112920865 1.2117031 0.30399203 -1.7264792 -1.1690129 0.8297635 -2.340045 -0.945557
1.1529015 -0.45681447 -1.3908468 1.0319673 0.11222362 0.30485466 0.34741238 -2.6142256
0.7302673 0.23949145 1.4093044 0.29639786 -0.5241619 2.0567605 0.64635855 2.2836978
1.0014179 -0.6376902 -1.8102809 1.1841766 -0.1768377 1.1974483 -0.31691933 0.4807644
-0.34339252 1.4527228 -0.08819883 0.076721296 2.3635669 -0.87701577 -1.0497509 -0.047130186
0.088042766 -0.4005615 0.97323644 -0.011101757 -0.41241148 1.0997465 0.08137147 0.9572676
-0.16154131 -0.9021279 -1.6645637 0.4577636 -1.1009628 0.12008398 -0.55370003 -0.49111283
-0.9284148 -0.66122067 -1.279835 1.3374571 -1.5173128 0.37180176 0.3260709 1.1504532
0.7447037 -0.354388 0.08189595 0.86849767 0.6212025 0.051890202 1.563294 -0.24732071
0.371451 0.7707813 0.17389579 2.0572467 0.06627752 0.76104355 -1.1658298 -1.6510471
0.19789974 -0.21665975 -0.45328805 0.6505914 -0.2897631 -0.88070357 0.72937053 -1.6265265
0.12439133 -1.4015964 -1.3234003 -0.044107333 -1.9225956 0.89726895 0.033441488 0.52053547
-0.00030468812 0.61637044 0.06609698 1.2472298 0.69379336 1.554328 0.68054706 0.51843077
-0.067015804 -1.2068402 -2.600263 -1.6561334 -0.9396615 0.19416493 0.5248909 0.73786837
1.5165929 -0.6488365 -1.3707151 -1.1832268 0.7673839 -0.30771214 0.66094846 -1.7150384
0.61349726 0.11508309 2.4742224 -0.13472973 -1.3254135 -0.2981373 0.7492825 -0.5293598
0.87546456 -0.55622387 0.5335319 0.4735803 -0.5052888 -0.95549124 -0.27263656 0.6274517
-0.47388086 -0.15811342 -0.65482134 0.0133327115 0.013025277 3.2335846 1.0474854 -1.0433989
-1.1121702 -0.8783893 1.9431641 -0.81429464 0.4130865 0.28902432 -0.11880242 -1.5712063
-1.6775559 -1.0300499 1.8382679 -0.460426 0.95423937 2.14053 -0.75569975 0.43749422
-0.01113435 0.06335535 0.6537675 1.6087339 -1.4290259 0.8904924 -2.2505105 -0.2502409
-0.9767427 -0.2520765 -1.5843422 -0.18786238 0.28282773 0.9930356 -1.0270406 0.055162977
0.4348152 0.59890497 -0.8831234 -0.5010507 0.64620847 -0.1691414 -0.49760848 0.9770306
-1.102355 1.872256 -1.3584372 0.40890083 0.12266205 0.05665846 -0.8292667 0.43845594
0.39496377 -0.5143023 0.9386206 0.3181235 -0.12056274 0.9509703 -0.13554783 -2.000032
00000000: f92d 993e b103 7bbd 4f11 503f 339e c03d
00000010: c0b6 abbd f80b a0bf e630 98bf a2f6 b73e
00000020: 4287 02bf 0f47 87bf 68ec 883e 0754 b73f
00000030: e850 94bf c669 87bf 827c c4bf 00ba 5d3f
00000040: 00c6 8f3f 2fe5 293d 00e1 41bf 3be4 fabf
00000050: 4212 1e3f e8e3 ad3e 9c8d 483f 3ec1 febf
00000060: b2e5 e23f efaf 773e 2aae 133f b2c8 803f
00000070: eea6 14bf 8836 47bf 78de ad3e aa28 4d3f
00000080: 6e04 863f 6fe6 08c0 4916 83be 4772 2440
00000090: eee6 18bf 36aa a9bd 64f1 d2bf 146f d43e
000000a0: 3088 84bf 4aef a8bf 059c 3840 2e8b d0bf
000000b0: f2a8 e9bf 488d 04c0 8d75 cd3f 5e68 d03f
000000c0: 860c 20bf cee7 d03f 6b5b 8d3f 4f9f 82bf
000000d0: 829d 0bbf 7544 013f dd77 8cbf 0d81 8bbf
000000e0: 0e43 e73d 1619 9b3f d8a4 9b3e 45fd dcbf
000000f0: 37a2 95bf 616b 543f 4cc3 15c0 0610 72bf
00000100: 4792 933f 96e3 e9be 4507 b2bf 8117 843f
00000110: 7fd5 e53d e915 9c3e 09e0 b13e 794f 27c0
00000120: ccf2 3a3f 3f3d 753e 1664 b43f 76c1 973e
00000130: 792f 06bf f7a1 0340 c177 253f 1b28 1240
00000140: 762e 803f aa3f 23bf 49b7 e7bf 1993 973f
00000150: f114 35be fc45 993f 4043 a2be c026 f63e
00000160: 25d1 afbe d2f2 b93f 97a1 b4bd 0e20 9d3d
00000170: ae44 1740 1b84 60bf 3d5e 86bf 950b 41bd
00000180: c44f b43d 6616 cdbe 0626 793f 25e4 35bc
00000190: 9927 d3be 7ec4 8c3f 16a6 a63d 7d0f 753f
000001a0: 166b 25be dbf1 66bf 6c10 d5bf fe5f ea3e
000001b0: 59ec 8cbf 97ee f53d 49bf 0dbf 2473 fbbe
000001c0: 98ac 6dbf c245 29bf a2d1 a3bf cb31 ab3f
000001d0: 4e37 c2bf cd5c be3e c4f2 a63e 0d42 933f
000001e0: e7a4 3e3f 5872 b5be 10b9 a73d dd55 5e3f
000001f0: 2107 1f3f d28a 543d 051a c83f a441 7dbe
00000200: d32e be3e ec51 453f bd11 323e eea9 0340
00000210: 82bc 873d c0d3 423f e939 95bf 8355 d3bf
00000220: 3ba6 4a3e 0edc 5dbe 5f15 e8be 288d 263f
00000230: d45b 94be ca75 61bf 07b8 3a3f 0532 d0bf
00000240: e2c0 fe3d 8367 b3bf 2e65 a9bf e4a9 34bd
00000250: 9d17 f6bf 6bb3 653f f1f9 083d d041 053f
00000260: 8cbe 9fb9 74ca 1d3f da5d 873d 3aa5 9f3f
00000270: 719c 313f 38f4 c63f 5538 2e3f e1b7 043f
00000280: 953f 89bd bd79 9abf b66a 26c0 2efc d3bf
00000290: a88d 70bf 2cd3 463e 405f 063f f1e4 3c3f
000002a0: b71f c23f 261a 26bf 9873 afbf fa73 97bf
000002b0: 4573 443f 728c 9dbe eb33 293f 6186 dbbf
000002c0: 280e 1d3f afb0 eb3d a959 1e40 97f6 09be
000002d0: 26a7 a9bf 74a5 98be fad0 3f3f 2084 07bf
000002e0: 721e 603f b064 0ebf 8c95 083f 1e79 f23e
000002f0: 9b5a 01bf 139b 74bf 0597 8bbe ada0 203f
00000300: 83a0 f2be 7ce8 21be 5fa2 27bf 7271 5a3c
00000310: f967 553c 0df3 4e40 0014 863f 188e 85bf
00000320: 985b 8ebf 1fde 60bf 9ab9 f83f 9d75 50bf
00000330: 1380 d33e fffa 933e af4e f3bd 4a1d c9bf
00000340: 27ba d6bf add8 83bf 5d4c eb3f f5bc ebbe
00000350: 0849 743f 72fe 0840 8a75 41bf 3eff df3e
00000360: d96c 36bc 73c0 813d 4f5d 273f feea cd3f
00000370: 52ea b6bf 4ff7 633f 5d08 10c0 931f 80be
00000380: cf0b 7abf 2c10 81be bacb cabf ff5e 40be
00000390: ccce 903e 9537 7e3f 1176 83bf 93f2 613d
000003a0: 19a0 de3e d651 193f 6014 62bf dc44 00bf
000003b0: eb6d 253f 6733 2dbe 8ac6 febe ad1e 7a3f
000003c0: f819 8dbf 16a6 ef3f 45e1 adbf 735b d13e
000003d0: 3e36 fb3d b412 683d d34a 54bf 4c7d e03e
000003e0: b138 ca3e 51a9 03bf 7149 703f 15e1 a23e
000003f0: 99e9 f6bd ca72 733f 0dcd 0abe 8600 00c0
