output/section8/checkpoint28.pt (torch, 5881 bytes, 1 tensors)

fc.weight f4 [4, 300]
0.2550932 -0.07337032 0.7700506 0.18685742 -0.0637998 -1.3212162 -1.1528957 0.41365442
-0.44922543 -1.0412595 0.19805585 1.3890798 -1.0027527 -0.9499275 -1.5192112 0.9068963
1.1328692 0.03333615 -0.6897534 -2.0850275 0.6641606 0.2665335 0.80859816 -1.9582316
1.7878162 0.3570927 0.524067 1.0563072 -0.6092733 -0.71957374 0.3970759 0.7534688
0.9906703 -2.1288774 -0.28289917 2.5634882 -0.52715033 0.0011567979 -1.6639279 0.30687365
-0.978973 -1.2719735 2.9872866 -1.6814711 -1.7973121 -2.098269 1.5021476 1.628175
-0.6204952 1.6463045 1.1323662 -1.0054 -0.41110343 0.5388637 -1.1904308 -1.1350058
0.088909596 1.2254038 0.43335608 -1.8191524 -1.1673777 0.779994 -2.464893 -0.96205467
1.1466646 -0.5679649 -1.3730674 0.8797109 0.18666491 0.2677373 0.29983866 -2.5868747
0.72087723 0.22132035 1.403714 0.30530944 -0.49207452 2.1228564 0.66363853 2.133965
1.0057584 -0.5667835 -1.7181765 1.2271531 -0.004833265 1.1689497 -0.30841357 0.4986146
-0.19233087 1.359443 -0.1430338 0.14990029 2.3528886 -0.76131433 -1.1755323 -0.11811966
0.102515996 -0.46931127 0.9026414 0.0077126184 -0.4082877 1.0274198 0.074876726 0.8700321
-0.13022505 -0.93978816 -1.5036852 0.48352137 -1.0738944 0.122247934 -0.5184107 -0.54560417
-1.0579059 -0.67999935 -1.3564649 1.2853755 -1.3808976 0.42657343 0.34675422 1.1271297
0.8360572 -0.3011112 0.0877008 0.9114271 0.61035734 -0.0036992168 1.4968294 -0.33023456
0.48413974 0.7235102 0.24469821 1.9936396 0.21444975 0.80601126 -1.1694267 -1.6120368
0.10697556 -0.20984735 -0.3951571 0.6827667 -0.2729404 -1.0139339 0.7317773 -1.6567082
0.17931657 -1.4037302 -1.4886215 -0.13781713 -1.9011303 0.96708566 0.024957532 0.5816074
0.13082834 0.5468113 0.031888228 1.2704905 0.68207365 1.5821311 0.6332989 0.5616153
-0.051112562 -1.1508045 -2.515399 -1.6141436 -0.93038994 0.07936901 0.5275533 0.7845982
1.5595515 -0.60021555 -1.5068922 -1.0793757 0.8390728 -0.27371895 0.67758685 -1.7080117
0.6017971 0.083545275 2.4435556 -0.17569657 -1.2948006 -0.37843713 0.6431315 -0.44160965
0.97487175 -0.70240986 0.567351 0.58120567 -0.4461296 -1.030685 -0.37097225 0.62304187
-0.50356424 -0.09902273 -0.6152528 0.018599017 -0.1320982 3.1630697 0.97919095 -1.0003246
-1.1592351 -0.8492241 1.8293433 -0.89585483 0.3424991 0.3650763 -0.09054282 -1.4701238
-1.5475639 -1.0165772 1.7923833 -0.43933445 0.9638231 2.1755033 -0.67350346 0.47057465
0.08587178 0.15480806 0.6171729 1.6174709 -1.3614203 0.8820458 -2.3600373 -0.3341255
-0.89260924 -0.1670727 -1.5916673 -0.1205978 0.3369818 1.0550971 -1.0365807 0.043641392
0.44157064 0.6487326 -0.8106274 -0.431288 0.69485235 -0.09579264 -0.5179997 0.930528
-1.1134944 1.8118451 -1.4530774 0.48495212 0.20285179 0.002600888 -0.7431092 0.406217
0.41364935 -0.43332455 0.9014249 0.25182506 -0.1762808 0.9013191 -0.20487809 -1.967278
00000000: 939b 823e 2e43 96bd 0922 453f 8d57 3f3e
00000010: 78a9 82bd 9d1d a9bf 1692 93bf 83ca d33e
00000020: e000 e6be fe47 85bf 27cf 4a3e 5ecd b13f
00000030: 335a 80bf 732e 73bf 8375 c2bf 5b2a 683f
00000040: dc01 913f 7d8b 083d ae93 30bf 1771 05c0
00000050: 6e06 2a3f 1477 883e 4a00 4f3f 55a7 fabf
00000060: 29d7 e43f dbd4 b63e 4129 063f 1335 873f
00000070: 56f9 1bbf fc35 38bf 884d cb3e 55e3 403f
00000080: 929c 7d3f 873f 08c0 29d8 90be 3110 2440
00000090: 53f3 06bf b29f 973a 97fb d4bf 8b1e 9d3e
000000a0: f99d 7abf 07d0 a2bf b42f 3f40 723a d7bf
000000b0: 530e e6bf 0a4a 06c0 5f46 c03f 0a68 d03f
000000c0: c6d8 1ebf 1bba d23f 60f1 903f f2b0 80bf
000000d0: 267c d2be f9f2 093f 0960 98bf df47 91bf
000000e0: 3c16 b63d 08da 9c3f d9e0 dd3e fcd9 e8bf
000000f0: a26c 95bf b0ad 473f cfc0 1dc0 3749 76bf
00000100: e8c5 923f 2666 11bf acc0 afbf bc34 613f
00000110: 1625 3f3e dd14 893e 7484 993e 5b8f 25c0
00000120: 698b 383f cda1 623e e6ac b33f 8551 9c3e
00000130: 31f1 fbbe e1dc 0740 37e4 293f e292 0840
00000140: b1bc 803f b918 11bf 35ed dbbf 5a13 9d3f
00000150: 5e60 9ebb 25a0 953f 62e8 9dbe 6a4a ff3e
00000160: 62f2 44be 3a02 ae3f 7477 12be 767f 193e
00000170: ba95 1640 7fe5 42bf d877 96bf b8e8 f1bd
00000180: e8f3 d13d 9149 f0be 8213 673f 22ba fc3b
00000190: 160b d1be 7e82 833f f858 993d 6cba 5e3f
000001a0: b759 05be f595 70bf c278 c0bf 1d90 f73e
000001b0: 5f75 89bf 205d fa3d 90b6 04bf b7ac 0bbf
000001c0: 7669 87bf 7014 2ebf a4a0 adbf 2f87 a43f
000001d0: 41c1 b0bf d567 da3e c589 b13e c945 903f
000001e0: d807 563f 3f2b 9abe 7a9c b33d 4953 693f
000001f0: 6140 1c3f 8f6e 72bb 1b98 bf3f 8114 a9be
00000200: 2ae1 f73e f737 393f 2b92 7a3e 952f ff3f
00000210: b798 5b3e c156 4e3f c6af 95bf 3957 cebf
00000220: 0116 db3d 39e2 56be 0852 cabe ccc9 2e3f
00000230: d8be 8bbe 96c8 81bf c255 3b3f 040f d4bf
00000240: c39e 373e 6ead b3bf 268b bebf ef1f 0dbe
00000250: 3d58 f3bf ed92 773f bd73 cc3c 39e4 143f
00000260: ddf7 053e d3fb 0b3f 3b9d 023d 6f9f a23f
00000270: 619c 2e3f 4683 ca3f e01f 223f 05c6 0f3f
00000280: 685b 51bd 904d 93bf 4cfc 20c0 429c cebf
00000290: 092e 6ebf 388c a23d bc0d 073f 6ddb 483f
000002a0: 629f c73f baa7 19bf d8e1 c0bf fc28 8abf
000002b0: 7acd 563f e424 8cbe 5576 2d3f 21a0 dabf
000002c0: 600f 1a3f c919 ab3d 3763 1c40 cde9 33be
000002d0: 07bc a5bf 83c2 c1be 44a4 243f a91a e2be
000002e0: 3291 793f 22d1 33bf ea3d 113f e5c9 143f
000002f0: 196b e4be 7ced 83bf 13f0 bdbe ac7f 1f3f
00000300: 96e9 00bf 6ecc cabd 3581 1dbf f75c 983c
00000310: c044 07be bc6f 4a40 42ac 7a3f a30a 80bf
00000320: d161 94bf c066 59bf ec27 ea3f be56 65bf
00000330: 0b5c af3e 48eb ba3e 846e b9bd 042d bcbf
00000340: 9316 c6bf 341f 82bf d16c e53f 72f0 e0be
00000350: 1cbd 763f 723b 0b40 b96a 2cbf 29ef f03e
00000360: 8bdd af3d 0186 1e3e 0bff 1d3f 4909 cf3f
00000370: 0543 aebf c1cd 613f da0a 17c0 7f12 abbe
00000380: 0a82 64bf 1b15 2bbe c1bb cbbf fbfb f6bd
00000390: e188 ac3e 6c0d 873f adae 84bf 51c1 323d
000003a0: 8c15 e23e 5713 263f 4785 4fbf c8d1 dcbe
000003b0: d8e1 313f ee2e c4bd a19b 04bf 1537 6e3f
000003c0: fc86 8ebf 8aea e73f 71fe b9bf a54b f83e
000003d0: 61b8 4f3e a973 2a3b 683c 3ebf adfb cf3e
000003e0: d9c9 d33e b7dc ddbe c8c3 663f 37ef 803e
000003f0: f482 34be d9bc 663f 90cb 51be c4cf fbbf
