output/section8/checkpoint22.pt (torch, 5881 bytes, 1 tensors)

fc.weight f4 [4, 300]
0	0x3e955a16	0.29170293
1	0xbd7d89a9	-0.06189886
2	0x3f4e4faf	0.8059034
3	0x3ddfa93b	0.1092095
4	0xbda4e2f7	-0.080511026
5	0xbfa196a7	-1.26241
6	0xbf977dc3	-1.1835254
7	0x3ebb7a29	0.36616638
8	0xbeffcab3	-0.49959335
9	0xbf86cadd	-1.0530659
10	0x3e82a84a	0.2551902
11	0x3fb6720d	1.4253556
12	0xbf916533	-1.1359009
13	0xbf854104	-1.0410466
14	0xbfc47efe	-1.5351255
15	0x3f5fb683	0.87387866
16	0x3f8ffc7c	1.1248927
17	0x3d296f6b	0.041366022
18	0xbf3f2399	-0.7466369
19	0xbffd8331	-1.9805661
20	0x3f2001fb	0.6250302
21	0x3ea8b73b	0.32952294
22	0x3f4a0127	0.7890801
23	0xbffe1583	-1.9850315
24	0x3fe363d9	1.7764846
25	0x3e84ffec	0.25976503
26	0x3f113e65	0.5673583
27	0x3f81fe2f	1.0155696
28	0xbf15e40d	-0.585511
29	0xbf44cbaa	-0.76873267
30	0x3eb31932	0.3498016
31	0x3f4b6bc9	0.7946134
32	0x3f84d0f1	1.0376264
33	0xc008d664	-2.1380854
34	0xbe8518ab	-0.25995383
35	0x402467de	2.5688396
36	0xbf161042	-0.5861856
37	0xbd8c49c6	-0.06850009
38	0xbfd326c2	-1.6496203
39	0x3ecc5feb	0.3991693
40	0xbf836405	-1.0264899
41	0xbfa84784	-1.3146825
42	0x4039d749	2.903765
43	0xbfd1a8d2	-1.6379645
44	0xbfe940c4	-1.822289
45	0xc004e468	-2.0764408
46	0x3fcb5c38	1.5887518
47	0x3fd062c6	1.6280143
48	0xbf2008bb	-0.6251332
49	0x3fd14be6	1.6351287
50	0x3f8dfd77	1.1092976
51	0xbf824227	-1.0176438
52	0xbf062971	-0.52406985
53	0x3f02e5e7	0.51132053
54	0xbf8e4e73	-1.1117691
55	0xbf8c5388	-1.0962992
56	0x3ddbbed3	0.10729756
57	0x3f9b5171	1.2134229
58	0x3ea64728	0.32476163
59	0xbfdf1a6d	-1.742994
60	0xbf95b9aa	-1.1697285
61	0x3f528ed0	0.82249165
62	0xc0171ed2	-2.3612561
63	0xbf72d6f6	-0.94859254
64	0x3f936613	1.1515526
65	0xbef39a04	-0.47578442
66	0xbfb1c618	-1.3888578
67	0x3f8100fc	1.0078425
68	0x3dfc75a6	0.12327127
69	0x3e99a22b	0.30006537
70	0x3eaf2f76	0.34215897
71	0xc02705ad	-2.6097214
72	0x3f3b0b57	0.7306418
73	0x3e736e95	0.23772652
74	0x3fb41b01	1.4070741
75	0x3e98569d	0.2975358
76	0xbf04c95c	-0.5186975
77	0x40047729	2.069773
78	0x3f25fed2	0.6484195
79	0x4010b62b	2.2611187
80	0x3f803c75	1.001845
81	0xbf20a897	-0.6275725
82	0xbfe601e5	-1.7969328
83	0x3f986afa	1.1907647
84	0xbe189eae	-0.14904281
85	0x3f98c834	1.1936097
86	0xbea21c55	-0.3166224
87	0x3ef7d3a4	0.48403656
88	0xbea3a081	-0.31958392
89	0x3fb83597	1.4391354
90	0xbdc2ab8a	-0.09505375
91	0x3db4821f	0.08813881
92	0x40172029	2.361338
93	0xbf5c1493	-0.85968894
94	0xbf88ecbd	-1.0697247
95	0xbd7025cf	-0.058629807
96	0x3db7bca6	0.08971529
97	0xbed2c561	-0.41166213
98	0x3f76dcbe	0.96430576
99	0xbc1c103b	-0.009525354
100	0xbed33ef6	-0.41258973
101	0x3f8b5644	1.0885701
102	0x3da6adf7	0.0813865
103	0x3f720936	0.94545305
104	0xbe203ffe	-0.15649411
105	0xbf688c71	-0.90839297
106	0xbfd1f787	-1.6403664
107	0x3eec0774	0.46099436
108	0xbf8c7d65	-1.0975767
109	0x3df55484	0.11979011
110	0xbf0c4aa3	-0.54801387
111	0xbf004134	-0.5009949
112	0xbf72b29d	-0.9480379
113	0xbf29fc88	-0.6640096
114	0xbfa53393	-1.2906364
115	0x3faa4490	1.3302174
116	0xbfbf8cf9	-1.4964896
117	0x3ec2c47d	0.38040534
118	0x3ea8e783	0.3298913
119	0x3f92ee41	1.1478959
120	0x3f42a319	0.7603012
121	0xbeb0cb83	-0.34530267
122	0x3da7f29d	0.08200572
123	0x3f60477b	0.8760907
124	0x3f1ec774	0.6202309
125	0x3d2efeff	0.042723652
126	0x3fc6bb68	1.5525942
127	0xbe8591ec	-0.26087892
128	0x3ec759d8	0.38935733
129	0x3f4361bf	0.76321024
130	0x3e3c7113	0.1840251
131	0x40030c57	2.0476282
132	0x3db8008c	0.08984479
133	0x3f44a188	0.7680898
134	0xbf956308	-1.1670847
135	0xbfd294c2	-1.6451647
136	0x3e3a67bd	0.18203636
137	0xbe5cec33	-0.21574478
138	0xbee3abc9	-0.44467
139	0x3f283327	0.6570305
140	0xbe922a75	-0.28548017
141	0xbf674033	-0.90332335
142	0x3f3b0739	0.73057896
143	0xbfd0eb63	-1.6321834
144	0x3e07cc20	0.13261461
145	0xbfb3728b	-1.4019331
146	0xbfacb959	-1.3494064
147	0xbd73c73a	-0.05951617
148	0xbff57729	-1.917699
149	0x3f686a8e	0.9078759
150	0x3d098e70	0.033583105
151	0x3f07ac33	0.5299713
152	0x3c9d6d1a	0.019217063
153	0x3f1b2c62	0.606146
154	0x3d77be92	0.060484476
155	0x3fa008fa	1.250274
156	0x3f312a51	0.69205195
157	0x3fc79c53	1.5594581
158	0x3f2c2a63	0.67252177
159	0x3f066ee2	0.52512944
160	0xbd8448f1	-0.06459225
161	0xbf995269	-1.1978275
162	0xc025839c	-2.5861578
163	0xbfd342ac	-1.6504722
164	0xbf70010d	-0.93751603
165	0x3e3449b7	0.17606245
166	0x3f06cbee	0.5265492
167	0x3f3e80c8	0.74415255
168	0x3fc30a17	1.5237454
169	0xbf23ec3e	-0.6403235
170	0xbfb28dc3	-1.3949512
171	0xbf957981	-1.1677705
172	0x3f47ad72	0.7799903
173	0xbe9b2056	-0.30298108
174	0x3f29fa2b	0.6639735
175	0xbfdb931e	-1.7154272
176	0x3f1d1c7d	0.61371595
177	0x3ddf8f62	0.1091602
178	0x401e2167	2.4707887
179	0xbe1107da	-0.14163151
180	0xbfa94ce0	-1.3226585
181	0xbe9f577d	-0.31121436
182	0x3f3bc82d	0.7335232
183	0xbf03f774	-0.5154946
184	0x3f64056c	0.89070773
185	0xbf146df3	-0.5798027
186	0x3f0a18c7	0.5394406
187	0x3efb6439	0.490999
188	0xbefd398a	-0.4945796
189	0xbf774ba9	-0.96599823
190	0xbe93127b	-0.28725037
191	0x3f20773d	0.62681943
192	0xbef51236	-0.47865456
193	0xbe17df39	-0.14831246
194	0xbf260433	-0.6485016
195	0x3c718532	0.014741229
196	0xbc27f47f	-0.0102511635
197	0x404e5069	3.2236578
198	0x3f84b348	1.0367212
199	0xbf84dfac	-1.0380759
200	0xbf8f8444	-1.1212239
201	0xbf5f9c5b	-0.87347955
202	0x3ff67b25	1.9256331
203	0xbf542598	-0.82869864
204	0x3ecdd669	0.40202644
205	0x3e99ea2a	0.30061466
206	0xbdea6644	-0.11445287
207	0xbfc7299c	-1.5559573
208	0xbfd44515	-1.6583582
209	0xbf83a7f6	-1.0285633
210	0x3fea7fbe	1.8320234
211	0xbee9e928	-0.45685697
212	0x3f748524	0.95515656
213	0x40096e7b	2.1473682
214	0xbf3e89e8	-0.7442918
215	0x3ee3176d	0.4435381
216	0x3b97afa4	0.0046290923
217	0x3d9d4e4e	0.07680951
218	0x3f25c8fd	0.6475981
219	0x3fce0d71	1.6097852
220	0xbfb58f14	-1.4184289
221	0x3f63b95a	0.889547
222	0xc011320e	-2.26868
223	0xbe864d18	-0.26230693
224	0xbf76a118	-0.9633956
225	0xbe760f1c	-0.24029201
226	0xbfcae11d	-1.5849949
227	0xbe351eb9	-0.17687501
228	0x3e95c27f	0.2924995
229	0x3f8042d5	1.0020396
230	0xbf838f00	-1.0278015
231	0x3d58ae60	0.052900672
232	0x3edef1a8	0.43543744
233	0x3f1bab32	0.608081
234	0xbf5ef767	-0.87096256
235	0xbefab082	-0.4896279
236	0x3f27e2d4	0.6558049
237	0xbe22f3ad	-0.15913267
238	0xbf000b5b	-0.5001733
239	0x3f7850a2	0.96998036
240	0xbf8d298a	-1.1028302
241	0x3fee9b94	1.8641229
242	0xbfafe460	-1.374157
243	0x3ed7917d	0.42103186
244	0x3e09dc2d	0.13462897
245	0x3d4609f5	0.04834934
246	0xbf51000c	-0.81640697
247	0x3ede0d70	0.43369627
248	0x3ecc9063	0.39953908
249	0xbf00b555	-0.5027669
250	0x3f6efcf6	0.9335474
251	0x3e9e5599	0.3092468
252	0xbe049fa8	-0.12951529
253	0x3f71be6f	0.94431204
254	0xbe15dba6	-0.1463457
255	0xbfff7643	-1.9957966
