output/section8/checkpoint29.pt (torch, 5881 bytes, 1 tensors)

fc.weight f4 [4, 300]
00000000: 652c 803e 34b4 9abd 0acc 433f 580e 4c3e
00000010: 4aa1 7ebd 7534 aabf cbe2 92bf 54fd d63e
00000020: 8fa8 e1be 44ff 84bf e131 423e bbe3 b03f
00000030: fd7b 7bbf 9aa4 6fbf 9a11 c2bf ba7d 693f
00000040: 9542 913f 8d1d 073d 2a64 2ebf 5e76 06c0
00000050: 6b71 2b3f 1d34 833e 6f97 4f3f 4535 fabf
00000060: 03f6 e43f f60d be3e e95b 043f 6601 883f
00000070: 12a8 1cbf 4480 36bf ad39 ce3e bc05 3f3f
00000080: 6bc3 7b3f b327 08c0 a831 93be cdff 2340
00000090: bdc6 04bf dc67 383c 354a d5bf f028 963e
000000a0: a582 78bf 28e5 a1bf 49ef 3f40 58e9 d7bf
000000b0: 3a77 e5bf 1e85 06c0 189d be3f 4956 d03f
000000c0: b9b6 1ebf aaf2 d23f b13b 913f 786f 80bf
000000d0: 4ea6 c9be 68e2 0a3f 35fe 99bf b012 92bf
000000e0: b5c2 b03d b9eb 9c3f b12e e63e 0646 eabf
000000f0: 484f 95bf 8c42 463f 01c5 1ec0 26f9 76bf
00000100: 28ad 923f 48c8 14bf 0967 afbf 337c 5c3f
00000110: 776b 493e 52f4 863e 4f8a 953e 3c53 25c0
00000120: acce 373f 8248 5f3e 4b7b b33f 0cd4 9c3e
00000130: 47ad f9be c141 0840 989a 2a3f 1f53 0740
00000140: bcc9 803f 1891 0ebf 104e dabf b2cd 9d3f
00000150: 43b9 893c cb14 953f ecb3 9dbe bf99 003f
00000160: a0d0 30be ef5e ac3f 2587 1abe b2eb 223e
00000170: d872 1640 021c 3fbf a893 98bf 39f1 01be
00000180: 9532 d83d 97d3 f4be f2af 643f 3050 393c
00000190: 0a5d d0be c043 823f 64d6 963d e36f 5b3f
000001a0: 4088 01be fdcc 71bf 15da bdbf 66f1 f93e
000001b0: 06d0 88bf 5431 fa3d 7bac 03bf 4037 0dbf
000001c0: 12a9 89bf a2db 2ebf cbde aebf 9c9b a33f
000001d0: 2b74 aebf b9be dd3e de4f b33e a3df 8f3f
000001e0: c1ae 583f a3d9 96be 1dda b43d ffc0 6a3f
000001f0: 8600 1c3f 9497 3bbc f476 be3f f053 aebe
00000200: 6c75 ff3e d3db 373f d91e 823e d9ef fd3f
00000210: 7b06 6e3e 57c7 4f3f a9c4 95bf 30ae cdbf
00000220: 747f c53d 8ef3 55be 1168 c6be 9dda 2f3f
00000230: 44b6 8abe e9e7 83bf a149 3b3f 2064 d4bf
00000240: 934d 3f3e 3fab b3bf c23b c1bf e098 18be
00000250: 9036 f3bf b98d 793f a192 cb3c 51a8 163f
00000260: e893 163e 4999 093f a988 db3c 8ff0 a23f
00000270: f125 2e3f d5e3 ca3f b08a 203f 710b 113f
00000280: 7f85 49bd 0f3f 92bf 6b3f 20c0 add9 cdbf
00000290: 921c 6ebf f30d 833d 892c 073f 617a 4a3f
000002a0: 4c2a c83f 962c 18bf 33fd c2bf ae60 88bf
000002b0: d3d7 583f 783b 8abe 84db 2d3f c656 dabf
000002c0: f7bd 193f 0e80 a13d 070a 1c40 e860 39be
000002d0: 6033 a5bf e32c c7be 1004 213f 6888 dcbe
000002e0: 25e4 7c3f 0f76 38bf d221 123f c761 183f
000002f0: 38c4 e0be 0b39 85bf d69e c4be e533 1f3f
00000300: 57f9 01bf eb27 bcbd bd4b 1cbf 15e9 a73c
00000310: 95dd 19be 40c1 4940 0a5a 783f 2fb0 7ebf
00000320: ae0a 95bf 984b 58bf 524a e83f b8c5 67bf
00000330: 2bfc aa3e 7fd2 bf3e 2d21 b3bd 7d72 babf
00000340: bbf0 c3bf e1dc 81bf 8789 e43f ef27 dfbe
00000350: b8f3 763f 5572 0b40 b6ce 29bf cad3 f23e
00000360: e68c ca3d e5be 2a3e aba1 1c3f b027 cf3f
00000370: 9e34 adbf 3698 613f 71d2 17c0 b1b2 b0be
00000380: 9ba3 61bf 3e6b 1fbe 3ade cbbf 931f e5bd
00000390: 3359 af3e 320e 883f 4be5 84bf a610 2e3d
000003a0: 3f7d e23e a956 273f af57 4dbf 7f5d d8be
000003b0: f737 333f 6e22 b1bd c300 05bf 97c2 6c3f
000003c0: 94af 8ebf d1d1 e63f ea68 bbbf 2c73 fc3e
000003d0: 1beb 593e ecc9 7bbb a067 3bbf 33e5 ce3e
000003e0: c33e d43e ae97 d8be 0372 653f a20b 793e
000003f0: fefc 3abe 5421 653f fbe3 59be a846 fbbf
0.2503387 -0.07553902 0.76483214 0.19927347 -0.062165536 -1.3297259 -1.1475462 0.4199015
-0.44073913 -1.0390401 0.1896434 1.3819498 -0.98236066 -0.9361054 -1.5161622 0.9120747
1.1348444 0.032987166 -0.6812159 -2.1009746 0.6696994 0.25625697 0.81090444 -1.9547507
1.7887577 0.37120026 0.51702744 1.0625427 -0.61193955 -0.7128947 0.40278378 0.74618125
0.9834506 -2.127423 -0.28748822 2.5624878 -0.5186575 0.011255231 -1.6663271 0.29328108
-0.9707435 -1.2648058 2.9989798 -1.6868086 -1.792701 -2.1018748 1.4891691 1.6276332
-0.6199756 1.6480305 1.1346341 -1.0034018 -0.39384693 0.5425172 -1.2030703 -1.1411953
0.086308874 1.2259437 0.44957498 -1.830262 -1.166482 0.7744529 -2.4807742 -0.9647392
1.1459093 -0.58118105 -1.3703319 0.8612701 0.19669901 0.26358277 0.29207084 -2.5832052
0.7179973 0.21805003 1.4022001 0.3063053 -0.48765013 2.1290133 0.6664214 2.1144483
1.0061564 -0.55690145 -1.7055073 1.2328398 0.016811972 1.164697 -0.30801332 0.502346
-0.17267084 1.3466471 -0.15090616 0.15910223 2.3507595 -0.7465211 -1.1920061 -0.12689675
0.10556523 -0.4781768 0.8933097 0.011310622 -0.40695983 1.0176926 0.073651105 0.857176
-0.12649632 -0.9445341 -1.4832178 0.48816985 -1.0688484 0.1221644 -0.5143506 -0.5516243
-1.0754721 -0.68303883 -1.3661741 1.2781863 -1.3629202 0.43309572 0.3502187 1.1240124
0.84641653 -0.2946292 0.08830664 0.9170074 0.609383 -0.011449713 1.4880052 -0.34048414
0.49894273 0.718198 0.2541416 1.9838821 0.2324466 0.81163543 -1.1700641 -1.6068783
0.096434504 -0.2089369 -0.3875127 0.6869295 -0.27092183 -1.0305148 0.73159224 -1.6593056
0.18681936 -1.4036635 -1.5096362 -0.14902067 -1.9001026 0.97481877 0.024850192 0.5885058
0.1470486 0.5374952 0.026798563 1.2729663 0.68026644 1.5850779 0.6271162 0.56658083
-0.049199577 -1.1425494 -2.5038707 -1.6082054 -0.93012345 0.06399145 0.5280233 0.79092985
1.5637908 -0.5944303 -1.523352 -1.0654504 0.8470432 -0.26998496 0.6791308 -1.7057731
0.6005549 0.078857526 2.438112 -0.18103373 -1.2906303 -0.38901433 0.62896824 -0.4307282
0.9878562 -0.72055143 0.57082856 0.59524196 -0.43899703 -1.0408033 -0.38402432 0.6218856
-0.5077109 -0.09187301 -0.6105307 0.020496884 -0.15025933 3.15242 0.9701239 -0.99487585
-1.1643884 -0.84490347 1.8147681 -0.9053607 0.33395514 0.37465283 -0.08746562 -1.4566189
-1.530784 -1.0145532 1.785447 -0.43585154 0.96465635 2.1788533 -0.6633104 0.47427207
0.098901555 0.16674383 0.61184186 1.6183987 -1.3531682 0.8812288 -2.3722193 -0.3451133
-0.8814027 -0.15568253 -1.5927193 -0.11187663 0.3424774 1.0629332 -1.0382475 0.042496346
0.4423618 0.6536661 -0.8021192 -0.42258832 0.7000727 -0.08649145 -0.5195429 0.9248442
-1.1147332 1.8032781 -1.4641392 0.4930662 0.21281092 -0.0038419915 -0.73204994 0.4040924
0.41454133 -0.42303222 0.89627093 0.24320844 -0.18260571 0.8950398 -0.21278374 -1.9630938
