output/section8/checkpoint24.pt (torch, 5881 bytes, 1 tensors)

fc.weight f4 [4, 300]
0	0x3e8e30c8	0.27771592
1	0xbd85e034	-0.06536904
2	0x3f4b098f	0.7931146
3	0x3e0b04c9	0.13576044
4	0xbd96e740	-0.07368326
5	0xbfa458cf	-1.2839602
6	0xbf962b17	-1.17319
7	0x3ec42630	0.38310385
8	0xbef6ebd1	-0.4822679
9	0xbf863fd1	-1.0488225
10	0x3e7000ab	0.23437755
11	0x3fb5177b	1.4147791
12	0xbf8b7a68	-1.089673
13	0xbf81222d	-1.0088555
14	0xbfc3f658	-1.5309553
15	0x3f62b18e	0.88552177
16	0x3f9045a9	1.1271259
17	0x3d1b346e	0.037891798
18	0xbf39eb2a	-0.72624457
19	0xc0011852	-2.0171094
20	0x3f23ac47	0.6393475
21	0x3e9dd40e	0.30825847
22	0x3f4bf991	0.79677683
23	0xbffcd042	-1.9751055
24	0x3fe41eec	1.7821937
25	0x3e96d960	0.2946272
26	0x3f0d6d5f	0.5524501
27	0x3f83dc3c	1.0301585
28	0xbf184ae9	-0.59489304
29	0xbf401ea0	-0.7504673
30	0x3ebc8ddf	0.3682699
31	0x3f47de05	0.7807315
32	0x3f82b829	1.0212451
33	0xc008aad3	-2.1354263
34	0xbe88e646	-0.26738185
35	0x40244fc7	2.5673692
36	0xbf10ac97	-0.5651335
37	0xbd321b79	-0.04348323
38	0xbfd3cc56	-1.6546733
39	0x3ebbc97b	0.36677155
40	0xbf816169	-1.0107852
41	0xbfa6824c	-1.3008513
42	0x403bd0e4	2.9346247
43	0xbfd3ce09	-1.6547252
44	0xbfe849e5	-1.8147551
45	0xc00560c4	-2.084031
46	0x3fc77041	1.5581132
47	0x3fd07317	1.6285123
48	0xbf1faa6d	-0.62369424
49	0x3fd1d580	1.639328
50	0x3f8f3d08	1.11905
51	0xbf81b86e	-1.0134408
52	0xbef7e053	-0.48413333
53	0x3f059d3d	0.5219305
54	0xbf91ce43	-1.1391071
55	0xbf8e0267	-1.1094483
56	0x3dcd0590	0.100108266
57	0x3f9c03bd	1.2188641
58	0x3eba0566	0.36332244
59	0xbfe2a0dd	-1.7705342
60	0xbf95b792	-1.1696646
61	0x3f4e827f	0.8066787
62	0xc01979ed	-2.3980668
63	0xbf73e77e	-0.95275104
64	0x3f93301a	1.1499054
65	0xbf025a29	-0.50918823
66	0xbfb112dd	-1.3833882
67	0x3f763778	0.9617839
68	0x3e14cd61	0.14531471
69	0x3e938f72	0.28820378
70	0x3ea848dc	0.32868087
71	0xc0268bc5	-2.6022809
72	0x3f3a8acc	0.7286804
73	0x3e6e5255	0.23273595
74	0x3fb41480	1.4068756
75	0x3e99def2	0.30052906
76	0xbf02704d	-0.5095261
77	0x4005cbd6	2.0905662
78	0x3f2725ae	0.6529187
79	0x400ddab1	2.2164729
80	0x3f80650a	1.0030835
81	0xbf1b7326	-0.6072258
82	0xbfe29bf0	-1.7703838
83	0x3f9a1cd1	1.2040044
84	0xbdc7e7a6	-0.0976098
85	0x3f97c815	1.1857935
86	0xbea06cdc	-0.31333053
87	0x3ef9ab1d	0.48763362
88	0xbe8cd78a	-0.27508193
89	0x3fb4ae0d	1.4115616
90	0xbde2e38c	-0.11078557
91	0x3de1a6c1	0.11018134
92	0x4017008e	2.3594089
93	0xbf5321e8	-0.8247361
94	0xbf8da7c6	-1.1066825
95	0xbda3f86b	-0.08006366
96	0x3dbe4077	0.092896394
97	0xbedd3a97	-0.43208763
98	0x3f716d9e	0.9430789
99	0xbb92de6f	-0.0044820826
100	0xbed297c0	-0.411314
101	0x3f889f48	1.0673609
102	0x3da2c149	0.079470225
103	0x3f6ba972	0.9205543
104	0xbe164078	-0.1467303
105	0xbf6b6857	-0.91956085
106	0xbfcbd446	-1.5924156
107	0x3eef720f	0.46766707
108	0xbf8ba09a	-1.0908387
109	0x3df81dd6	0.12115066
110	0xbf095ddc	-0.53658843
111	0xbf0481ec	-0.51760745
112	0xbf7c63d2	-0.98589814
113	0xbf2b5671	-0.66928774
114	0xbfa83614	-1.3141503
115	0x3fa85893	1.3152031
116	0xbfba645d	-1.4561878
117	0x3ecba180	0.39771652
118	0x3eab9774	0.33513987
119	0x3f92092a	1.1409047
120	0x3f49f775	0.78893214
121	0xbea87d31	-0.32908013
122	0x3dac0a8b	0.084004484
123	0x3f6378d1	0.88856226
124	0x3f1dc2d8	0.6162543
125	0x3cdbca3e	0.026829835
126	0x3fc45146	1.5337303
127	0xbe927a3a	-0.28608876
128	0x3ed859c2	0.4225598
129	0x3f3fa39a	0.7485901
130	0x3e5228f2	0.20523432
131	0x4001f287	2.0304277
132	0x3e0a33fa	0.1349639
133	0x3f47f21c	0.78103805
134	0xbf957a2b	-1.1677908
135	0xbfd11c36	-1.6336734
136	0x3e1ddc51	0.15416075
137	0xbe5af98e	-0.2138426
138	0xbedb17c9	-0.42791584
139	0x3f2aa275	0.6665414
140	0xbe8fe3d3	-0.28103504
141	0xbf714867	-0.942511
142	0x3f3b47b1	0.7315627
143	0xbfd233ab	-1.6422018
144	0x3e17cfef	0.14825414
145	0xbfb39864	-1.4030881
146	0xbfb30923	-1.3987163
147	0xbdb36099	-0.08758659
148	0xbff47926	-1.9099472
149	0x3f6e0c5f	0.92987627
150	0x3cf1cf97	0.029517932
151	0x3f0c6fd9	0.54858166
152	0x3d719a39	0.05898497
153	0x3f15ed0d	0.58564836
154	0x3d5199b5	0.051171977
155	0x3fa103f6	1.2579334
156	0x3f305a62	0.68887913
157	0x3fc8c35a	1.5684617
158	0x3f28b1a8	0.6589608
159	0x3f09fa21	0.5389729
160	0xbd72dbcb	-0.059291642
161	0xbf975596	-1.1822994
162	0xc023ed67	-2.561365
163	0xbfd1bd15	-1.6385828
164	0xbf6f3729	-0.9344354
165	0x3e12d479	0.14338864
166	0x3f06e4b2	0.5269271
167	0x3f421c9e	0.75824916
168	0x3fc4d8db	1.5378679
169	0xbf203489	-0.6258016
170	0xbfb7c414	-1.4356713
171	0xbf9195ed	-1.1373879
172	0x3f4d55d0	0.80209064
173	0xbe9592b1	-0.2921348
174	0x3f2b660c	0.66952586
175	0xbfdb7584	-1.7145238
176	0x3f1c0bc8	0.60955477
177	0x3dce9f56	0.10088985
178	0x401d9a9d	2.4625618
179	0xbe1d9039	-0.15387048
180	0xbfa81eb7	-1.3134373
181	0xbeab249d	-0.3342637
182	0x3f33caad	0.70231134
183	0xbefa3040	-0.48864937
184	0x3f6b9052	0.9201709
185	0xbf1fb644	-0.6238749
186	0x3f0ce69d	0.5503939
187	0x3f05dbf6	0.5228876
188	0xbef44d59	-0.47715262
189	0xbf7cf3af	-0.9880933
190	0xbea23b17	-0.31685707
191	0x3f2010c6	0.62525594
192	0xbef97e1f	-0.48729035
193	0xbe05b4ab	-0.130572
194	0xbf2301a5	-0.63674384
195	0x3c77a7ea	0.015115717
196	0xbd5a3ed5	-0.053282578
197	0x404d0ab3	3.203778
198	0x3f8231f8	1.0171499
199	0xbf83306e	-1.0249155
200	0xbf915e33	-1.1356872
201	0xbf5d9502	-0.8655549
202	0x3ff231a4	1.8921399
203	0xbf5a765b	-0.85336846
204	0x3ec2fb24	0.3808223
205	0x3ea5a5b9	0.32353
206	0xbdd8c1ed	-0.105838634
207	0xbfc35f8a	-1.5263531
208	0xbfcf46f4	-1.6193528
209	0xbf833c62	-1.0252802
210	0x3fe8e3fb	1.8194574
211	0xbee75f26	-0.4518978
212	0x3f756207	0.958527
213	0x400a2914	2.1587572
214	0xbf3818d3	-0.7191288
215	0x3ee83cc8	0.45358872
216	0x3d05fb33	0.032710265
217	0x3dd50af7	0.10402482
218	0x3f2349df	0.63784593
219	0x3fce63a6	1.612416
220	0xbfb2ead9	-1.397792
221	0x3f631ad0	0.8871279
222	0xc013632d	-2.3029282
223	0xbe930b98	-0.28719783
224	0xbf705620	-0.93881416
225	0xbe5c41cc	-0.21509475
226	0xbfcb2f80	-1.5873871
227	0xbe20e0df	-0.15710782
228	0x3e9e6626	0.30937308
229	0x3f829f46	1.0204856
230	0xbf83d6ef	-1.0299968
231	0x3d4b3d4b	0.049619
232	0x3ee0257d	0.437786
233	0x3f1fb384	0.62383294
234	0xbf59754d	-0.8494461
235	0xbeeff730	-0.46868277
236	0x3f2bc69e	0.6709994
237	0xbe0c57d1	-0.13705374
238	0xbf01dc6b	-0.50726956
239	0x3f74aaaa	0.9557291
240	0xbf8dacab	-1.1068319
241	0x3fec6c77	1.8470601
242	0xbfb395e2	-1.4030116
243	0x3ee3f088	0.44519448
244	0x3e22b0ea	0.158878
245	0x3d02169b	0.03175984
246	0xbf4a68fc	-0.79066443
247	0x3ed8291e	0.4221887
248	0x3ed00058	0.40625262
249	0xbef4d5da	-0.47819406
250	0x3f6c3ae9	0.9227739
251	0x3e9427ab	0.28936514
252	0xbe16c4ca	-0.14723507
253	0x3f6dd0be	0.9289664
254	0xbe2c0673	-0.16799335
255	0xbffe2702	-1.9855654
