output/section8/checkpoint8.pt (torch, 5881 bytes, 1 tensors)

fc.weight f4 [4, 300]
000000 05 9f f9 3e d3 67 ba bd 67 39 71 3f dc 02 01 be
       0.48754135 -0.09101834 0.94228214 -0.12598747
000010 49 81 4a be 14 46 7c bf e9 42 9f bf 3a b3 4c 3e
       -0.19775881 -0.9854443 -1.2442294 0.19990245
000020 b1 3e 2c bf 9d e2 8d bf 97 8f 09 3f d3 04 b9 3f
       -0.6728316 -1.1084782 0.53734726 1.4454597
000030 f7 f2 c3 bf f9 92 ad bf db 29 ba bf 87 27 3c 3f
       -1.5308522 -1.3560477 -1.4544023 0.73497814
000040 d8 99 91 3f b8 8c af 3d c1 37 70 bf b5 18 ce bf
       1.1375074 0.08571762 -0.93835074 -1.610129
000050 39 5a ef 3e 7e 74 e4 3e 26 87 23 3f 28 f6 06 c0
       0.46748522 0.44620126 0.63878095 -2.1087742
000060 fc 28 d0 3f a7 6e d4 bd b6 43 34 3f 34 43 5c 3f
       1.6262507 -0.10372668 0.7041582 0.86040044
000070 91 0b dd be 03 5f 81 bf f3 13 51 3d 8b 48 63 3f
       -0.43172887 -1.010712 0.051044416 0.88782567
000080 17 bf 9b 3f 7f e2 09 c0 f3 79 88 be 5f 63 24 40
       1.2167691 -2.1544492 -0.2665554 2.5685651
000090 5b 83 4e bf 53 4b ba be 6e a5 d4 bf 79 7c 32 3f
       -0.8066918 -0.36385593 -1.6612985 0.6972118
0000a0 be c9 90 bf 2e f9 ae bf 48 87 1f 40 95 8f b5 bf
       -1.1311567 -1.3669794 2.492632 -1.4184443
0000b0 4d eb e5 bf 1b 76 fe bf 15 94 f1 3f 62 a1 cc 3f
       -1.7962433 -1.9879793 1.8873316 1.598675
0000c0 f7 a6 1b bf 81 2a c8 3f f4 c7 6b 3f 6c 8d 86 bf
       -0.60801643 1.5637971 0.9210198 -1.0511909
0000d0 51 ab 67 bf 83 46 b1 3e 79 17 61 bf 8b d0 80 bf
       -0.90495783 0.3462411 -0.8792644 -1.0063642
0000e0 3e 95 7d 3e 64 df 90 3f c1 21 a8 bd 46 7a b1 bf
       0.24763963 1.1318173 -0.08209563 -1.386544
0000f0 ae 6d 8d bf 86 69 7f 3f 43 f4 fb bf cc c6 6a bf
       -1.1049097 0.9977039 -1.9683918 -0.9170959
000100 29 f5 98 3f 31 a3 b1 bd 1c 36 b7 bf 28 c5 be 3f
       1.1949817 -0.086737044 -1.4313388 1.4903917
000110 ed 15 63 bd 23 44 d8 3e 17 35 c4 3e ff 4d 2a c0
       -0.055440832 0.42239484 0.38321754 -2.6610105
000120 b4 ae 1b 3f 2a 2e 4a 3e 87 fb b0 3f de 3d 85 3e
       0.6081345 0.19744173 1.382676 0.26023763
000130 0e 6e 1e bf 52 a9 d8 3f 05 dd 20 3f f4 b9 29 40
       -0.6188668 1.6926672 0.6283725 2.6519747
000140 cd 87 7b 3f 26 5d 42 bf 67 bb fc bf 72 ba 86 3f
       0.9825409 -0.75923383 -1.9744691 1.0525649
000150 c8 3b 32 bf bf 8c 9d 3f 3b cd b3 be 16 a6 fe 3e
       -0.6962247 1.2308577 -0.35117516 0.4973609
000160 2e 40 35 bf 19 90 d2 3f 20 70 ac bd 3b 07 df bd
       -0.70801055 1.6450225 -0.08419824 -0.10890051
000170 4f 92 16 40 b8 34 97 bf 84 79 38 bf 6d db 3c 3e
       2.35268 -1.1812963 -0.7206042 0.1844308
000180 f6 48 08 3e d5 e7 59 be 4b b7 8c 3f e2 25 c8 3c
       0.13309082 -0.21279843 1.0993437 0.024432126
000190 53 ab c4 be f8 0e a1 3f 42 09 95 3d 18 ce 88 3f
       -0.3841196 1.2582693 0.072771564 1.0687895
0001a0 17 c2 8c be f0 f9 4c bf de 24 04 c0 c0 90 ed 3e
       -0.2749183 -0.80068874 -2.0647502 0.46399498
0001b0 e3 4e 8a bf 70 18 e2 3d 4a da 30 bf 36 3b 92 be
       -1.0805324 0.11039817 -0.6908308 -0.285608
0001c0 36 5e 1f bf 71 cb 29 bf d6 ed 8a bf 6c bc b6 3f
       -0.6225313 -0.6632605 -1.0853832 1.4276252
0001d0 34 33 ec bf b3 c6 50 3e 19 89 89 3e 00 07 95 3f
       -1.8453126 0.20388298 0.2686241 1.1642761
0001e0 cd 4c ce 3e 87 9b 0c bf 18 89 bc 3d 06 76 3a 3f
       0.4029297 -0.54924816 0.09205836 0.7283634
0001f0 88 00 29 3f b6 7a 3d 3e 0f 4d dc 3f 00 b9 91 3c
       0.66016436 0.18503842 1.7211016 0.01778841
000200 ee fb a8 3d c2 a7 71 3f a5 cd 0a 3c dd 88 07 40
       0.08251177 0.94396603 0.008471881 2.1177285
000210 f4 7e ce be d2 eb 29 3f 73 64 93 bf 99 6f df bf
       -0.40331233 0.6637546 -1.151503 -1.7455932
000220 05 00 06 3f cc e8 67 be 14 a5 11 bf 64 d1 0b 3f
       0.5234378 -0.22647399 -0.56892514 0.5461638
000230 fd 36 ca be 02 ae eb be 37 ef 2f 3f cd 62 bd bf
       -0.39495078 -0.46031195 0.6872439 -1.4795777
000240 65 c3 a4 3c d3 d6 ad bf 86 87 63 bf 73 63 7f 3e
       0.020112703 -1.3581184 -0.8887867 0.2494028
000250 10 78 08 c0 34 1f 25 3f 97 70 be 3d bd 35 a8 3e
       -2.132328 0.6450074 0.092988186 0.328535
000260 dc 5e c3 be e8 c0 46 3f 14 ec ee 3d c6 d2 96 3f
       -0.3815831 0.776381 0.11666122 1.1783073
000270 a9 dd 36 3f b7 9e b6 3f 55 78 4f 3f 16 cd bf 3e
       0.71431977 1.4267186 0.8104299 0.37461156
000280 2e 10 f8 bd b3 58 a4 bf a9 d7 33 c0 3e a2 d8 bf
       -0.12112461 -1.2839569 -2.8100379 -1.6924512
000290 a5 d6 81 bf d8 2b eb 3e f2 5e fe 3e b4 ea 24 3f
       -1.0143629 0.45931888 0.49681813 0.6442063
0002a0 20 cb a7 3f e7 82 55 bf 78 98 66 bf 88 8d b3 bf
       1.3108864 -0.83402866 -0.900764 -1.4027567
0002b0 45 f0 f1 3e 25 fb c6 be 3a 88 0b 3f b1 af ce bf
       0.47253624 -0.38863483 0.5450474 -1.6147367
0002c0 23 a3 1f 3f 80 03 34 3e c8 82 1d 40 8c 0a d7 3a
       0.623583 0.1757946 2.4611073 0.0016406341
0002d0 d4 92 aa bf 3a 10 b4 bd f9 d7 80 3f a5 2f 4a bf
       -1.3326058 -0.087921575 1.006591 -0.7897895
0002e0 6b cc 1a 3f 50 aa 03 be a0 9b c4 3e 2c 5a 1a 3e
       0.6046817 -0.12857938 0.38399982 0.1507346
0002f0 ab ce 37 bf 2c 93 4e bf 1b 9e 35 bd ea d8 20 3f
       -0.71799725 -0.80693316 -0.044340234 0.62830985
000300 bb c6 c3 be 8c e9 aa be 8a 7f 42 bf d1 7e 73 3d
       -0.38237557 -0.33381307 -0.7597586 0.059447113
000310 90 ad e6 3e ca 01 55 40 2d 4c 98 3f 65 60 8f bf
       0.45054293 3.3282342 1.1898247 -1.1201292
000320 c8 73 67 bf 99 81 75 bf 8d df 0d 40 81 0e 05 bf
       -0.90411043 -0.95900875 2.2167695 -0.51975256
000330 9d 57 24 3f c7 e7 82 3d be e5 73 be 17 16 e5 bf
       0.6419619 0.06391864 -0.23818108 -1.7897366
000340 e5 1c ff bf 10 6f 84 bf 34 84 f1 3f 1e 99 ed be
       -1.9930693 -1.0346394 1.886847 -0.46405882
000350 c1 62 68 3f ec 51 f7 3f 65 1d 79 bf 02 20 a3 3e
       0.90775687 1.9321876 -0.9731048 0.31860358
000360 f2 f0 7d be ef 54 0d be 5f 3b 37 3f 54 b6 c8 3f
       -0.24798945 -0.13801931 0.7157497 1.5680642
000370 49 49 d1 bf c8 bb 6b 3f 6b fe e9 bf f6 52 93 bd
       -1.635049 0.92083406 -1.8280767 -0.07193558
000380 8f ed 93 bf 68 4a da be ff 95 cf bf 0b fb b6 be
       -1.1556872 -0.42634892 -1.621765 -0.35738406
000390 89 08 bf 3c 47 29 50 3f 60 55 80 bf 01 59 b3 3d
       0.0233195 0.81312984 -1.0026054 0.087572105
0003a0 b0 24 ce 3e a4 44 c3 3e 69 56 8e bf e6 f7 37 bf
       0.40262365 0.38138306 -1.112012 -0.7186264
0003b0 18 bc d7 3e e7 49 b0 be fb d4 d3 be b2 67 90 3f
       0.42135692 -0.34431383 -0.4137343 1.1281645
0003c0 b5 ae 8b bf 11 63 fc 3f 9d 5f 86 bf 94 90 df 3d
       -1.0912691 1.9717733 -1.0497929 0.10916248
0003d0 54 c8 bc bd 98 34 67 3e 65 2e 85 bf 5a 8b 20 3f
       -0.09217897 0.22578657 -1.0404783 0.62712634
0003e0 62 c7 6b 3e ba 26 38 bf 40 44 82 3f 99 74 fb 3e
       0.23025277 -0.7193409 1.0177078 0.49112394
0003f0 64 52 ff 3d 93 c1 88 3f 74 e0 e0 3d 74 49 05 c0
       0.12466887 1.0684074 0.10980311 -2.0826082
