output/section8/checkpoint4.pt (torch, 5881 bytes, 1 tensors)

fc.weight f4 [4, 300]
0	0x3f1e11ef	0.61746114
1	0xbe086717	-0.13320576
2	0x3f81fffe	1.0156248
3	0xbe5411e1	-0.20709945
4	0xbe9029e3	-0.28156957
5	0xbf4e71ce	-0.806424
6	0xbf9e1012	-1.2348654
7	0x3daa4eb2	0.08315791
8	0xbf4320dc	-0.76222014
9	0xbf8fa740	-1.1222916
10	0x3f396807	0.7242436
11	0x3faebb98	1.3650999
12	0xbfdb9037	-1.7153386
13	0xbfc0bf4d	-1.505838
14	0xbfac531e	-1.3462865
15	0x3f2f1ca0	0.68403053
16	0x3f97f1a6	1.187062
17	0x3e14aa6e	0.14518139
18	0xbf81fa56	-1.0154521
19	0xbfb85102	-1.4399722
20	0x3ec62635	0.38701025
21	0x3edf669e	0.43632978
22	0x3f0b128e	0.5432519
23	0xc00c35d9	-2.1907866
24	0x3fbe8ff6	1.4887683
25	0xbe9dadcd	-0.30796662
26	0x3f3affd5	0.7304662
27	0x3f515e90	0.81784916
28	0xbe9fa26b	-0.31178603
29	0xbf979a4d	-1.1843964
30	0xbe2d9cbc	-0.1695432
31	0x3f6d5159	0.9270225
32	0x3fa6a304	1.3018498
33	0xc00aabbe	-2.1667323
34	0xbead3a4b	-0.33833537
35	0x4024711f	2.5694044
36	0xbf69634c	-0.9116714
37	0xbf02b25b	-0.510534
38	0xbfdb33bd	-1.7125164
39	0x3f5840e7	0.84474033
40	0xbf924efd	-1.1430355
41	0xbfb06a91	-1.3782521
42	0x40111c62	2.2673573
43	0xbfa3470a	-1.2756054
44	0xbfd9a951	-1.7004796
45	0xbffae945	-1.9602438
46	0x40016e73	2.0223663
47	0x3fc5d84c	1.5456634
48	0xbf15f8bf	-0.5858268
49	0x3fc3fa33	1.531073
50	0x3f3d96a7	0.74058
51	0xbf849097	-1.0356625
52	0xbf87e037	-1.06153
53	0x3e7227e2	0.23648027
54	0xbf4bc21a	-0.7959305
55	0xbf7dc003	-0.9912111
56	0x3ead9106	0.33899707
57	0x3f8763e9	1.0577365
58	0xbe98ae26	-0.29820365
59	0xbf95b7a4	-1.1696668
60	0xbf837789	-1.0270854
61	0x3f8dbb2d	1.1072747
62	0xbfe446a9	-1.7834064
63	0xbf6b32dd	-0.91874486
64	0x3f9e0611	1.2345601
65	0x3de76ce9	0.1130007
66	0xbfbb0158	-1.4609785
67	0x3fdcd834	1.725348
68	0xbdf14c1e	-0.11782096
69	0x3f0449e8	0.5167527
70	0x3ec8358f	0.39103362
71	0xc0291662	-2.6419911
72	0x3ee16bb8	0.44027495
73	0x3dfafca5	0.12255219
74	0x3fa906e3	1.3205227
75	0x3e746b69	0.23869099
76	0xbf2d3f71	-0.6767493
77	0x3fb23ec8	1.3925409
78	0x3f1fd623	0.6243612
79	0x4033f42d	2.8117783
80	0x3f74dd5c	0.9565027
81	0xbf47ed41	-0.78096396
82	0xbfff8799	-1.9963256
83	0x3f739b11	0.9515849
84	0xbf799711	-0.97496134
85	0x3f9d4862	1.2287714
86	0xbec2ed7a	-0.38071805
87	0x3f0cb101	0.54957587
88	0xbf535e1f	-0.8256549
89	0x3fd9f128	1.702672
90	0xbe4a5379	-0.19758405
91	0xbe36d63e	-0.17855164
92	0x4013efad	2.3115036
93	0xbfab2e44	-1.3373494
94	0xbf141bd4	-0.5785496
95	0x3eaff63e	0.34367555
96	0x3e5421d6	0.20716032
97	0xbe032e61	-0.12810661
98	0x3f91a59b	1.1378664
99	0x3da3de4d	0.08001385
100	0xbeb613e8	-0.35562062
101	0x3fa8e527	1.3194932
102	0x3d949bd3	0.072562836
103	0x3f868507	1.0509347
104	0xbeb35226	-0.35023612
105	0xbf4186e9	-0.7559648
106	0xc00f304a	-2.2373223
107	0x3f025dab	0.50924176
108	0xbf82d01c	-1.021976
109	0x3dca79b9	0.09886498
110	0xbf487e95	-0.7831815
111	0xbe2be30b	-0.16785829
112	0xbef5706d	-0.47937337
113	0xbf36c3b1	-0.7139235
114	0xbf7ce043	-0.98779696
115	0x3fb892df	1.4419822
116	0xbffe00b3	-1.9843963
117	0x3de8ddf9	0.11370463
118	0x3e67e52a	0.22646013
119	0x3f9154ec	1.1354041
120	0x3e4dbf01	0.20092393
121	0xbf2c5ea4	-0.6733191
122	0x3de5a781	0.112135895
123	0x3f24bb7c	0.6434858
124	0x3f3483ec	0.70513797
125	0x3e6a0b19	0.22855796
126	0x3fe350f9	1.7759086
127	0x3e351547	0.17683898
128	0xbcfb7cf5	-0.030699233
129	0x3f874bbd	1.0569988
130	0xbda9a389	-0.08283145
131	0x40042ae0	2.065117
132	0xbf2ce4eb	-0.675368
133	0x3f25ee9e	0.64817226
134	0xbf9416d6	-1.1569469
135	0xbfe35967	-1.7761658
136	0x3f324d21	0.6964894
137	0xbe670bc2	-0.22563079
138	0xbf138c17	-0.57635635
139	0x3f029b54	0.5101826
140	0xbef28cec	-0.4737314
141	0xbe572403	-0.21009831
142	0x3f27ea50	0.6559191
143	0xbfb38bd6	-1.402705
144	0x3bcddd48	0.0062824823
145	0xbfa4d932	-1.2878783
146	0xbf34a919	-0.7057052
147	0x3ed2d5ad	0.41178647
148	0xc0151c4a	-2.3298516
149	0x3eefe595	0.46854845
150	0x3e32eda5	0.17473467
151	0x3e5e6b8f	0.21720718
152	0xbf1d029e	-0.6133212
153	0x3f561478	0.8362498
154	0x3dd45f57	0.10369747
155	0x3f8fcea5	1.1234938
156	0x3f3c52ec	0.7356403
157	0x3face016	1.3505886
158	0x3f5f3443	0.8718912
159	0x3e93b420	0.28848362
160	0xbe19886e	-0.1499345
161	0xbfa0bc50	-1.2557468
162	0xc03888fd	-2.883361
163	0xbfd32354	-1.6495156
164	0xbf896060	-1.0732536
165	0x3f09f6d0	0.5389223
166	0x3efa5788	0.48894906
167	0x3f193a52	0.59854615
168	0x3f911fbe	1.1337812
169	0xbf71dff3	-0.94482344
170	0xbf210775	-0.62902004
171	0xbfbcad9c	-1.4740481
172	0x3e8e38b5	0.2777764
173	0xbed46ff5	-0.41491666
174	0x3ed9e158	0.42554736
175	0xbfbe6712	-1.4875205
176	0x3f2666a2	0.65000355
177	0x3e39aab6	0.18131527
178	0x401a5acf	2.4117925
179	0x3daa7290	0.08322632
180	0xbfa54829	-1.2912647
181	0x3c733b77	0.0148457205
182	0x3f90dea3	1.1317943
183	0xbf6b4910	-0.9190836
184	0x3ee56022	0.44799906
185	0x3dbfc162	0.09363057
186	0x3e8f9139	0.28040484
187	0xbd424d38	-0.047436923
188	0xbf571533	-0.8401672
189	0xbf444f12	-0.7668315
190	0x3d5b3fd5	0.05352767
191	0x3f202b87	0.6256642
192	0xbea3281f	-0.31866547
193	0xbed04937	-0.40680858
194	0xbf4794f5	-0.77961665
195	0x3e0b14e0	0.13582182
196	0x3f33cd41	0.7023507
197	0x4054ea26	3.3267913
198	0x3f9c6233	1.2217468
199	0xbf9122b2	-1.1338713
200	0xbf46e7bf	-0.77697366
201	0xbf818e45	-1.0121542
202	0x401480ec	2.3203688
203	0xbeb4eaa5	-0.3533527
204	0x3f4b9ecc	0.7953918
205	0xbd88584b	-0.066574655
206	0xbea96dda	-0.33091623
207	0xbfeadf70	-1.8349438
208	0xc008c878	-2.1372356
209	0xbf82a1c7	-1.020562
210	0x3ff138c9	1.8845454
211	0xbed73b6f	-0.42037532
212	0x3f5bb759	0.8582664
213	0x3fde48a3	1.7365917
214	0xbf8b90fa	-1.0903618
215	0x3e82caf3	0.25545463
216	0xbeaff49f	-0.3436632
217	0xbe5b248b	-0.21400659
218	0x3f3a0cdd	0.7267588
219	0x3fc1553c	1.5104136
220	0xbfdfd03f	-1.7485427
221	0x3f71e396	0.94487894
222	0xbfc4571a	-1.5339081
223	0xbbd18662	-0.0063941935
224	0xbf975943	-1.1824116
225	0xbef999c3	-0.48750123
226	0xbfd844c3	-1.6895984
227	0xbed23902	-0.41059119
228	0xbe457252	-0.19281891
229	0x3f30c19f	0.6904544
230	0xbf71dcd0	-0.9447756
231	0x3db923e0	0.09040046
232	0x3eb2dcd0	0.34934092
233	0x3e7ab12a	0.24481645
234	0xbf9c52f4	-1.2212815
235	0xbf55a9b3	-0.83462065
236	0x3e904731	0.28179315
237	0xbed8bfa2	-0.42333704
238	0xbeaffed8	-0.34374118
239	0x3f9e0201	1.2344362
240	0xbf8b53d9	-1.0884963
241	0x3fff631e	1.9952123
242	0xbf5ff993	-0.87490195
243	0xbdc1e392	-0.09467234
244	0xbe4df6ea	-0.20113721
245	0x3ead75a3	0.33878812
246	0xbf9078d8	-1.1286879
247	0x3f4f3f55	0.8095601
248	0x3dc102d1	0.09424365
249	0xbf53eeac	-0.8278606
250	0x3f897c4b	1.0741056
251	0x3f1c460c	0.61044383
252	0x3eab673c	0.334772
253	0x3f915c59	1.1356307
254	0x3e910034	0.28320467
255	0xc007a9d3	-2.1197402
