output/section8/checkpoint9.pt (torch, 5881 bytes, 1 tensors)

fc.weight f4 [4, 300]
000000 31 4e ed 3e 79 be aa bd c1 a5 6d 3f 3b 38 d8 bd
       0.46348718 -0.08337111 0.92831045 -0.105576
000010 36 56 3b be 6b 6a 82 bf 96 00 9f bf 07 74 5f 3e
       -0.18294606 -1.0188726 -1.2422054 0.21821605
000020 a9 81 27 bf 69 35 8d bf 12 9a 00 3f b5 e8 b9 3f
       -0.6543222 -1.1031924 0.5023509 1.4524142
000030 78 53 bf bf a3 92 a9 bf 83 81 bc bf 3d c3 3f 3f
       -1.4947348 -1.3247875 -1.4727024 0.74907285
000040 20 f2 90 3f 74 3a a1 3d f4 ca 6b bf 85 d0 d2 bf
       1.1323891 0.07872477 -0.92106557 -1.6469885
000050 b7 e2 f7 3e d9 e4 e2 3e d9 81 28 3f de ff 05 c0
       0.48415157 0.44315222 0.6582313 -2.093742
000060 f3 27 d3 3f 0b 4d 85 bd e6 8b 31 3f f2 ae 5f 3f
       1.6496567 -0.065088354 0.69354093 0.8737632
000070 8e 5f e7 be 77 fb 7a bf 61 f3 b8 3d 26 34 61 3f
       -0.4519009 -0.98039955 0.09030796 0.879702
000080 b6 5e 99 3f ba cb 09 c0 3b 47 84 be 69 63 24 40
       1.1982028 -2.1530595 -0.25835595 2.5685675
000090 a1 db 48 bf f6 4c aa be f9 be d3 bf 67 32 2b 3f
       -0.7846013 -0.33261842 -1.6542655 0.6687378
0000a0 3f 04 90 bf df d7 ae bf 14 83 22 40 39 ed b8 bf
       -1.1251296 -1.3659629 2.5392504 -1.4447395
0000b0 32 90 e7 bf 17 93 ff bf cc e8 ed 3f 95 7c cd 3f
       -1.809088 -1.9966763 1.8586669 1.6053644
0000c0 d0 c0 1c bf cc 34 c9 3f 12 07 73 3f 4e 73 86 bf
       -0.6123171 1.5719237 0.94932663 -1.0503938
0000d0 bb ca 5e bf 1a ec bb 3e e0 16 66 bf a4 80 81 bf
       -0.8702809 0.3670357 -0.89878654 -1.0117383
0000e0 4f 40 6a 3e c8 49 92 3f 88 5b 21 bd 1a dd b6 bf
       0.22876094 1.1428766 -0.03939393 -1.4286225
0000f0 97 13 8f bf fa 6d 7a 3f 7f 89 00 c0 cb 48 6b bf
       -1.1177853 0.9782406 -2.008392 -0.9190795
000100 43 14 98 3f 93 07 03 be c7 98 b6 bf c6 aa b8 3f
       1.1881183 -0.12795858 -1.4265374 1.4427116
000110 cb 4c 28 bd 34 c5 d0 3e 41 00 c4 3e 10 42 2a c0
       -0.04108886 0.40775454 0.38281444 -2.6602821
000120 36 4c 22 3f 81 82 55 3e 20 c8 b1 3f 42 0b 87 3e
       0.6339754 0.20850565 1.3889198 0.26375777
000130 61 83 1b bf fe 65 df 3f 88 14 21 3f c0 88 27 40
       -0.60747343 1.7453 0.62921953 2.6177216
000140 6c 86 7c 3f 0d 6a 40 bf 05 77 fb bf ac e2 88 3f
       0.9864261 -0.7516182 -1.9645697 1.0694175
000150 f0 a4 23 bf c5 70 9d 3f 88 e9 b1 be e2 df fb 3e
       -0.6392355 1.230004 -0.34748483 0.49194247
000160 88 34 2d bf 92 a4 d0 3f 5e d1 8f bd 8c 7f bd bd
       -0.6765828 1.6300223 -0.070223555 -0.09252843
000170 b5 d7 16 40 c3 43 93 bf a1 bd 40 bf ee b5 1f 3e
       2.3569157 -1.1505054 -0.7528935 0.15596744
000180 8d 5f fb 3d 67 66 6d be 6e ae 8b 3f a5 3f 7e 3c
       0.12274084 -0.23183595 1.0912607 0.015518104
000190 de 4e c7 be 96 3f 9f 3f fa 79 98 3d e1 81 88 3f
       -0.38927358 1.244128 0.0744514 1.0664636
0001a0 d0 a2 85 be d4 a5 4f bf 70 be 01 c0 43 7a ea 3e
       -0.2610078 -0.8111241 -2.0272484 0.45796403
0001b0 4c 50 8b bf 06 3b e4 3d 95 73 2c bf cb a8 9e be
       -1.088388 0.1114407 -0.67363864 -0.30988154
0001c0 7e 0e 27 bf 98 69 28 bf ce 48 8d bf 3e 10 b6 3f
       -0.6525649 -0.65786123 -1.1037843 1.4223707
0001d0 5b 3a e8 bf cb 2c 63 3e 21 b6 8d 3e b1 76 95 3f
       -1.8142809 0.22185056 0.27678016 1.1676847
0001e0 1f 76 e2 3e f9 77 06 bf 90 9b b4 3d 53 d0 3e 3f
       0.44230744 -0.52526814 0.08818734 0.7453663
0001f0 92 91 27 3f 08 9d 30 3e 67 78 da 3f f8 aa 52 bc
       0.654565 0.17247403 1.7067994 -0.012858145
000200 5d e1 e0 3d 32 50 6c 3f dd 2b d0 3c 1f b4 07 40
       0.10980485 0.9230987 0.02541154 2.1203687
000210 0d b3 b3 be 58 78 2b 3f 07 87 93 bf 3e 61 de bf
       -0.35097542 0.66980505 -1.1525582 -1.7373426
000220 d7 72 f9 3e 97 b0 67 be a0 e6 0f bf 39 96 0e 3f
       0.48720428 -0.22625957 -0.5621128 0.5569797
000230 04 49 c2 be ed 5d 02 bf 6d 74 31 3f 95 80 bf bf
       -0.37946332 -0.5092457 0.69318277 -1.4961115
000240 87 c6 dd 3c d3 0c af bf 00 3f 6e bf f9 dc 5d 3e
       0.027072204 -1.3675789 -0.9306488 0.21666326
000250 ba 61 06 c0 a8 0a 2d 3f f8 8e aa 3d cf fd b2 3e
       -2.0997148 0.67594385 0.083280504 0.34959266
000260 0d b3 ad be e1 1a 43 3f 89 e0 eb 3d 57 d8 97 3f
       -0.33925667 0.7621289 0.11517436 1.1862897
000270 a9 2f 36 3f 95 86 b8 3f 97 fd 4b 3f e8 00 c8 3e
       0.71166474 1.4416071 0.7968382 0.3906319
000280 ac 26 ec bd 76 31 a4 bf af a0 32 c0 35 13 d9 bf
       -0.115308136 -1.2827594 -2.7910573 -1.6958987
000290 35 7a 80 bf b5 6d df 3e dc 22 00 3f 12 02 27 3f
       -1.0037295 0.43638387 0.5005319 0.65237534
0002a0 40 8c ab 3f 45 d7 4f bf 7a a1 74 bf 17 50 b1 bf
       1.3402176 -0.8118785 -0.95558894 -1.3852566
0002b0 ce 5d 02 3f a1 ef c3 be 86 64 10 3f 1f 4a d1 bf
       0.50924385 -0.3826876 0.56403387 -1.6350745
0002c0 c3 5d 1f 3f 0e 35 2f 3e e2 ee 1d 40 11 47 6d bc
       0.62252444 0.17110083 2.4677052 -0.014482276
0002d0 69 68 ab bf 03 68 e0 bd c8 39 7b 3f 2d 29 43 bf
       -1.3391238 -0.10957339 0.9813504 -0.76234704
0002e0 19 66 22 3f 84 30 32 be 10 3e ce 3e 0c 1b 41 3e
       0.6343704 -0.1740132 0.40281725 0.18857974
0002f0 45 4d 31 bf ed 3d 51 bf 6c 1d 86 bd 10 f1 20 3f
       -0.6925853 -0.81735116 -0.065485805 0.6286783
000300 ca 9f c9 be 05 d3 a1 be db 74 40 bf 48 31 4b 3d
       -0.39379722 -0.31606308 -0.7517831 0.049607545
000310 1b 75 cd 3e e2 c5 54 40 03 f1 96 3f 03 e3 8e bf
       0.40128407 3.3245778 1.1792301 -1.1163028
000320 a6 10 6e bf 9b e8 72 bf c7 53 0c 40 c3 c7 0d bf
       -0.92994153 -0.9488618 2.1926134 -0.5538294
000330 fb 5d 1d 3f 3b de b5 3d d3 5e 63 be f4 10 e3 bf
       0.6147153 0.08880278 -0.22204141 -1.7739549
000340 20 43 fb bf b2 ab 84 bf 12 5e f1 3f e6 b4 ef be
       -1.962986 -1.0364897 1.8856833 -0.46817702
000350 42 2c 6a 3f 27 6f fb 3f 88 86 73 bf 6d 08 aa 3e
       0.9147378 1.9643296 -0.95127153 0.33209553
000360 08 bd 66 be f6 7b f7 bd 31 f8 35 3f bf a9 c9 3f
       -0.22533047 -0.120841905 0.71081835 1.5754927
000370 8d 6f ce bf 54 be 6a 3f 5d c2 f0 bf 34 25 b1 bd
       -1.6127793 0.9169667 -1.8809315 -0.08649674
000380 7c 59 92 bf 8c 46 d3 be dd 47 ce bf 72 55 af be
       -1.1433558 -0.4126476 -1.6115681 -0.34244877
000390 9f 47 77 3d 91 b6 55 3f 07 22 81 bf 45 97 af 3d
       0.060371038 0.834817 -1.0088509 0.08573774
0003a0 c1 90 d1 3e b6 d0 d0 3e f1 34 8b bf 58 de 31 bf
       0.4093075 0.40784234 -1.0875531 -0.69479895
0003b0 d5 23 e6 3e 21 37 a8 be f8 0b d9 be 50 01 8e 3f
       0.44949213 -0.3285456 -0.42391944 1.109415
0003c0 c3 a6 8b bf a5 87 fb 3f 7b d1 8a bf 00 78 15 3e
       -1.0910267 1.965077 -1.0845178 0.14596558
0003d0 61 71 90 bd c2 37 53 3e fc b4 82 bf 93 6e 19 3f
       -0.07052875 0.20626739 -1.0211482 0.5993435
0003e0 67 6f 82 3e ae f6 32 bf 9e 22 81 3f b2 38 f1 3e
       0.25475618 -0.69907653 1.0088689 0.47113568
0003f0 45 36 b8 3d 8f 3f 87 3f 69 dc a2 3d d9 cd 04 c0
       0.08994726 1.0566272 0.07952196 -2.075064
