output/section8/checkpoint6.pt (torch, 5881 bytes, 1 tensors)

fc.weight f4 [4, 300]
000000 46 5a 0b 3f 01 7b de bd 54 81 79 3f 79 4f 28 be
       0.5443462 -0.10863305 0.97462964 -0.16436566
000010 7e 10 72 be 83 76 68 bf c5 14 9f bf 98 c8 18 3e
       -0.23639104 -0.90805835 -1.2428213 0.1492027
000020 0e ca 35 bf 3f c5 8e bf 6f df 1d 3f f8 3b b5 3f
       -0.71011436 -1.1153945 0.6166906 1.4158926
000030 1a 98 ce bf bb 63 b6 bf b1 d6 b4 bf 02 f3 35 3f
       -1.6140168 -1.4249185 -1.4128019 0.71073925
000040 21 fc 93 3f b1 bd e3 3d b1 87 79 bf c8 21 c4 bf
       1.1561319 0.11120165 -0.97472674 -1.5322809
000050 b8 bc dc 3e a3 34 e5 3e d0 77 18 3f 43 38 09 c0
       0.4311273 0.4476672 0.5955782 -2.144059
000060 c0 d5 c8 3f 87 55 46 be d1 0a 38 3f 10 c9 56 3f
       1.5690231 -0.19368564 0.71891505 0.8390055
000070 51 d2 c2 be ca f3 8a bf 9b 84 37 bd 8d 5f 67 3f
       -0.38051084 -1.0855649 -0.044804197 0.90380174
000080 4b ad a0 3f 5a 49 0a c0 a0 ec 96 be 39 4c 24 40
       1.2552885 -2.160727 -0.29477406 2.5671523
000090 ac 50 5b bf 7d 80 dd be 60 f5 d6 bf 68 ce 43 3f
       -0.8566997 -0.4326209 -1.6793633 0.76486826
0000a0 40 ac 91 bf b6 97 af bf 9e 13 19 40 e1 79 ad bf
       -1.1380692 -1.3718174 2.3918223 -1.355282
0000b0 11 7c e1 bf 7f d0 fc bf 78 93 f9 3f 03 23 ca 3f
       -1.7615987 -1.9751128 1.9498129 1.5791935
0000c0 f3 9e 19 bf 8e 13 c6 3f 84 27 59 3f 77 38 86 bf
       -0.6000816 1.5474718 0.8482592 -1.0485982
0000d0 7f d2 7a bf 9f 7a 98 3e f1 bd 56 bf d1 2c 7f bf
       -0.9797744 0.29781052 -0.8388358 -0.9967776
0000e0 bf 1a 93 3e 60 cd 8c 3f 5d 2b 36 be de 5b a5 bf
       0.28731343 1.1000175 -0.1778998 -1.2918661
0000f0 c5 82 89 bf 17 e1 85 3f 53 58 f1 bf 38 95 6a bf
       -1.0743033 1.0459317 -1.885508 -0.9163394
000100 48 08 9b 3f 15 cc a4 3b ca e4 b8 bf b7 dd cc 3f
       1.2111902 0.0050292113 -1.4444821 1.6005162
000110 02 ca af bd fb b2 ec 3e 4e f9 c4 3e 42 23 2a c0
       -0.08583452 0.462303 0.38471454 -2.658402
000120 90 0d 0b 3f 38 f8 2a 3e 00 a4 ad 3f 11 ef 7e 3e
       0.5431757 0.1669625 1.3565674 0.24895884
000130 4d 9d 24 bf 72 88 c8 3f 7b 7a 20 3f 19 97 2e 40
       -0.6430252 1.566664 0.6268689 2.7279723
000140 f9 e0 78 3f 91 e1 45 bf bb b0 fe bf 75 98 81 3f
       0.9721828 -0.7729731 -1.9897684 1.0124651
000150 52 79 52 bf 11 8e 9d 3f f6 41 bb be 5d 1e 05 3f
       -0.8221637 1.230898 -0.36573762 0.51999456
000160 c7 fe 44 bf 06 6b d6 3f 11 5d fd bd 79 37 13 be
       -0.7695126 1.6751411 -0.12371267 -0.1437663
000170 ba 86 15 40 ca 56 a0 bf 7b 0f 27 bf af 8c 80 3e
       2.336348 -1.2526486 -0.65257996 0.25107333
000180 26 79 27 3e 3c 29 31 be 7b 89 8f 3f 9f 24 47 3d
       0.16354808 -0.17300886 1.1213831 0.04861891
000190 c9 f4 bd be b1 8b a4 3f 8a 76 92 3d 3a a5 88 3f
       -0.3710082 1.285513 0.07151516 1.0675423
0001a0 cf 69 9d be 1a cd 47 bf b4 84 09 c0 94 d3 f6 3e
       -0.30744788 -0.78047335 -2.1487246 0.48208296
0001b0 11 2d 87 bf 23 a5 d5 3d 42 39 3b bf e2 5b 6e be
       -1.0560628 0.10431888 -0.73134243 -0.23277238
0001c0 2e db 0e bf 07 af 2e bf ac 1a 85 bf 01 12 b8 3f
       -0.5580319 -0.6823582 -1.0398765 1.4380494
0001d0 8e 8c f4 bf 03 41 26 3e 9f f8 81 3e aa e2 93 3f
       -1.9105394 0.16235738 0.25384995 1.1553547
0001e0 12 29 9f 3e 1c 90 1a bf b0 b6 c7 3d 07 3e 31 3f
       0.31086022 -0.60376143 0.09751642 0.6923527
0001f0 38 ab 2d 3f 23 9e 53 3e e1 d2 df 3f 57 31 b2 3d
       0.67839384 0.20665793 1.748623 0.08700817
000200 49 be de 3c c2 bb 7e 3f b9 fd 00 bd 1c 74 06 40
       0.027190344 0.99505246 -0.03149197 2.1008368
000210 2a 86 06 bf e5 d0 26 3f 18 8a 93 bf b4 81 e1 bf
       -0.5254847 0.651625 -1.1526518 -1.7617707
000220 5c c8 1a 3f 82 c1 67 be dd 5e 14 bf 3e 68 07 3f
       0.60461974 -0.22632411 -0.5795725 0.52893436
000230 c5 1f db be 5a 7b b4 be cf 13 2c 3f 36 7e b8 bf
       -0.42797676 -0.3525036 0.67217726 -1.4413517
000240 71 3c 26 3c 17 9e aa bf e5 c6 4c bf 72 d3 a4 3e
       0.010146246 -1.3329495 -0.7999099 0.3219257
000250 1f db 0d c0 b3 30 11 3f 5e 7a 01 3e d4 d1 8d 3e
       -2.216499 0.56714934 0.12644336 0.2769915
000260 26 f7 f7 be cd 7f 4e 3f 0e 45 e9 3d 09 e1 93 3f
       -0.48430747 0.8066376 0.11390124 1.155305
000270 42 93 38 3f 2d 18 b2 3f d8 44 56 3f 9b 63 ac 3e
       0.720997 1.3913628 0.836988 0.33669743
000280 8a 58 0a be f0 5c a3 bf a6 28 36 c0 8b f5 d6 bf
       -0.13510337 -1.2762737 -2.846231 -1.6793684
000290 7d 32 85 bf 73 63 00 3f 86 5e fc 3e a2 d1 1f 3f
       -1.0406033 0.5015175 0.49290866 0.6242925
0002a0 44 5f 9e 3f bf 96 62 bf 4c ef 47 bf 93 1c b8 bf
       1.2372823 -0.8851127 -0.78099513 -1.438372
0002b0 c8 86 c5 3e 66 45 ce be 0f 2c fe 3e 99 48 c8 bf
       0.38579392 -0.40287322 0.4964299 -1.5647155
0002c0 43 70 22 3f ed 3f 36 3e b1 3c 1c 40 62 58 1a 3d
       0.6345255 0.17797823 2.4412043 0.037681945
0002d0 a3 04 a9 bf ec 54 2f bd 3e 16 88 3f 61 de 59 bf
       -1.320454 -0.042805597 1.0631788 -0.8510495
0002e0 9a 6f 09 3f 93 56 e9 bc 79 df ac 3e 1c 83 87 3d
       0.53685915 -0.028483665 0.33764246 0.06616804
0002f0 36 df 45 bf fc a4 48 bf 97 fb b2 b9 50 26 20 3f
       -0.7729372 -0.78376746 -0.00034138255 0.6255846
000300 9a b4 b6 be c4 a7 bd be e8 56 46 bf fd 15 bb 3d
       -0.35684663 -0.37042058 -0.7747636 0.09135053
000310 3c 04 10 3f 22 16 55 40 13 a8 9a 3f 9a dd 90 bf
       0.5625646 3.3294759 1.2082542 -1.1317627
000320 1d cd 58 bf 2e 32 7b bf bd 26 11 40 5a 63 e3 be
       -0.8468798 -0.98123443 2.2679894 -0.44411737
000330 d1 1f 35 3f 24 48 c1 3b 15 22 8e be 53 eb e8 bf
       0.70751673 0.0058984924 -0.27760378 -1.8196815
000340 50 d6 03 c0 b5 e1 83 bf 42 63 f1 3f ce 2c e5 be
       -2.0599556 -1.0303255 1.8858416 -0.44760746
000350 3c aa 62 3f 43 4b ed 3f 93 8a 83 bf 51 9f 94 3e
       0.8854101 1.8538593 -1.0276664 0.290278
000360 3e 7a 95 be 7d 3f 32 be b4 77 38 3f 41 d9 c5 3f
       -0.29194826 -0.17407031 0.7205765 1.5456926
000370 c5 f4 d7 bf e1 9b 6e 3f c2 c5 d9 bf 67 c5 21 bd
       -1.6871573 0.932066 -1.7013476 -0.0394949
000380 d2 69 96 bf 75 36 ea be ce 32 d3 bf 10 9c c5 be
       -1.1751044 -0.45744672 -1.6499879 -0.3859563
000390 81 17 88 bd 3d b2 42 3f 94 86 7b bf 89 3c ba 3d
       -0.06645108 0.7605322 -0.98252225 0.090935774
0003a0 14 86 c4 3e b5 7f a3 3e e5 10 95 bf e3 b1 45 bf
       0.38383543 0.3193337 -1.1645781 -0.7722456
0003b0 12 dd b7 3e a3 ee c3 be 9b 2b c4 be 5f 3b 96 3f
       0.3591085 -0.38268003 -0.38314518 1.1736869
0003c0 23 5f 8b bf 0d 10 fe 3f b7 ab 78 bf 3b 5b 98 3c
       -1.0888408 1.9848648 -0.97137016 0.01859819
0003d0 92 68 10 be 8d 14 8c 3e 57 ac 8a bf e0 0b 34 3f
       -0.1410239 0.2735943 -1.0833844 0.7033062
0003e0 67 12 30 3e 61 d0 44 bf fb 0c 85 3f 3a b0 0a 3f
       0.1719452 -0.7688046 1.0394586 0.5417515
0003f0 a0 96 58 3e 51 6f 8c 3f 2b 35 3c 3e 58 79 06 c0
       0.21151209 1.0971471 0.18379657 -2.1011562
