output/section8/checkpoint7.pt (torch, 5881 bytes, 1 tensors)

fc.weight f4 [4, 300]
0.5144459 -0.097921014 0.9578044 -0.14256383 -0.21740477 -0.9497706 -1.2435083 0.17291519
-0.6878131 -1.1098549 0.5727811 1.4300873 -1.5719951 -1.3888787 -1.4384601 0.72572654
1.1469198 0.100186415 -0.9560462 -1.5745566 0.45026806 0.4489357 0.61956644 -2.1254668
1.6005678 -0.14698754 0.7092711 0.85180247 -0.40679628 -1.0465766 0.0054856674 0.8949785
1.2342662 -2.1587386 -0.28008893 2.5671139 -0.8309027 -0.3965008 -1.6678376 0.731659
-1.1333659 -1.3714846 2.4478064 -1.3880504 -1.7817227 -1.9836932 1.917279 1.5896608
-0.60527223 1.556795 0.88712305 -1.0497682 -0.9415251 0.32389143 -0.85953724 -1.0011545
0.26436105 1.1151835 -0.12687367 -1.3440863 -1.0921241 1.0220774 -1.9313493 -0.91772187
1.2017968 -0.043705918 -1.43844 1.5449193 -0.070655346 0.44271246 0.38476604 -2.6603594
0.5802375 0.1837652 1.3671227 0.25375533 -0.6291927 1.6359031 0.62770736 2.690223
0.9775308 -0.7671929 -1.9828913 1.0340642 -0.7557716 1.2309705 -0.36073604 0.51088405
-0.7384108 1.6605201 -0.09934076 -0.126604 2.3434527 -1.2168576 -0.68837345 0.2149342
0.1482241 -0.19397423 1.113273 0.035324935 -0.37833023 1.2707236 0.07332383 1.0698578
-0.29016232 -0.79185927 -2.1072655 0.47238994 -1.0682509 0.10587983 -0.71029633 -0.261137
-0.59211755 -0.6723171 -1.0613256 1.4339015 -1.8769102 0.18310325 0.26440865 1.1620855
0.3583142 -0.574488 0.09247892 0.71288353 0.66981506 0.19426939 1.7336961 0.049941607
0.056103002 0.969059 -0.011808777 2.1092634 -0.4623478 0.65690863 -1.1530312 -1.7540246
0.5623731 -0.22647813 -0.575709 0.5396787 -0.40800098 -0.41208234 0.68019253 -1.4602028
0.0151094 -1.3470712 -0.8453102 0.28331974 -2.1721735 0.60641986 0.1116192 0.30259046
-0.43236852 0.79213786 0.114852205 1.1664597 0.7165598 1.4092357 0.82154906 0.35570398
-0.12861402 -1.2794632 -2.8259792 -1.6875826 -1.026867 0.47909403 0.49701095 0.6336439
1.2762103 -0.858243 -0.847148 -1.4209516 0.43175933 -0.39749104 0.52233136 -1.5929224
0.63171625 0.17457734 2.452065 0.018209876 -1.3307465 -0.06794523 1.034249 -0.819961
0.57272094 -0.08135339 0.36132455 0.112246625 -0.74249595 -0.7935387 -0.022653975 0.62669015
-0.3712761 -0.3515889 -0.7681236 0.07652095 0.5031166 3.32875 1.1984384 -1.1291174
-0.877905 -0.9681533 2.2418997 -0.48486865 0.67300147 0.03568466 -0.25700435 -1.806348
-2.0263412 -1.0334816 1.8858756 -0.45524418 0.89557993 1.8973054 -1.0020953 0.30558473
-0.26760024 -0.15616137 0.7161327 1.5574267 -1.6609102 0.92701656 -1.7681929 -0.054887008
-1.1656855 -0.4434363 -1.634207 -0.37140968 -0.017954612 0.78798795 -0.9938051 0.08912956
0.39422816 0.3519521 -1.1369468 -0.7443708 0.39306948 -0.3653166 -0.3969314 1.1500356
-1.0874656 1.979068 -1.0127037 0.06419719 -0.116500035 0.24879187 -1.0624024 0.66476095
0.20358752 -0.74503946 1.0277046 0.5163803 0.16552594 1.0833217 0.14551407 -2.093343
00000000: bab2 033f d08a c8bd ab32 753f 41fc 11be
00000010: 5b9f 5ebe 2b24 73bf 482b 9fbf ae10 313e
00000020: 8514 30bf ba0f 8ebf c8a1 123f 1a0d b73f
00000030: 2337 c9bf c7c6 b1bf 761f b8bf 37c9 393f
00000040: 45ce 923f 892e cd3d 72bf 74bf 128b c9bf
00000050: 8989 e63e e6da e53e e89b 1e3f a607 08c0
00000060: 68df cc3f e783 16be ca92 353f ba0f 5a3f
00000070: 9a47 d0be 39f6 85bf 1dc1 b33b 501d 653f
00000080: 6ffc 9d3f c628 0ac0 d167 8fbe 984b 2440
00000090: 0ab6 54bf 2702 cbbe b47b d5bf 014e 3b3f
000000a0: 2212 91bf cf8c afbf dca8 1c40 a3ab b1bf
000000b0: 7d0f e4bf a9e9 fdbf 6669 f53f 017a cb3f
000000c0: 1ff3 1abf 0f45 c73f 7f1a 633f ce5e 86bf
000000d0: ca07 71bf 19d5 a53e a20a 5cbf d525 80bf
000000e0: 555a 873e 55be 8e3f 2ceb 01be 050b acbf
000000f0: b9ca 8bbf 6fd3 823f 7436 f7bf d2ef 6abf
00000100: 7ad4 993f fa04 33bd cd1e b8bf eabf c53f
00000110: c0b3 90bd 35ab e23e 0e00 c53e 5443 2ac0
00000120: 728a 143f f22c 3c3e e0fd ae3f 38ec 813e
00000130: c612 21bf 4665 d13f 6eb1 203f 9d2c 2c40
00000140: 753f 7a3f c166 44bf 62cf fdbf 375c 843f
00000150: 3f7a 41bf 7190 9d3f 65b2 b8be 4cc9 023f
00000160: 7d08 3dbf ec8b d43f 2b73 cbbd 7ba4 01be
00000170: 21fb 1540 fdc1 9bbf 3e39 30bf b617 5c3e
00000180: 0fc8 173e 2ea1 46be bb7f 8e3f e1b0 103d
00000190: 80b4 c1be 12a7 a23f ce2a 963d 1af1 883f
000001a0: 2890 94be 4ab7 4abf 70dd 06c0 18dd f13e
000001b0: 72bc 88bf 86d7 d83d fbd5 35bf c0b3 85be
000001c0: 0495 17bf f91c 2cbf 84d9 87bf 168a b73f
000001d0: 983e f0bf 6b7f 3b3e 9260 873e 38bf 943f
000001e0: f574 b73e a511 13bf 9765 bd3d 897f 363f
000001f0: 0079 2b3f 8eee 463e c1e9 dd3f 928f 4c3d
00000200: 43cc 653d 4014 783f 9a79 41bc 2cfe 0640
00000210: dab8 ecbe 2a2b 283f 8796 93bf e183 e0bf
00000220: aff7 0f3f e2e9 67be aa61 13bf 6228 0a3f
00000230: 81e5 d0be 75fc d2be 1921 2e3f ede7 babf
00000240: 6b8d 773c d46c acbf 4066 58bf 490f 913e
00000250: e404 0bc0 553e 1b3f 9b98 e43d 23ed 9a3e
00000260: 685f ddbe 8cc9 4a3f a237 eb3d 8d4e 953f
00000270: 7770 373f d661 b43f 0a51 523f d51e b63e
00000280: 65b3 03be 73c5 a3bf d8dc 34c0 b502 d8bf
00000290: 6170 83bf d04b f53e 3878 fe3e 7d36 223f
000002a0: dc5a a33f d0b5 5bbf b1de 58bf bee1 b5bf
000002b0: 8f0f dd3e f283 cbbe 82b7 053f e2e4 cbbf
000002c0: 28b8 213f 67c4 323e a2ee 1c40 e12c 953c
000002d0: e755 aabf de26 8bbd 4562 843f f7e8 51bf
000002e0: d79d 123f 9b9c a6bd 88ff b83e 8fe1 e53d
000002f0: 3714 3ebf 5a25 4bbf d494 b9bc c46e 203f
00000300: e717 bebe 7603 b4be c0a3 44bf 04b7 9c3d
00000310: 40cc 003f 3d0a 5540 6e66 993f eb86 90bf
00000320: 62be 60bf e5d8 77bf 497b 0f40 b440 f8be
00000330: d349 2c3f 142a 123d 1396 83be 6936 e7bf
00000340: 93af 01c0 2049 84bf 5f64 f13f c415 e9be
00000350: ba44 653f e7da f23f a944 80bf 9a75 9c3e
00000360: e602 89be c4e8 1fbe 7954 373f c259 c73f
00000370: b598 d4bf f550 6d3f 2554 e2bf 33d1 60bd
00000380: 2f35 95bf 150a e3be b22d d1bf 6929 bebe
00000390: 8d15 93bc 94b9 493f 036a 7ebf 8f89 b63d
000003a0: 46d8 c93e 1133 b43e 7987 91bf 168f 3ebf
000003b0: 6740 c93e c70a bbbe 983a cbbe 5e34 933f
000003c0: 1332 8bbf 1a52 fd3f 46a0 81bf d179 833d
000003d0: 9297 eebd 4cc3 7e3e cdfc 87bf c62d 2a3f
000003e0: 3f79 503e e8ba 3ebf d38b 833f 8031 043f
000003f0: a27f 293e 49aa 8a3f a401 153e 55f9 05c0
