output/section8/checkpoint27.pt (torch, 5881 bytes, 1 tensors)

fc.weight f4 [4, 300]
0.2600627 -0.07138112 0.77554816 0.1741357 -0.06559454 -1.312413 -1.1579216 0.4067385
-0.4576966 -1.0433171 0.2065547 1.396025 -1.024169 -0.96421677 -1.522111 0.9017729
1.1314149 0.034082636 -0.6984758 -2.068386 0.65818137 0.27679557 0.80620956 -1.9620801
1.7866737 0.3422847 0.5309105 1.050053 -0.60648173 -0.7266153 0.3909259 0.76056033
0.9979902 -2.1305118 -0.278819 2.5647438 -0.53607965 -0.009000622 -1.6618118 0.32105032
-0.98719686 -1.2792563 2.9751108 -1.6755382 -1.8017372 -2.0947282 1.5157392 1.6280602
-0.62144315 1.6448712 1.1294394 -1.0072486 -0.4284473 0.5350874 -1.1780688 -1.1287128
0.09135054 1.2243478 0.41660804 -1.8075575 -1.1680441 0.7860602 -2.448849 -0.9594736
1.1473465 -0.5545533 -1.3756435 0.8986849 0.17651775 0.2726051 0.30766067 -2.5904827
0.72283775 0.22444718 1.4050609 0.30451503 -0.49650133 2.1156793 0.66077036 2.1535258
1.0048925 -0.57665086 -1.7311333 1.2214881 -0.026681032 1.1734545 -0.3091887 0.49533927
-0.21224679 1.3720794 -0.1351707 0.1405975 2.3547587 -0.7764258 -1.158861 -0.10872672
0.09957581 -0.46047193 0.91242 0.0043991287 -0.40929276 1.0373727 0.076018006 0.8828295
-0.13413122 -0.93446827 -1.5249469 0.47945994 -1.0786207 0.12219105 -0.52268386 -0.5394232
-1.0401572 -0.67735666 -1.3464667 1.2927911 -1.3994339 0.41975126 0.34350964 1.1302897
0.8258096 -0.30765107 0.08708019 0.9058518 0.61187166 0.0037217832 1.5058839 -0.31959417
0.4694392 0.7292199 0.23511457 2.0033255 0.19596782 0.80005324 -1.1690695 -1.6170484
0.11736285 -0.2109078 -0.4028551 0.6788894 -0.27474877 -0.9966372 0.7319576 -1.6539726
0.17147161 -1.4035456 -1.4672003 -0.12580962 -1.9022086 0.95860547 0.025702966 0.57387555
0.11372514 0.556013 0.03659183 1.2674814 0.68413895 1.5797395 0.6396393 0.5565935
-0.052863758 -1.1587931 -2.5265012 -1.6202164 -0.9310105 0.0950561 0.527501 0.7781426
1.554535 -0.6059084 -1.4901513 -1.0935786 0.83074653 -0.27786845 0.6757789 -1.7097515
0.6037533 0.08803326 2.4489832 -0.17065972 -1.2990276 -0.36751038 0.657457 -0.45259216
0.9615739 -0.6836023 0.5637685 0.5669549 -0.45346898 -1.0206223 -0.35781893 0.6237734
-0.49969307 -0.10643569 -0.61996776 0.01735942 -0.11335753 3.1733685 0.98864853 -1.0060548
-1.1542647 -0.8532915 1.8446755 -0.8860055 0.35161167 0.35525864 -0.094110385 -1.4834417
-1.5650625 -1.0187356 1.799741 -0.44276243 0.9626387 2.171569 -0.684066 0.46667778
0.07267286 0.1422698 0.6227781 1.6160636 -1.3699312 0.8831017 -2.3468254 -0.3224453
-0.90380555 -0.17863809 -1.5905776 -0.12920164 0.33058536 1.0466086 -1.0346568 0.044843975
0.4403374 0.64322066 -0.8198122 -0.43994483 0.6897082 -0.105542764 -0.5159895 0.9367047
-1.1121618 1.8208675 -1.4413644 0.47637734 0.19228917 0.009437143 -0.7545597 0.40962425
0.412574 -0.44417617 0.9069274 0.26096126 -0.16944587 0.9079182 -0.19624159 -1.9715205
00000000: f026 853e 4430 92bd 538a 463f a150 323e
00000010: 6e56 86bd 26fd a7bf c636 94bf 0740 d03e
00000020: 3557 eabe 6a8b 85bf 1383 533e f2b0 b23f
00000030: f817 83bf e9d6 76bf 89d4 c2bf 97da 663f
00000040: 34d2 903f 3c9a 0b3d 4fcf 32bf 7060 04c0
00000050: 937e 283f 26b8 8d3e c063 4e3f 7125 fbbf
00000060: b9b1 e43f f13f af3e c0e9 073f 2368 863f
00000070: 6342 1bbf 7603 3abf 7127 c83e 15b4 423f
00000080: 497c 7f3f 4e5a 08c0 5dc1 8ebe c324 2440
00000090: 843c 09bf 5877 13bc 40b6 d4bf b560 a43e
000000a0: efb8 7cbf acbe a3bf 3768 3e40 0978 d6bf
000000b0: 539f e6bf 0710 06c0 be03 c23f 4764 d03f
000000c0: e616 1fbf 248b d23f 7891 903f 86ed 80bf
000000d0: 725d dbbe 7dfb 083f f5ca 96bf a979 90bf
000000e0: fe15 bb3d 6eb7 9c3f a64d d53e 0b5e e7bf
000000f0: 7882 95bf 3e3b 493f f1b9 1cc0 10a0 75bf
00000100: 40dc 923f 34f7 0dbf 1615 b0bf 3710 663f
00000110: 12c1 343e e592 8b3e b385 9d3e 78ca 25c0
00000120: e50b 393f 7bd5 653e 09d9 b33f 65e9 9b3e
00000130: 6c35 febe 4a67 0740 3f28 293f 5ed3 0940
00000140: 51a0 803f 649f 13bf c795 ddbf b959 9c3f
00000150: 2e92 dabc c233 963f fb4d 9ebe 1c9d fd3e
00000160: 3957 59be 4ca0 af3f 306a 0abe cbf8 0f3e
00000170: 5eb4 1640 d7c3 46bf 8f55 94bf 1dac debd
00000180: 67ee cb3d fac2 ebbe 5b94 693f 9126 903b
00000190: d28e d1be a1c8 843f 54af 9b3d 1d01 623f
000001a0: b259 09be 5039 6fbf 7631 c3bf c67b f53e
000001b0: 3e10 8abf 4d3f fa3d 9cce 05bf a417 0abf
000001c0: df23 85bf 3f67 2dbf 0559 acbf 2e7a a53f
000001d0: a620 b3bf a3e9 d63e 7fe0 af3e 55ad 903f
000001e0: 4268 533f 7184 9dbe 1957 b23d e7e5 673f
000001f0: 9fa3 1c3f 29e9 733b cec0 c03f d9a1 a3be
00000200: 565a f03e 28ae 3a3f e0c1 703e 7c36 0040
00000210: caab 483e 4ad0 4c3f 12a4 95bf 71fb cebf
00000220: ef5b f03d 37f8 57be 0643 cebe b2cb 2d3f
00000230: dfab 8cbe 9e23 7fbf 9361 3b3f 60b5 d3bf
00000240: 4196 2f3e 62a7 b3bf 38cd bbbf 3dd4 00be
00000250: 927b f3bf 2b67 753f 078f d23c 82e9 123f
00000260: bae8 e83d de56 0e3f 51e1 153d d53c a23f
00000270: bb23 2f3f e734 ca3f 67bf 233f e97c 0e3f
00000280: ab87 58bd 5553 94bf 32b2 21c0 4063 cfbf
00000290: b456 6ebf c6ac c23d 4e0a 073f 5a34 473f
000002a0: 01fb c63f d01c 1bbf 47bd bebf 62fa 8bbf
000002b0: ceab 543f c644 8ebe d9ff 2c3f 23d9 dabf
000002c0: 948f 1a3f c84a b43d 24bc 1c40 6cc1 2ebe
000002d0: 8946 a6bf 522a bcbe 1a4f 283f 29ba e7be
000002e0: b529 763f 8f00 2fbf 2253 103f f523 113f
000002f0: 162d e8be c0a3 82bf 0b34 b7be 9daf 1f3f
00000300: c5d7 ffbe f4fa d9bd 35b6 1ebf 5835 8e3c
00000310: fe27 e8bd 7818 4b40 1218 7d3f 67c6 80bf
00000320: f2be 93bf 5071 5abf 541e ec3f 42d1 62bf
00000330: 7206 b43e 76e4 b53e f2bc c0bd 6be1 bdbf
00000340: f853 c8bf ee65 82bf ea5d e63f c2b1 e2be
00000350: 7d6f 763f fdfa 0a40 f31e 2fbf 64f0 ee3e
00000360: 82d5 943d 2daf 113e 636e 1f3f 2cdb ce3f
00000370: e859 afbf f412 623f 6332 16c0 8d17 a5be
00000380: cd5f 67bf e7ec 36be 0c98 cbbf 6f4d 04be
00000390: 7c42 a93e 45f7 853f a26f 84bf 51ae 373d
000003a0: e773 e13e 1caa 243f 36df 51bf 7340 e1be
000003b0: b790 303f ce26 d8bd e317 04bf e1cb 6f3f
000003c0: 515b 8ebf 3012 e93f a17e b8bf bbe7 f33e
000003d0: 74e7 443e 3f9e 1a3c d32a 41bf 45ba d13e
000003e0: e63c d33e 0f6b e3be 652c 683f b79c 853e
000003f0: 3883 2dbe 546d 683f 8ef3 48be c95a fcbf
