output/section8/checkpoint18.pt (torch, 5881 bytes, 1 tensors)

fc.weight f4 [4, 300]
00000000: 6ee2 a63e 8abe 75bd f8d0 553f 07a4 493d
00000010: 5e51 c9bd 78eb 9abf 282a 9abf f674 aa3e
00000020: 0a2f 0abf 8985 88bf 1b47 9d3e df4c b93f
00000030: e4a8 9dbf 7454 8ebf 0451 c4bf c0e0 573f
00000040: fa6a 8f3f 432a 3b3d 58bb 4abf 17bc f2bf
00000050: d086 173f 5d94 bd3e 11cd 433f 8086 00c0
00000060: 8901 e13f 28d8 3a3e 0489 1a3f b766 7a3f
00000070: 1fd0 0fbf 98c1 4fbf 92a3 9a3e 5a2d 523f
00000080: b7d1 893f 781b 09c0 a7da 7cbe 348a 2440
00000090: 2545 22bf ee94 04be cb53 d2bf 344c ef3e
000000a0: 43a9 87bf d701 abbf 1fa8 3440 4193 ccbf
000000b0: a2a7 eabf 2394 03c0 9824 d43f 8a3d d03f
000000c0: 7718 20bf 259c cf3f 39bd 8a3f c3a0 83bf
000000d0: 1701 1dbf 3f6d f73e 35c3 86bf b2fb 88bf
000000e0: 7385 053e 18e9 993f 72b2 723e 6642 d6bf
000000f0: 6c30 95bf b562 5b3f 7c87 11c0 7136 70bf
00000100: a122 943f 3f51 cabe d6fa b2bf fb59 8e3f
00000110: 3539 9e3d 1a76 a53e 1093 b93e 9e1f 28c0
00000120: 66c9 393f b07d 783e 519e b43f 0eec 943e
00000130: 995c 0abf 20ba 0040 f0f4 233f c7cc 1640
00000140: 04d9 7f3f 15f6 2abf 44ea ecbf 66d0 943f
00000150: 08b7 88be 8f9c 9a3f d292 a4be a9d2 f33e
00000160: 7bad d5be 6565 bf3f 0a6d 8cbd e838 243d
00000170: 5478 1740 dd12 6fbf abc4 7cbf 104b 20bc
00000180: 7601 b13d ba31 bbbe 3062 803f 38ad 64bc
00000190: 34c3 d2be 0219 913f 7560 a73d 37e1 7d3f
000001a0: b554 37be 4904 62bf 8609 dfbf e568 e63e
000001b0: 6ac4 8dbf 5df5 f33d 24fc 12bf 5b04 ebbe
000001c0: b72e 5ebf 9e84 27bf ec14 9fbf 6413 ae3f
000001d0: a690 cabf e249 af3e 72d2 a13e d155 943f
000001e0: e0f5 303f b6cd c4be 87ac a53d a47b 583f
000001f0: 9c55 203f f634 a13d a432 cc3f 0b31 50be
00000200: 6e8e a13e 1a1b 4c3f 37eb 103e 753d 0540
00000210: 8de5 51bc dd42 3d3f 07e1 94bf 97c4 d5bf
00000220: b24c 803e e274 60be c1c9 f5be e1b8 213f
00000230: 87e6 9abe c846 4fbf 749d 393f 457e cdbf
00000240: b6a9 cb3d f918 b3bf 4bc7 9ebf ff68 c73b
00000250: 2bbf f8bf 02e7 5b3f e866 1e3d 371d fa3e
00000260: e776 87bd b323 263f 6486 a53d c72a 9e3f
00000270: bcc9 323f dd93 c43f 036d 343f 971d fd3e
00000280: aefd 9bbd b48e 9dbf 4520 29c0 570b d6bf
00000290: 1db9 72bf cdec 7e3e 9458 053f 6ca4 373f
000002a0: 7ab3 be3f f050 2dbf 49a3 a5bf 9595 9dbf
000002b0: 2073 393f 2b40 a6be ac1d 263f 13f0 dabf
000002c0: a3ab 1d3f d51a 053e 87d7 1e40 fb83 e6bd
000002d0: f1e7 aabf 124c 84be eba2 4c3f 1621 13bf
000002e0: 7cae 533f 9cd1 f5be e225 033f af51 d63e
000002f0: 420a 0abf 3a15 6cbf 8e76 67be 7d07 213f
00000300: 72fa eabe 2a86 42be 18f8 2cbf 62f1 5a3c
00000310: d764 b43d a4c6 5040 d42a 8a3f ede9 87bf
00000320: 2980 8abf 1c64 64bf facb ff3f e761 44bf
00000330: 347b e63e 0c08 803e 5871 0abe d337 cfbf
00000340: 45a5 debf 5463 84bf b875 ed3f b1a3 efbe
00000350: 96ff 723f b770 0740 cabe 4bbf 2cf9 d53e
00000360: 119a 6ebd 806e aa3c 1d68 2b3f 3968 cd3f
00000370: 1b72 bbbf f308 653f d0fa 0bc0 a3ee 58be
00000380: 2630 82bf 037c 94be 709b cabf 1005 63be
00000390: da2d 7f3e 2d8a 763f d031 83bf 4889 7d3d
000003a0: 101f dd3e 6e34 113f 6833 6cbf 8fcf 09bf
000003b0: e01c 1d3f 2f5d 50be 04bc f8be 2e29 803f
000003c0: 5e9e 8cbf d0cc f23f 5144 a7bf f590 ba3e
000003d0: 64cf a93d 0408 ae3d 2bfc 5ebf e3bd eb3e
000003e0: f6e5 c03e e6a2 0dbf a05f 743f 6e7c b23e
000003f0: ed35 b4bd fa4e 793f 1ad8 c7bd b2fd 00c0
0.32594627 -0.059996165 0.83521986 0.049228694 -0.09829973 -1.2103109 -1.2044115 0.3329236
-0.53978026 -1.0665752 0.30718312 1.4476584 -1.2317166 -1.1119523 -1.5337224 0.84327316
1.1204522 0.0456946 -0.79192114 -1.896365 0.5919008 0.37027255 0.7648478 -2.0082092
1.7578593 0.1824652 0.6036532 0.9781298 -0.5617694 -0.81154776 0.3020292 0.8210045
1.0767125 -2.1423016 -0.24692784 2.5709352 -0.63386756 -0.12947437 -1.6431822 0.46737826
-1.059853 -1.3359936 2.8227613 -1.5982438 -1.8332407 -2.0559165 1.6573668 1.626878
-0.6253733 1.6219527 1.0838996 -1.0283436 -0.6132979 0.48325536 -1.0528322 -1.0701811
0.13039188 1.202426 0.23700884 -1.6739013 -1.1655402 0.8569749 -2.2738943 -0.9383307
1.1573068 -0.3951511 -1.3982799 1.112121 0.07725755 0.32316667 0.36245012 -2.6269298
0.72572935 0.24266696 1.4110814 0.29086345 -0.5404754 2.0113602 0.6404562 2.3562486
0.99940515 -0.6678174 -1.8508992 1.1626098 -0.26702142 1.2079028 -0.32143265 0.47621658
-0.41733918 1.4952818 -0.06856735 0.040093333 2.3667192 -0.9338816 -0.9873759 -0.009783521
0.08642857 -0.36561376 1.0029964 -0.013957314 -0.41164553 1.1335757 0.081726946 0.99171776
-0.17903407 -0.8828779 -1.7424781 0.45001903 -1.1075566 0.11912034 -0.57415986 -0.4590176
-0.8679003 -0.6543673 -1.242826 1.3599668 -1.5825393 0.34236056 0.3160587 1.1588689
0.69125175 -0.38438195 0.080895476 0.8456366 0.6263063 0.078714296 1.5952954 -0.20331208
0.31553978 0.79728854 0.14152227 2.081876 -0.012811077 0.7393015 -1.1631173 -1.670062
0.25058514 -0.21919587 -0.4800549 0.6317273 -0.30254003 -0.8096738 0.7250588 -1.6054159
0.09944479 -1.3991996 -1.2404569 0.0060855146 -1.943334 0.85899365 0.038672358 0.48850414
-0.06614476 0.6489822 0.080822736 1.2356805 0.6983907 1.5357624 0.7047884 0.49436638
-0.07616745 -1.2309175 -2.6425946 -1.6722211 -0.9481371 0.2489502 0.52088284 0.7173526
1.4898522 -0.67701626 -1.2940456 -1.2311274 0.7244129 -0.3247083 0.64889026 -1.7104515
0.6159002 0.12998517 2.4819047 -0.11255642 -1.3352033 -0.25839287 0.79936093 -0.5747236
0.8268812 -0.48011482 0.5122968 0.41859195 -0.539219 -0.9221989 -0.22603819 0.6290205
-0.458942 -0.18996492 -0.6756606 0.013363214 0.08808296 3.262124 1.079432 -1.0618263
-1.0820361 -0.89215255 1.9984124 -0.7671189 0.45015872 0.2500614 -0.135198 -1.6188911
-1.7394186 -1.0342813 1.855155 -0.46804574 0.94921243 2.1162546 -0.79587996 0.41791666
-0.058252398 0.020804644 0.6695574 1.6047431 -1.4644197 0.8946678 -2.1871834 -0.21184783
-1.0170944 -0.29000863 -1.5828686 -0.221699 0.24919835 0.9630459 -1.0249577 0.0618985
0.4318776 0.56720626 -0.9226594 -0.53832334 0.61372185 -0.20348047 -0.48580945 1.0012567
-1.098583 1.8968754 -1.3067724 0.36438718 0.0829151 0.084976226 -0.8710353 0.4604331
0.37675446 -0.5532669 0.9545841 0.34860557 -0.08799348 0.97386134 -0.09758015 -2.0154843
