output/section8/checkpoint5.pt (torch, 5881 bytes, 1 tensors)

fc.weight f4 [4, 300]
000000 c0 0d 14 3f 7b 4c f7 bd 64 5d 7e 3f a1 8d 3e be
       0.5783348 -0.12075134 0.9936125 -0.18608715
000010 62 f4 83 be f7 4b 5c bf 2d c3 9e bf 5f 7f f6 3d
       -0.25772387 -0.86053413 -1.2403313 0.12036013
000020 40 1d 3c bf 2f 5d 8f bf 17 9d 2a 3f 9a 9a b2 3f
       -0.7348213 -1.1200312 0.6664595 1.3953431
000030 ef a2 d4 bf 32 60 bb bf fe e0 b0 bf bb 3f 32 3f
       -1.6612223 -1.4638731 -1.3818662 0.69628495
000040 6c a1 95 3f 0f 7a 00 3e 4a 9e 7e bf bf 62 be bf
       1.1689887 0.12546562 -0.9946028 -1.4873885
000050 3b fa d1 3e 87 14 e3 3e 2c e7 11 3f 6d 98 0a c0
       0.41011223 0.443516 0.56993365 -2.1655533
000060 a0 1b c4 3f 81 7b 7c be c5 f4 39 3f 69 cd 53 3f
       1.532093 -0.24656488 0.72639114 0.82735306
000070 a2 f5 b2 be d1 c0 90 bf 2c 30 d2 bd 34 15 6a 3f
       -0.34953028 -1.1308843 -0.10263094 0.91438603
000080 90 94 a3 3f 01 77 0a c0 09 b8 a0 be 70 54 24 40
       1.2779713 -2.1635134 -0.31390408 2.5676537
000090 41 40 62 bf 61 03 f1 be d4 d2 d8 bf 5f 4c 4d 3f
       -0.88379294 -0.4707289 -1.693934 0.8019466
0000a0 ff 23 92 bf 6b cc af bf 9d 37 15 40 c2 b2 a8 bf
       -1.1417235 -1.3734258 2.3315194 -1.3179553
0000b0 19 0d de bf 01 c2 fb bf 9e 0a fe 3f 62 4a c8 3f
       -1.7347747 -1.966858 1.984699 1.56477
0000c0 0e f1 17 bf 0f ed c4 3f 89 dd 4c 3f 96 b0 85 bf
       -0.59352195 1.5384845 0.80025536 -1.0444515
0000d0 42 84 82 bf ab a6 89 3e e2 4f 51 bf 8e 3b 7e bf
       -1.0196612 0.2688497 -0.81762516 -0.99309623
0000e0 84 f7 9f 3e 14 69 8a 3f 48 35 70 be 45 ed 9d bf
       0.31243527 1.0813317 -0.23457825 -1.2338034
0000f0 12 c7 86 bf cc 6e 89 3f dd 06 eb bf 12 9d 6a bf
       -1.0529501 1.0736938 -1.836147 -0.9164592
000100 c7 69 9c 3f 91 63 6a 3d fa d7 b9 bf 50 88 d4 3f
       1.2219781 0.05722386 -1.4519036 1.6604099
000110 20 1b d0 bd 56 e9 f8 3e 12 c4 c5 3e 9f c7 29 c0
       -0.10161424 0.4861552 0.38626152 -2.652809
000120 1a 89 fe 3e 24 35 16 3e 6e c6 ab 3f a1 b4 79 3e
       0.49713975 0.14668709 1.3419931 0.2438531
000130 95 a2 28 bf 82 3d be 3f bd 24 20 3f 91 28 31 40
       -0.6587308 1.4862521 0.6255606 2.768101
000140 ad 12 77 3f 68 0f 47 bf 15 4d ff bf d8 50 7c 3f
       0.9651287 -0.77757883 -1.9945399 0.9856086
000150 07 0d 65 bf 9c 77 9d 3f c7 65 be be 37 3b 08 3f
       -0.89473003 1.2302127 -0.37187025 0.53215355
000160 3c 9e 4c bf 9d 3b d8 3f 6f ad 1f be b2 14 25 be
       -0.79928946 1.6893193 -0.15593503 -0.16121176
000170 b3 e1 14 40 19 69 a5 bf 71 a2 1d bf 93 64 96 3e
       2.3262756 -1.2922698 -0.6157599 0.29373607
000180 14 16 3b 3e 93 a4 1a be 51 8c 90 3f 91 10 82 3d
       0.18270141 -0.15101843 1.1292821 0.06350816
000190 fd f1 b9 be 04 9b a6 3f 50 0e 91 3d 25 e1 87 3f
       -0.36317435 1.3016057 0.07082808 1.0615584
0001a0 34 84 a7 be b6 a1 44 bf 1b 4a 0c c0 6c 1e fd 3e
       -0.3271805 -0.7680925 -2.192023 0.49437273
0001b0 52 3e 85 bf 85 88 d1 3d 20 59 41 bf fc 81 4e be
       -1.0409644 0.10231117 -0.7552662 -0.20166773
0001c0 38 4c 05 bf a1 2c 32 bf 8e 07 82 bf fb 72 b8 3f
       -0.52069426 -0.6959935 -1.0158556 1.4410089
0001d0 1a 25 f9 bf bf 9f 0e 3e 0a 0a 77 3e 87 bf 92 3f
       -1.9464447 0.13928126 0.24124923 1.14647
0001e0 39 74 84 3e 91 ff 22 bf bf 2a d5 3d 11 5e 2b 3f
       0.2586992 -0.63671213 0.10408544 0.6694041
0001f0 04 9f 30 3f 7c bf 5f 3e 4c a5 e1 3f 4d 05 04 3e
       0.6899264 0.21850389 1.762857 0.12892647
000200 c3 61 07 bb ab 17 83 3f 47 53 60 bd 7d 90 05 40
       -0.0020657636 1.0241598 -0.05476692 2.0869439
000210 d2 81 18 bf 00 08 26 3f 56 ab 93 bf 14 76 e2 bf
       -0.5957309 0.6485596 -1.1536663 -1.7692285
000220 64 3f 26 3f 25 92 67 be 48 8a 14 bf 1d c1 04 3f
       0.64940476 -0.22614343 -0.580235 0.5185717
000230 e3 61 e6 be cf 34 92 be 3e fe 29 3f 45 05 b6 bf
       -0.44996557 -0.28555915 0.6640357 -1.4220358
000240 dc d8 df 3b 5b 2d a8 bf 32 c8 40 bf c9 8f ba 3e
       0.0068312716 -1.3138841 -0.75305474 0.36437824
000250 ee 2d 11 c0 db 8e 05 3f 8d fd 15 3e a3 69 7e 3e
       -2.2684283 0.52171105 0.14647503 0.24844985
000260 e9 3f 0b bf 49 38 52 3f 47 9a e2 3d 60 1b 92 3f
       -0.54394394 0.82117134 0.11064582 1.1414604
000270 e9 27 3a 3f 04 a2 af 3f 99 92 5a 3f 6c 20 a1 3e
       0.7271715 1.3721318 0.8537994 0.31470048
000280 f3 70 11 be c3 6f a2 bf 2e 69 37 c0 0d 62 d5 bf
       -0.14203243 -1.2690357 -2.8657947 -1.6670548
000290 cb 29 87 bf 65 9d 05 3f fb c1 fa 3e 87 f7 1c 3f
       -1.0559629 0.5219329 0.4897612 0.61315197
0002a0 e1 5c 98 3f 26 01 6a bf 5c 65 35 bf 30 63 ba bf
       1.1903344 -0.91408 -0.7085779 -1.456152
0002b0 18 54 ab 3e 6a 24 d1 be fc e5 ed 3e d0 d4 c3 bf
       0.33462596 -0.40848094 0.46464527 -1.529932
0002c0 71 d2 23 3f 3e ca 38 3e d7 64 1b 40 bc 69 72 3d
       0.63992983 0.180459 2.4280298 0.059182867
0002d0 97 52 a7 bf a3 f4 7b bc 3c 35 8c 3f af 4c 62 bf
       -1.307208 -0.01537815 1.0953746 -0.8839826
0002e0 78 e7 fd 3e 20 d8 f1 3c f3 33 9f 3e ea 1c 5c 3c
       0.4959066 0.029522002 0.31094322 0.013434628
0002f0 26 43 4e bf b4 70 46 bf e1 e6 ca 3c 74 03 20 3f
       -0.8057121 -0.7751572 0.024768295 0.6250527
000300 c4 e5 ad be 77 32 c7 be e9 5d 47 bf 4f 3d e2 3d
       -0.3396436 -0.3890569 -0.7787767 0.1104685
000310 04 da 20 3f 4b 0d 55 40 29 b0 9b 3f d0 10 91 bf
       0.62832665 3.3289363 1.2163135 -1.1333256
000320 05 37 50 bf f2 f9 7e bf ff d5 12 40 6c 02 cd be
       -0.81333953 -0.99600136 2.2943113 -0.4004091
000330 72 68 3f 3f 64 ee e2 bc 1f 92 9a be 2f 39 ea bf
       0.74768746 -0.027701564 -0.30189607 -1.8298701
000340 e1 2f 06 c0 4a 57 83 bf b9 5b f1 3f ac 7c df be
       -2.0966723 -1.0261014 1.8856117 -0.43649805
000350 c4 7e 5f 3f 73 87 e6 3f ec 3e 87 bf 07 0f 8c 3e
       0.87302804 1.8010086 -1.0566077 0.27355215
000360 b7 7c a2 be 0e 01 46 be b3 71 39 3f 04 e6 c3 3f
       -0.31735775 -0.1933634 0.72439116 1.530457
000370 b9 ab db bf e7 1d 70 3f 6f e4 cf bf fd d2 c0 bc
       -1.716178 0.9379563 -1.6241587 -0.023538107
000380 16 37 97 bf 6b 9c f1 be 35 8e d5 bf 59 7c cc be
       -1.1813686 -0.4718965 -1.6684023 -0.3993862
000390 ef ef fd bd b5 7b 3a 3f 0b 85 77 bf 81 89 bb 3d
       -0.12399279 0.7284501 -0.9668738 0.09157086
0003a0 1b 32 bd 3e 5c 1e 91 3e 3f b7 98 bf b1 5e 4d bf
       0.3695229 0.28343475 -1.1930922 -0.8022261
0003b0 23 b7 a4 3e 25 a8 cd be b3 64 bb be 74 c7 99 3f
       0.32170972 -0.40167347 -0.36600265 1.2013993
0003c0 66 71 8b bf a5 c1 fe 3f 9b fd 6c bf e3 0c 0a bd
       -1.0893981 1.9902846 -0.9257447 -0.033703696
0003d0 96 e1 2c be 79 0b 9b 3e 85 7e 8d bf 17 24 40 3f
       -0.16882929 0.3028219 -1.1054236 0.7505507
0003e0 86 03 0b 3e 13 bf 4b bf 24 fd 86 3f 36 8c 12 3f
       0.13575563 -0.7958843 1.0546002 0.57245195
0003f0 a5 ae 88 3e 1d 98 8e 3f 02 96 6a 3e 2b 09 07 c0
       0.26695743 1.1140171 0.22908786 -2.1099346
