output/section8/checkpoint30.pt (torch, 5881 bytes, 1 tensors)

fc.weight f4 [4, 300]
00000000: 6fb1 7b3e 4ca5 a0bd 2a7d 423f 4b77 573e
00000010: 42c9 76bd e138 abbf 0740 92bf 3108 db3e
00000020: c8f2 ddbe d3de 84bf 568a 3a3e 582e b03f
00000030: dd26 76bf 0047 6cbf 9f79 c1bf fb62 6a3f
00000040: 8b70 913f 44a7 fc3c 774d 2cbf 9567 07c0
00000050: 67c2 2c3f d3a9 7b3e a6e1 4f3f c5bf f9bf
00000060: 2101 e53f 6170 c53e 0af8 023f 129f 883f
00000070: 6265 1dbf e9c8 34bf 1a01 d13e f33a 3d3f
00000080: 6d16 7a3f f105 08c0 d731 95be c0ed 2340
00000090: 69ab 02bf ff01 a63c e8a4 d5bf 40b3 8e3e
000000a0: 5f9e 76bf 26cc a0bf 1889 4040 4494 d8bf
000000b0: 8cd9 e4bf 7faa 06c0 4c09 bd3f fa54 d03f
000000c0: 826e 1ebf 4e0b d33f ea92 913f 0342 80bf
000000d0: ad33 c1be 94ab 0b3f bf8c 9bbf fbd7 92bf
000000e0: fbf4 ad3d b822 9d3f 6728 ee3e 227d ebbf
000000f0: 0b2b 95bf 80a3 443f b5aa 1fc0 5c71 77bf
00000100: 5d9b 923f 4be6 17bf 9c00 afbf 39d0 573f
00000110: a6b1 533e e839 843e 591d 913e 7f1e 25c0
00000120: 60ea 363f fe89 5b3e d384 b33f 2e70 9d3e
00000130: 27ba f7be 1997 0840 3446 2b3f a70f 0640
00000140: 52e4 803f 07f6 0bbf d1b2 d8bf b58d 9e3f
00000150: 8a6a 193d 0a8c 943f fdd7 9cbe 1a30 013f
00000160: 09d6 1dbe dfc9 aa3f 1a20 23be 3b38 2c3e
00000170: e15f 1640 8f3e 3bbf 9f89 9abf 3db0 0abe
00000180: 8657 dd3d 8c1e f9be 6ff7 613f a958 7d3c
00000190: 1a8f cfbe 7213 813f 2892 923d c625 583f
000001a0: 52b8 fbbd 2fd0 72bf 7a32 bbbf 5c3f fc3e
000001b0: 1538 88bf e3c0 fb3d 66a3 02bf 7d84 0ebf
000001c0: 06dd 8bbf ff85 2fbf b72c b0bf 0dae a23f
000001d0: 7131 acbf 4f1e e13e 5b7b b43e 8461 8f3f
000001e0: 9536 5b3f 59e2 93be 6bf0 b73d c1f9 6b3f
000001f0: e38b 1b3f 368f 93bc c469 bd3f ac45 b3be
00000200: 1b3c 033f 6574 363f 194f 873e b6d7 fc3f
00000210: 5835 803e 1330 513f 9aba 95bf c506 cdbf
00000220: 12b6 b13d 892d 55be 9ea2 c2be ae8b 303f
00000230: 4762 8abe 3ad8 85bf 572a 3b3f ddac d4bf
00000240: 0cc1 463e 8bb6 b3bf c6ca c3bf 3b9b 23be
00000250: fd1c f3bf d1be 7b3f 6549 ba3c 5888 183f
00000260: 28f2 273e 7228 073f cdfa b43c ac5a a33f
00000270: 9fc1 2d3f 3d3d cb3f 0630 1f3f f56a 123f
00000280: 6863 41bd 6558 91bf 449d 1fc0 c413 cdbf
00000290: 10f4 6dbf 8440 4c3d 57f6 063f 8242 4c3f
000002a0: 28bd c83f b0dc 16bf e0cd c4bf d99c 86bf
000002b0: c5b4 5a3f 23f1 87be 014c 2e3f bbfd d9bf
000002c0: 10ed 183f bb8d 9a3d 7eae 1b40 704a 3ebe
000002d0: 6881 a4bf 2321 ccbe 2565 1d3f 2215 d7be
000002e0: 1116 803f 5be6 3cbf 9e0c 133f 52c4 1b3f
000002f0: f8a6 ddbe 609c 86bf cc67 cbbe 0205 1f3f
00000300: cbf7 02bf d768 aebd 162f 1bbf 5c40 ab3c
00000310: fcb0 2bbe eb17 4940 0f39 763f 8107 7dbf
00000320: 8e99 95bf 3c5b 57bf f779 e63f c6df 69bf
00000330: db96 a63e 9ed2 c43e d090 acbd 93c3 b8bf
00000340: 8ac0 c1bf 4989 81bf faa7 e33f ced5 ddbe
00000350: 965e 773f a7a3 0b40 b6e8 26bf 8077 f43e
00000360: 4723 e33d 3607 373e 1b7e 1b3f 675a cf3f
00000370: dd23 acbf 784a 613f 7e97 18c0 777b b6be
00000380: 3d08 5fbf 4519 13be 180d ccbf e1be d4bd
00000390: 900b b23e 1e1c 893f ec31 85bf 484b 2a3d
000003a0: 6b18 e33e a969 283f 4e4a 4bbf ab0d d4be
000003b0: 5124 343f 0137 9cbd 44b8 05bf 873f 6b3f
000003c0: 3404 8fbf 18ae e53f 7dce bcbf 6a79 003f
000003d0: a75b 643e 8784 2fbc 798c 38bf 8f14 cd3e
000003e0: 7b59 d43e c8ec d2be 490a 643f 1a65 6f3e
000003f0: cfc0 41be 5e53 633f 7a89 62be 18ad fabf
0.24579404 -0.07844028 0.75972235 0.210416 -0.06025053 -1.3376733 -1.142579 0.42779687
-0.4334929 -1.03805 0.18216833 1.3764143 -0.9615305 -0.9229584 -1.5115241 0.9155728
1.136247 0.030841477 -0.673057 -2.1156971 0.67484134 0.24576502 0.8120369 -1.9511648
1.789097 0.385623 0.5115973 1.0673544 -0.6148282 -0.70619065 0.40821153 0.73918074
0.9769047 -2.1253626 -0.29139587 2.561386 -0.510428 0.020264624 -1.669095 0.27871132
-0.96335405 -1.2562301 3.0083675 -1.6920247 -1.787889 -2.1041563 1.4768462 1.6275933
-0.6188737 1.6487825 1.137296 -1.0020145 -0.37734738 0.5455868 -1.2152327 -1.1472162
0.08493992 1.227622 0.465152 -1.8397563 -1.1653761 0.7681198 -2.4947941 -0.9665735
1.1453663 -0.59335774 -1.3672061 0.843021 0.20673236 0.2582543 0.28342703 -2.5799863
0.7145138 0.21439359 1.402491 0.3074965 -0.4838421 2.1342223 0.66903996 2.0947053
1.0069678 -0.5467228 -1.692957 1.2386996 0.03745512 1.1605237 -0.30633536 0.5046402
-0.15413679 1.3342856 -0.15930215 0.16818325 2.349602 -0.7314233 -1.2073249 -0.13543792
0.108077094 -0.48656118 0.8826818 0.015463033 -0.40538865 1.0084059 0.07156783 0.8443264
-0.12291016 -0.9484891 -1.4624779 0.4926709 -1.0642115 0.122926496 -0.51030576 -0.5567091
-1.0926826 -0.68563837 -1.3763646 1.2709366 -1.3452588 0.43968436 0.35250363 1.1201634
0.8563016 -0.28883627 0.08981403 0.9217797 0.60760325 -0.018012624 1.4797902 -0.35014093
0.5126359 0.71271354 0.26427534 1.975333 0.25040698 0.8171398 -1.1697571 -1.6017691
0.08677305 -0.20818152 -0.38014692 0.68963134 -0.27028105 -1.0456612 0.7311148 -1.6615254
0.19409579 -1.4040083 -1.5296257 -0.15977184 -1.8993222 0.9833804 0.022740075 0.59583044
0.16400969 0.5279609 0.022092247 1.2762046 0.6787357 1.5878063 0.6218265 0.57194453
-0.04721394 -1.1355101 -2.4939737 -1.6021657 -0.92950535 0.049866214 0.52719635 0.7978898
1.5682726 -0.5893049 -1.5375328 -1.0516616 0.8543208 -0.2655116 0.6808472 -1.7030557
0.5973673 0.07546564 2.4325252 -0.18583083 -1.2851992 -0.3986903 0.6148246 -0.4200831
1.0006734 -0.73788995 0.5744113 0.60846436 -0.4329145 -1.0516472 -0.39727628 0.62117016
-0.5115935 -0.0851609 -0.6061872 0.020904712 -0.16766733 3.1420848 0.96180815 -0.98839575
-1.1687486 -0.8412359 1.8005971 -0.91357076 0.3253697 0.38441938 -0.08426058 -1.4434685
-1.5136883 -1.0120021 1.7785637 -0.43327183 0.966287 2.1818635 -0.6519884 0.4774742
0.11090713 0.17873845 0.60739297 1.6199464 -1.3448445 0.88004255 -2.3842463 -0.3564107
-0.87121946 -0.14365108 -1.5941496 -0.1038797 0.34774446 1.0711706 -1.040586 0.0415757
0.44354567 0.65786225 -0.79410255 -0.41416678 0.70367914 -0.07627679 -0.5223429 0.9189381
-1.1173158 1.7943754 -1.4750515 0.50185263 0.22300588 -0.010712749 -0.72089344 0.40054747
0.41474518 -0.41196275 0.89078194 0.23378411 -0.18921207 0.88799083 -0.22122756 -1.9584074
