output/section8/checkpoint15.pt (torch, 5881 bytes, 1 tensors)

fc.weight f4 [4, 300]
00000000: 9063 b83e fa36 7fbd cd75 5c3f e798 9ab9
00000010: 20bf efbd 119e 94bf 071c 9cbf 6884 9b3e
00000020: 3ae0 12bf 320f 8abf d5f9 b63e c8e4 ba3f
00000030: 40a8 a7bf 8226 96bf 251d c3bf 489f 503f
00000040: c24a 8f3f fea9 4d3d 068c 54bf 396d e9bf
00000050: d6d8 0f3f e84c cc3e f42d 3d3f c5ee 01c0
00000060: 0d1d de3f 4b84 e93d b34c 223f e3f3 713f
00000070: b45d 09bf a851 5abf 372d 813e de37 573f
00000080: fe44 8e3f f941 09c0 f836 77be 7598 2440
00000090: bbfe 2cbf 882e 3dbe 312f d2bf 7756 063f
000000a0: ebce 8abf a0a4 acbf 57bf 2f40 d89d c7bf
000000b0: b3eb eabf 7461 02c0 24a6 db3f fedc cf3f
000000c0: a37f 1fbf e3f0 cd3f f20c 873f fbb7 84bf
000000d0: d25a 30bf 1def e83e 11ab 80bf 176b 86bf
000000e0: b094 1e3e 585a 983f 8abd 233e 35f9 cdbf
000000f0: bc21 94bf 0977 633f db97 0cc0 0f47 6ebf
00000100: 8203 953f 14cb a4be 90df b3bf bc17 9a3f
00000110: bf8d 283d f423 b03e 9e12 bf3e 8bf7 28c0
00000120: 4417 363f 0f7e 763e 43b4 b43f 47da 913e
00000130: ad3e 0fbf da7e f93f 43ba 223f 9ec9 1b40
00000140: f94c 7f3f df76 32bf d519 f2bf 46a9 913f
00000150: 3101 bebe 76d5 9b3f dc20 a7be fa5b f23e
00000160: 3dd2 febe c5fc c43f d592 65bd e19c ef38
00000170: e699 1740 ffef 7ebf fc00 6bbf 2de1 0c3d
00000180: af6e b73d 970e a7be 3dff 833f ef81 43bc
00000190: 97e7 d0be 11b8 953f a1e1 a33d 2bed 823f
000001a0: 6b58 4dbe b36c 5cbf abd2 e9bf 8351 e43e
000001b0: 5c19 8ebf 8649 f33d 3963 19bf af92 d6be
000001c0: 7971 4dbf ea3a 26bf 57fb 99bf c4db b03f
000001d0: fb92 d3bf 3760 9e3e e4c2 9b3e 8823 953f
000001e0: 866a 203f e3b3 d7be 8b46 a83d 375e 513f
000001f0: 37c4 213f f4f1 dd3d 76ac d03f 4bdf 1abe
00000200: 81be 813e 443d 543f 7db0 dc3d cf9f 0640
00000210: e004 d6bd ec5c 373f 3b61 94bf 5666 d8bf
00000220: 42d7 a03e a42f 63be ebfd 01bf d4da 1b3f
00000230: 067c a4be b3d5 39bf 3202 383f 63fe c9bf
00000240: 3e5d 973d 4b6c b2bf 8c06 93bf ceab 843d
00000250: b6c0 fcbf 6739 503f 7731 393d a568 e73e
00000260: e6b1 0fbe 44e9 2e3f 0310 c33d 6898 9c3f
00000270: 16f5 333f 4a8e c13f 57a8 3b3f d8cd ee3e
00000280: 4ada b0bd 5187 a0bf 4711 2cc0 8dce d7bf
00000290: b2bb 75bf 8de7 9d3e c3b5 033f 6779 323f
000002a0: e545 ba3f 161b 36bf 4ac8 99bf f6f5 a3bf
000002b0: 5ca6 2b3f 2e31 afbe 759e 213f a35b d9bf
000002c0: 06a7 1d3f 7ce4 153e 7b08 1f40 4893 b0bd
000002d0: c398 abbf ebd9 5abe 9785 5a3f 7580 20bf
000002e0: 26aa 453f 8537 c9be 54c5 f83e 56b8 b53e
000002f0: 5499 14bf 6582 63bf 7449 34be 4363 213f
00000300: 0ae1 e1be 98c2 67be 8cf6 32bf c532 863c
00000310: 67b9 323e 467c 5240 f46f 8e3f 0a19 8abf
00000320: a38d 85bf 5d7b 68bf f4b9 0340 75a6 35bf
00000330: 1af3 fc3e fcb6 523e e218 20be 3b8c d5bf
00000340: 7937 e7bf 0eb3 84bf 5f59 ef3f 0bb4 f2be
00000350: eb85 713f 823b 0540 6ac8 56bf 83ca c93e
00000360: 0b7f e1bd a346 c5bc 6890 2f3f 10b9 cc3f
00000370: 4a9f c0bf 3c61 663f 7b00 07c0 a34e 30be
00000380: 05a0 87bf 173b a8be 9cdd cabf bc9e 84be
00000390: 8a59 513e bab9 6d3f 2ef2 82bf dee2 8e3d
000003a0: bff1 da3e 2de0 063f d6ee 77bf bcca 14bf
000003b0: 6953 123f 01cd 75be 04a7 f1be 98bf 833f
000003c0: 105e 8cbf acd4 f53f 917c 9fbf 09bb 9e3e
000003d0: d3e0 1d3d 6e06 f13d e962 6abf 30a8 fa3e
000003e0: d929 b33e 1f54 18bf b9a7 783f 8283 c33e
000003f0: 265b 3ebd a779 7f3f c1b8 55bd 360b 02c0
0.3601346 -0.06230829 0.8611725 -0.0002948709 -0.11706376 -1.1610738 -1.2196053 0.30374455
-0.5737339 -1.0785887 0.35737482 1.4601068 -1.3098221 -1.1730502 -1.5243269 0.81493044
1.1194689 0.050210945 -0.8302616 -1.8236457 0.5619024 0.39902425 0.73898244 -2.0301983
1.7352616 0.11402186 0.63398284 0.94512767 -0.53658605 -0.8528085 0.2522981 0.8406962
1.1114805 -2.1446517 -0.24142063 2.5718052 -0.6757619 -0.18474782 -1.6420652 0.52475685
-1.0844396 -1.348774 2.7460535 -1.5595045 -1.835318 -2.037198 1.7160077 1.6239316
-0.62304133 1.6089138 1.0550826 -1.0368646 -0.6888858 0.4549493 -1.0052205 -1.0501431
0.15486407 1.1902571 0.15990272 -1.6091677 -1.1572795 0.8885351 -2.1967685 -0.93077177
1.1641695 -0.32186186 -1.4052601 1.2038493 0.041150805 0.3440243 0.3731889 -2.6401088
0.7112925 0.24071525 1.4117512 0.28486845 -0.5595501 1.9491837 0.6356546 2.4341807
0.99726826 -0.6971263 -1.8914133 1.1379783 -0.37110284 1.2174518 -0.32642257 0.47335798
-0.49769774 1.5389639 -0.056048233 0.00011425629 2.3687682 -0.99584955 -0.9179838 0.03439443
0.08956658 -0.3262832 1.0312268 -0.011932834 -0.4080169 1.1696798 0.0800202 1.0228628
-0.2005326 -0.8610336 -1.8267416 0.44593439 -1.1101489 0.11879258 -0.59917027 -0.41908786
-0.8025127 -0.64933646 -1.2029828 1.3817067 -1.652923 0.3093278 0.30422127 1.1651468
0.6266254 -0.4212943 0.0821658 0.81784385 0.63190025 0.108371645 1.6302631 -0.15124242
0.25340655 0.82905984 0.1077585 2.103504 -0.104501486 0.7162616 -1.1592172 -1.690623
0.3141423 -0.22186142 -0.50778073 0.6088078 -0.32125872 -0.72591704 0.7187835 -1.5780758
0.073908314 -1.3939298 -1.1486373 0.06478082 -1.9746311 0.8133759 0.04521319 0.45197025
-0.14032707 0.68324685 0.09524538 1.2234011 0.70295846 1.5121548 0.7330374 0.4664142
-0.08635385 -1.2541295 -2.6885545 -1.6859909 -0.95989525 0.30840722 0.5144922 0.69716495
1.455258 -0.7113508 -1.2014248 -1.2809436 0.6705072 -0.3421721 0.6313241 -1.698109
0.6158298 0.14637941 2.4848926 -0.08621842 -1.3405994 -0.21372192 0.8536009 -0.6269601
0.7721275 -0.3930017 0.4858805 0.354922 -0.5804646 -0.8887084 -0.17606145 0.63042086
-0.44117004 -0.22632825 -0.6990745 0.01638163 0.17453538 3.288835 1.1127915 -1.0788891
-1.0433849 -0.9081324 2.0582247 -0.7095712 0.49404222 0.20577615 -0.15634492 -1.668342
-1.8063804 -1.0367143 1.8699149 -0.47402987 0.9434497 2.081757 -0.8389956 0.39412317
-0.1101056 -0.024081534 0.6857972 1.5993977 -1.5048611 0.8999212 -2.1094043 -0.17217498
-1.0595709 -0.32857582 -1.584888 -0.25902355 0.20444313 0.9286152 -1.0230157 0.06976865
0.42762563 0.52685815 -0.9684881 -0.5812185 0.57158524 -0.24003984 -0.47197735 1.0292845
-1.0966206 1.9205527 -1.245989 0.31002071 0.038544487 0.117688045 -0.91557175 0.48956442
0.34992865 -0.5950336 0.97130924 0.3818627 -0.046473645 0.99795 -0.05217815 -2.0319343
