output/section8/checkpoint2.pt (torch, 5881 bytes, 1 tensors)

fc.weight f4 [4, 300]
000000 7b 58 37 3f 0e cc 24 be 9d 58 89 3f 56 f6 82 be
       0.71619385 -0.16093466 1.0730168 -0.25578564
000010 f1 de a7 be 61 96 2a bf 70 39 9b bf 6f dd 9a bc
       -0.32787278 -0.6663571 -1.2126904 -0.018904416
000020 ec 5d 57 bf 8b e7 8f bf 80 e3 60 3f 1c 4c a2 3f
       -0.8412769 -1.1242536 0.8784714 1.2679477
000030 db 81 ed bf 87 61 cd bf 80 c8 9e bf 1e 33 29 3f
       -1.8555254 -1.6045388 -1.2404938 0.66093624
000040 36 7a 9f 3f 72 91 4a 3e cc f6 87 bf 02 03 aa bf
       1.2459171 0.19782045 -1.0622191 -1.3282168
000050 35 99 a8 3e b1 03 ce 3e 45 29 f8 3e 21 9b 10 c0
       0.32929388 0.4023719 0.48468986 -2.2594683
000060 ad 6b af 3f 04 d9 ee be 0a aa 3a 3f 93 1e 4d 3f
       1.3704735 -0.46649945 0.7291571 0.8012478
000070 4d 4c 58 be c6 cc a9 bf bf a8 ab be b2 4a 78 3f
       -0.21122856 -1.3265617 -0.3352718 0.96988976
000080 e3 c1 ad 3f 08 c8 0a c0 e8 34 ce be c7 53 25 40
       1.3574795 -2.168459 -0.4027474 2.5832384
000090 39 63 77 bf 75 99 17 bf 03 9a e2 bf 08 df 71 3f
       -0.96635777 -0.5921853 -1.7703251 0.94480944
0000a0 35 bb 92 bf 6a ae b2 bf e8 2e 07 40 cf f3 95 bf
       -1.1463381 -1.3959477 2.112238 -1.171503
0000b0 71 87 cb bf 87 1d f9 bf f1 fb 06 40 44 85 bd 3f
       -1.5900708 -1.9462136 2.1091273 1.4806294
0000c0 1e 14 0f bf 55 24 c3 3f 16 d1 10 3f 24 0d 7f bf
       -0.5589007 1.5245463 0.5656904 -0.99629426
0000d0 5a fe 92 bf f6 69 21 3e 79 56 40 bf 60 75 7e bf
       -1.1483872 0.15763077 -0.75131947 -0.9939785
0000e0 eb 8c cf 3e bc 8b 7e 3f 27 de ea be c4 eb 80 bf
       0.405372 0.9943197 -0.45872614 -1.007195
0000f0 e9 55 73 bf e7 e5 98 3f d5 da d3 bf 72 da 6d bf
       -0.95052963 1.1945161 -1.6551157 -0.92911446
000100 12 3d a2 3f 6f 58 75 3e a2 db bd bf 11 d0 ee 3f
       1.2674887 0.23959516 -1.4832652 1.8657247
000110 87 6a 1d be db 5c 1a 3f 19 d6 d6 3e c4 d8 25 c0
       -0.15372668 0.60297936 0.4196022 -2.5913553
000120 c3 78 89 3e b7 4f 6f 3d 5e 41 a1 3f 28 14 70 3e
       0.26849946 0.05842563 1.2598073 0.23445189
000130 69 61 3a bf 6c ba 91 3f e7 a1 1e 3f 0b 23 3a 40
       -0.72804886 1.1385016 0.61965793 2.9083889
000140 fb 11 6f 3f 03 b2 46 bf f1 dd fd bf 3a e5 57 3f
       0.9338681 -0.77615374 -1.9833356 0.84334147
000150 a8 7f 95 bf d3 c1 9c 3f 68 91 ca be 8a 6f 18 3f
       -1.1679583 1.224665 -0.3956406 0.59545195
000160 8e 57 5c bf 81 a4 dc 3f d2 41 a9 be 84 36 55 be
       -0.860711 1.7237703 -0.3305803 -0.20821577
000170 5b 3c 11 40 1c 14 b9 bf 2a 8a 00 bf 76 41 f8 3e
       2.2693088 -1.4459262 -0.5021082 0.48487443
000180 f2 c5 8a 3e 7e db 9d bd 73 a9 92 3f e2 bb ee 3d
       0.27104145 -0.077078804 1.1457962 0.116569296
000190 69 fb b0 be e7 78 af 3f b4 2d a7 3d 0d b7 80 3f
       -0.3456681 1.3708771 0.08163014 1.0055863
0001a0 4a 1c d3 be bd 70 39 bf 0d ef 14 c0 bf c5 0c 3f
       -0.4123252 -0.7243765 -2.3270905 0.54989237
0001b0 8e e3 79 bf 39 dc c0 3d ae fb 5a bf 6d c3 b3 bd
       -0.97612846 0.09417004 -0.8554028 -0.08777509
0001c0 33 90 be be 03 f9 44 bf 2d 5d 6b bf 82 89 b7 3f
       -0.3721939 -0.7694246 -0.9193905 1.4338839
0001d0 20 b4 04 c0 11 ca 5d 3d 74 4b 32 3e bf 81 8c 3f
       -2.073494 0.054147784 0.17411596 1.0977095
0001e0 be 9c 89 3d 4d e1 43 bf 29 f5 13 3e a3 61 12 3f
       0.06719349 -0.76515657 0.1444899 0.5718023
0001f0 03 e6 3f 3f 4d 28 7a 3e 30 12 e6 3f 83 e5 9b 3e
       0.74960345 0.24429436 1.79743 0.3044854
000200 d7 aa ab bd e0 f2 90 3f 68 a4 24 be c8 5b ff 3f
       -0.083821945 1.132412 -0.16078341 1.9949884
000210 98 c1 5e bf 13 dc 2a 3f 14 b7 95 bf 54 e5 e3 bf
       -0.8701415 0.66742057 -1.1696496 -1.780436
000220 06 29 4b 3f b9 3f 66 be 72 6c 09 bf 3b cd fc 3e
       0.7935947 -0.22485246 -0.536811 0.49375328
000230 8e 70 08 bf 8c cb 0c bc cf 36 24 3f fc df af bf
       -0.53296745 -0.008593451 0.6414613 -1.374023
000240 e2 fc 96 3c 82 6a 99 bf c0 82 1d bf ea b3 07 3f
       0.01843113 -1.1985629 -0.61527634 0.530089
000250 3f 18 1f c0 0f eb ab 3e c2 b0 83 3e ea 61 18 3e
       -2.4858549 0.33577773 0.25720793 0.14881101
000260 6a 59 4a bf 01 d8 5c 3f d9 0c 9a 3d f5 db 88 3f
       -0.79042685 0.86267096 0.07521982 1.0692126
000270 89 7b 45 3f 93 34 a7 3f 52 01 6c 3f 10 eb 5f 3e
       0.77141625 1.3062919 0.92189515 0.21867013
000280 4b 41 28 be 52 b4 9a bf 45 9f 3a c0 41 14 cb bf
       -0.16431157 -1.2086279 -2.915971 -1.5865556
000290 8e b3 8e bf 3a c7 0d 3f 14 b7 fb 3e 62 b1 0d 3f
       -1.1148546 0.5538212 0.49163115 0.5534879
0002a0 68 19 79 3f 8f f1 80 bf 90 63 db be d8 bd c1 bf
       0.9730439 -1.0073718 -0.42849398 -1.5136061
0002b0 d4 a0 13 3e 7a f1 d9 be 71 26 a1 3e ab 50 ae bf
       0.1441682 -0.42567044 0.3147464 -1.3618368
0002c0 22 72 2e 3f 9f 17 3d 3e 7c d9 17 40 08 8e 12 3e
       0.681429 0.18466042 2.3726492 0.14311993
0002d0 28 fd 9d bf cf 3d c8 3d dc 77 9c 3f 5f 3d 7e bf
       -1.2342882 0.09777414 1.2224078 -0.99312395
0002e0 01 22 a2 3e 00 49 82 3e 9c 4f 55 3e 5a f8 5a be
       0.31666568 0.2544632 0.2083115 -0.21383801
0002f0 e9 20 6b bf 02 79 43 bf 3c b9 04 3e dc 77 23 3f
       -0.9184709 -0.7635652 0.12961286 0.63854766
000300 f9 33 82 be 9b 0f df be bd 44 41 bf bb a1 51 3e
       -0.25430277 -0.43566594 -0.7549551 0.20471852
000310 d5 5e 62 3f f2 8f 54 40 40 87 9c 3f ef e1 8e bf
       0.8842595 3.3212857 1.2228775 -1.11627
000320 32 08 31 bf de 23 87 bf df b0 17 40 89 d2 78 be
       -0.6915313 -1.0557821 2.3701704 -0.24299063
000330 68 fa 6c 3f be 47 28 be aa 44 d0 be f5 ce e7 bf
       0.9256959 -0.16433617 -0.40677387 -1.8110033
000340 e9 1a 0f c0 a1 08 7f bf 52 a8 f1 3f 23 a6 bd be
       -2.2360175 -0.9962254 1.8879492 -0.37040815
000350 68 79 53 3f ec 9c c5 3f 78 49 95 bf c4 e2 58 3e
       0.82607126 1.5438514 -1.1663046 0.21180254
000360 2a 5b d0 be 44 7b 87 be 7d 60 3c 3f 99 a5 b9 3f
       -0.40694553 -0.26461232 0.7358473 1.4503661
000370 1e 95 e9 bf ea 5f 75 3f ac 89 a5 bf 76 75 08 3d
       -1.8248632 0.9584948 -1.2932639 0.033315144
000380 3e 99 94 bf 76 27 04 bf e1 ea de bf 8e 27 d7 be
       -1.1609266 -0.5162271 -1.7415429 -0.42022365
000390 fa 49 c5 be fa ee 15 3f f8 d6 5d bf 0b 7c a2 3d
       -0.38533002 0.58567774 -0.8665614 0.079338156
0003a0 4a ee 8d 3e 6d 15 1f 3e 37 c4 a2 bf ea d7 67 bf
       0.27720863 0.15535517 -1.271613 -0.90563834
0003b0 c2 c4 3d 3e 44 22 f0 be b5 7b 92 be 7c b9 a9 3f
       0.18532088 -0.46901143 -0.28610006 1.325973
0003c0 04 bd 8b bf 35 cc ff 3f a9 ad 40 bf e2 b4 78 be
       -1.0917058 1.9984194 -0.75264984 -0.24287751
0003d0 c6 fc 90 be be 03 e1 3e 9b 62 96 bf 6c fa 78 3f
       -0.2831785 0.43948168 -1.1748842 0.97257113
0003e0 88 6f 35 bc 59 63 68 bf 05 b1 91 3f 35 a7 37 3f
       -0.011073954 -0.9077659 1.1382147 0.7173951
0003f0 cc f7 06 3f af b4 99 3f 3a 6f dd 3e 94 b9 08 c0
       0.5272186 1.2008265 0.43248922 -2.1363268
