output/section8/checkpoint25.pt (torch, 5881 bytes, 1 tensors)

fc.weight f4 [4, 300]
0	0x3e8b2545	0.27176872
1	0xbd87f713	-0.066389225
2	0x3f49871b	0.7872178
3	0x3e1a6365	0.15076979
4	0xbd93c443	-0.07215168
5	0xbfa5b6f4	-1.2946458
6	0xbf956082	-1.1670077
7	0x3ec65cce	0.3874268
8	0xbef15b32	-0.4713989
9	0xbf85b287	-1.0445107
10	0x3e641b29	0.22275986
11	0x3fb40197	1.4062985
12	0xbf88d330	-1.0689449
13	0xbf7e4c5c	-0.99335265
14	0xbfc3fe7f	-1.5312041
15	0x3f64c94f	0.8936967
16	0x3f90a471	1.1300184
17	0x3d21eebe	0.039534323
18	0xbf37651d	-0.7163866
19	0xc00254b6	-2.0364203
20	0x3f255e83	0.6459734
21	0x3e98b705	0.29827133
22	0x3f4d264a	0.8013655
23	0xbffc4732	-1.9709227
24	0x3fe47543	1.7848285
25	0x3e9ee47b	0.31033692
26	0x3f0ad784	0.542351
27	0x3f85138f	1.0396594
28	0xbf191389	-0.59795433
29	0xbf3e2f4c	-0.7429092
30	0x3ec054ff	0.37564847
31	0x3f4601e2	0.7734662
32	0x3f818b80	1.0120697
33	0xc008aa26	-2.135385
34	0xbe8b989d	-0.27264872
35	0x40243d72	2.5662503
36	0xbf0e3e9d	-0.5556429
37	0xbcfbb1b8	-0.030724391
38	0xbfd40084	-1.6562657
39	0x3eb4d716	0.35320348
40	0xbf802741	-1.0011979
41	0xbfa5e523	-1.2960552
42	0x403cef12	2.9520917
43	0xbfd4a293	-1.6612114
44	0xbfe7d725	-1.8112532
45	0xc005beb6	-2.089765
46	0x3fc58cf5	1.5433642
47	0x3fd05545	1.6276022
48	0xbf1fcc5c	-0.624212
49	0x3fd23b58	1.642436
50	0x3f8fa523	1.1222271
51	0xbf81568d	-1.0104538
52	0xbeedec4d	-0.46469346
53	0x3f06f348	0.5271497
54	0xbf939408	-1.152955
55	0xbf8ecf68	-1.1157045
56	0x3dc1b424	0.09458187
57	0x3f9c0170	1.2187939
58	0x3ec3cdff	0.382431
59	0xbfe4882c	-1.7854056
60	0xbf95ca96	-1.1702449
61	0x3f4d19c0	0.80117416
62	0xc01ac990	-2.4185524
63	0xbf74d2f8	-0.9563441
64	0x3f93050e	1.1485918
65	0xbf06a697	-0.52597946
66	0xbfb0d845	-1.3816
67	0x3f70fa0d	0.9413155
68	0x3e1fbb40	0.15598774
69	0x3e91e990	0.28498507
70	0x3ea5584b	0.32293925
71	0xc02643ee	-2.597896
72	0x3f3a57c3	0.72790164
73	0x3e6ba501	0.23012163
74	0x3fb38abd	1.4026715
75	0x3e9a2a90	0.30110598
76	0xbf01179c	-0.5042665
77	0x40067332	2.100781
78	0x3f27bf3a	0.65526164
79	0x400c8905	2.195863
80	0x3f806346	1.0030296
81	0xbf18fc77	-0.5976023
82	0xbfe0f179	-1.7573692
83	0x3f9ae5e1	1.2101403
84	0xbd937b97	-0.07201307
85	0x3f973dc8	1.1815729
86	0xbea12b3e	-0.31478304
87	0x3efc9056	0.4932887
88	0xbe81657a	-0.25272733
89	0x3fb2fb5c	1.3982959
90	0xbdf05526	-0.11734991
91	0x3df70a01	0.12062455
92	0x4016c55c	2.3557959
93	0xbf4f384e	-0.8094529
94	0xbf900f2d	-1.1254631
95	0xbdb8ee3a	-0.09029813
96	0x3dc4aa45	0.09602789
97	0xbee28a70	-0.44246244
98	0x3f6fa023	0.93603724
99	0xbacc80d5	-0.001560236
100	0xbed2541d	-0.41079798
101	0x3f873847	1.056405
102	0x3da32ac8	0.07967144
103	0x3f689705	0.9085544
104	0xbe11cdd2	-0.1423867
105	0xbf6cf271	-0.92557436
106	0xbfc91518	-1.5709562
107	0x3ef1b385	0.47207275
108	0xbf8afd9a	-1.0858643
109	0x3df56431	0.119820006
110	0xbf0823cb	-0.53179616
111	0xbf06c1d3	-0.526395
112	0xbf80a6de	-1.0050924
113	0xbf2c4ffc	-0.67309546
114	0xbfa95e19	-1.3231841
115	0x3fa77f85	1.3085791
116	0xbfb7dd0f	-1.4364337
117	0x3ecf5b1f	0.40499207
118	0x3eae3326	0.34023398
119	0x3f91bb9f	1.1385382
120	0x3f4d483a	0.80188334
121	0xbea44e3a	-0.32090932
122	0x3daa882e	0.083267555
123	0x3f65682e	0.8961209
124	0x3f1dd2ad	0.6164959
125	0x3c8c684d	0.017139578
126	0x3fc2f815	1.5231959
127	0xbe98be6e	-0.29832786
128	0x3ee12382	0.43972403
129	0x3f3e2296	0.74271524
130	0x3e5b7fc3	0.21435456
131	0x4001419e	2.01963
132	0x3e1f1180	0.1553402
133	0x3f49770c	0.78697276
134	0xbf95b676	-1.1696308
135	0xbfd064ce	-1.6280763
136	0x3e0ffb9a	0.14060822
137	0xbe5a0a0c	-0.21292895
138	0xbed7030c	-0.41994512
139	0x3f2c58f8	0.67323256
140	0xbe8d6a8f	-0.2762036
141	0xbf76a7aa	-0.96349585
142	0x3f3b6f69	0.73216873
143	0xbfd2aec2	-1.6459582
144	0x3e204770	0.15652251
145	0xbfb3a58a	-1.4034894
146	0xbfb61357	-1.4224652
147	0xbdcfd1a4	-0.10147408
148	0xbff430bc	-1.9077373
149	0x3f701156	0.9377645
150	0x3d023491	0.031788412
151	0x3f0e3a89	0.5555807
152	0x3d9a7748	0.07542282
153	0x3f137515	0.5760053
154	0x3d376f31	0.044783775
155	0x3fa142e5	1.259854
156	0x3f2fe128	0.68702936
157	0x3fc9412a	1.5723011
158	0x3f26977f	0.65074915
159	0x3f0b6734	0.5445435
160	0xbd6b8fd4	-0.057510212
161	0xbf9608fd	-1.1721493
162	0xc023023e	-2.5470119
163	0xbfd10197	-1.632861
164	0xbf6ee856	-0.93323267
165	0x3e00cf18	0.12579
166	0x3f078900	0.5294342
167	0x3f4390ad	0.7639263
168	0x3fc5831e	1.5430639
169	0xbf1e5563	-0.6184904
170	0xbfbaa000	-1.4580078
171	0xbf8fb934	-1.1228395
172	0x3f4ff69d	0.81235677
173	0xbe93d79d	-0.28875437
174	0x3f2bd5ec	0.67123294
175	0xbfdb61b2	-1.7139189
176	0x3f1c765d	0.6111811
177	0x3dbfe586	0.0936995
178	0x401d50f5	2.4580662
179	0xbe243671	-0.16036393
180	0xbfa7f1cd	-1.3120667
181	0xbeb1a546	-0.34696406
182	0x3f30082e	0.6876248
183	0xbef3fa54	-0.47651923
184	0x3f6f325d	0.93436223
185	0xbf253af8	-0.64543104
186	0x3f0e00dd	0.5547007
187	0x3f0a2138	0.5395694
188	0xbeef3985	-0.4672357
189	0xbf7f64cd	-0.99763185
190	0xbea9549e	-0.3307237
191	0x3f1fbb1e	0.62394893
192	0xbefc200c	-0.492432
193	0xbdf957c2	-0.121749416
194	0xbf2198ff	-0.6312408
195	0x3c96588f	0.018352775
196	0xbd97f7ae	-0.07420288
197	0x404c58dc	3.1929235
198	0x3f80dac4	1.0066762
199	0xbf82b3f8	-1.0211172
200	0xbf926522	-1.1437113
201	0xbf5c3e12	-0.8603221
202	0x3ff0247b	1.8761133
203	0xbf5db9da	-0.8661171
204	0x3ebe1ee4	0.37132943
205	0x3eaae884	0.3338052
206	0xbdd1a600	-0.1023674
207	0xbfc192b2	-1.5122893
208	0xbfcd0682	-1.6017611
209	0xbf830a2d	-1.023748
210	0x3fe80447	1.8126305
211	0xbee51dee	-0.44749397
212	0x3f753de7	0.9579758
213	0x400a8159	2.1641448
214	0xbf35c4b9	-0.710033
215	0x3eeaf200	0.45887756
216	0x3d460446	0.04834392
217	0x3dee6c62	0.11641766
218	0x3f218780	0.6309738
219	0x3fce6610	1.6124897
220	0xbfb1c39a	-1.3887818
221	0x3f6314e5	0.8870376
222	0xc0145a64	-2.318017
223	0xbe98854a	-0.2978919
224	0xbf6d0879	-0.92591053
225	0xbe5159fc	-0.20444483
226	0xbfcb573a	-1.5885994
227	0xbe165c1e	-0.14683577
228	0x3ea2472a	0.3169492
229	0x3f839eeb	1.0282873
230	0xbf83ef47	-1.0307397
231	0x3d441a26	0.0478765
232	0x3ee05a04	0.43818676
233	0x3f218569	0.6309419
234	0xbf56bca7	-0.8388161
235	0xbeeac824	-0.4585582
236	0x3f2ded38	0.6794009
237	0xbe03e400	-0.12879944
238	0xbf01f87f	-0.507698
239	0x3f7326f0	0.9498129
240	0xbf8da016	-1.1064479
241	0x3feb71b6	1.8394077
242	0xbfb5506d	-1.4165169
243	0x3ee898dd	0.45429125
244	0x3e2d34d1	0.16914679
245	0x3ccca1ee	0.024979558
246	0xbf4787c0	-0.77941513
247	0x3ed769f2	0.42073017
248	0x3ed191b6	0.4093148
249	0xbeefe331	-0.4685302
250	0x3f6af9eb	0.91787595
251	0x3e904b90	0.2818265
252	0xbe1e0202	-0.15430453
253	0x3f6c43b7	0.92290825
254	0xbe34cabb	-0.1765546
255	0xbffdb6ba	-1.9821389
