output/section8/checkpoint20.pt (torch, 5881 bytes, 1 tensors)

fc.weight f4 [4, 300]
00000000: 0da3 9d3e 79af 71bd 33f7 513f 9adf a93d
00000010: 67ad b9bd b397 9ebf 18a9 98bf 1eb3 b03e
00000020: 50f7 03bf 5630 87bf b0ce 8d3e f880 b73f
00000030: dda6 97bf b59d 89bf f716 c5bf 83e3 5c3f
00000040: 9aee 8f3f 16a3 423d af92 44bf 49a1 f8bf
00000050: d402 1c3f 3cc1 b33e d698 473f c48c ffbf
00000060: 907b e23f ca57 633e a8cd 143f 4e29 803f
00000070: f8c0 12bf 492b 4abf 2c71 a73e 16a4 4e3f
00000080: 3afc 863f 8e1e 09c0 fc85 82be 4a71 2440
00000090: 781b 1cbf 5147 c5bd b284 d2bf 9ec6 de3e
000000a0: 5638 85bf ff1a aabf ceb6 3740 8e21 cfbf
000000b0: c932 eabf 7073 04c0 9a90 cf3f b73b d03f
000000c0: 0b94 20bf b6b8 d03f ee6f 8c3f e6c4 82bf
000000d0: a921 11bf b291 ff3e 77b2 8abf ad98 8abf
000000e0: 119f ea3d ca54 9a3f 6153 913e 7451 dbbf
000000f0: 28bb 95bf 2844 573f 28b6 14c0 dcf9 71bf
00000100: 24a6 933f e3c1 e0be 0987 b2bf ec9c 873f
00000110: fcf3 cd3d 1ad7 a03e 0f5f b53e 0e89 27c0
00000120: 652f 3b3f 6ed9 763e 14b7 b33f 0603 963e
00000130: 461c 07bf f1e2 0240 b8e5 243f cec4 1340
00000140: 88f4 7f3f 2b12 26bf f877 e9bf 6eb9 963f
00000150: 0eb2 50be a5b6 993f ad3b a5be 750a f83e
00000160: b783 bbbe d8ca bb3f ea61 a1bd aa87 843d
00000170: 8c1f 1740 acc5 65bf 66ff 83bf f9fd 13bd
00000180: 65e7 b53d 6fe1 c7be 5df6 7c3f 2a17 4bbc
00000190: 834c d3be 2907 8e3f f88f ab3d 3646 783f
000001a0: f927 2bbe 3abf 65bf 269a d8bf d14e e93e
000001b0: e80b 8dbf a23f ef3d d979 0fbf de3a f7be
000001c0: 3fe4 68bf 2211 29bf 3cd6 a1bf a755 ac3f
000001d0: feda c4bf 8701 b93e f214 a73e 14e1 933f
000001e0: ac41 3a3f cab7 b9be 0db0 a03d 8d28 5d3f
000001f0: 2b25 203f 8b4f 6c3d 5535 c93f e3e4 6fbe
00000200: 11bf b53e bdce 473f fe92 253e e707 0440
00000210: 233e 243d ebc7 403f ee5d 95bf e522 d4bf
00000220: 8ab7 5a3e 5fed 5ebe 6901 edbe e3e4 253f
00000230: df39 94be 1db1 5cbf 537a 3a3f b73e cfbf
00000240: f745 ef3d 6f58 b3bf 4204 a6bf 5cda f0bc
00000250: c506 f7bf ccba 613f 33c6 253d 0202 023f
00000260: 879f cdbc e8b9 203f a2c3 8c3d 1ee3 9e3f
00000270: 5fe1 313f 1529 c63f ef84 2f3f c381 023f
00000280: 5c56 91bd 6e12 9bbf 2714 27c0 1bc2 d4bf
00000290: b941 71bf 34cd 563e 34f9 063f 90b4 3a3f
000002a0: a4ea c03f 0e3d 28bf 190f adbf 1e8e 99bf
000002b0: d61e 413f 67ab a1be b2fe 273f af8e dbbf
000002c0: 02ba 1e3f 1ee8 eb3d 1886 1e40 aed7 03be
000002d0: dac3 aabf 6353 93be 7d36 443f 9e63 0bbf
000002e0: 7929 5c3f 6784 08bf a0b0 063f 87cb ea3e
000002f0: 0263 03bf 5c2c 71bf afa4 83be bc91 203f
00000300: efe2 f0be 9db6 2bbe 5b78 29bf da3b 8d3c
00000310: 4234 143d da7d 4f40 303e 873f 18e0 86bf
00000320: d072 8dbf 1b8d 61bf 7c0b fb3f 222a 4dbf
00000330: 87f3 d93e 450a 8d3e 4b61 ffbd b73c cbbf
00000340: 0a7f d9bf f123 84bf 22f4 eb3f dbe5 ebbe
00000350: b10f 733f 0c9d 0840 b0f9 45bf 506d dd3e
00000360: e232 bfbc c295 463d 49e7 273f 5991 cd3f
00000370: 7981 b8bf aac3 643f b7b6 0ec0 1667 71be
00000380: d50b 7dbf 27d8 88be 04b4 cabf d677 4abe
00000390: 9ebe 8b3e d865 7b3f 9746 83bf f520 6a3d
000003a0: e7e0 dd3e 28f1 163f ce1a 65bf 2d3a 03bf
000003b0: c478 233f 3482 3cbe 2dd2 fabe a357 7c3f
000003c0: 3074 8cbf 47e5 f03f 6ed1 abbf 24a5 c83e
000003d0: 7387 dd3d 61c4 883d fd25 58bf 634e e63e
000003e0: 42d8 c73e cfaf 07bf 8ebe 713f b683 a93e
000003f0: 46a2 dfbd 47e8 753f dddd f8bd 0a7a 00c0
0.3078846 -0.059005234 0.8201782 0.08294602 -0.09066277 -1.2390045 -1.1926603 0.34511656
-0.51549244 -1.0561626 0.27696753 1.4336233 -1.1847798 -1.0751253 -1.5397633 0.86284655
1.124469 0.047518812 -0.7678632 -1.942422 0.60941815 0.35108364 0.77967584 -1.9964833
1.7693958 0.22201458 0.58126307 1.0012605 -0.57325697 -0.789723 0.3270353 0.80719125
1.0545723 -2.14249 -0.25492847 2.5694146 -0.60979414 -0.09632743 -1.6446745 0.43510908
-1.0407817 -1.3289489 2.8705325 -1.6182115 -1.8296748 -2.0695457 1.6216004 1.6268224
-0.62725896 1.6306369 1.0971658 -1.0216339 -0.56691986 0.49915844 -1.0835713 -1.0827843
0.11456121 1.2057126 0.28383926 -1.7134233 -1.169774 0.84088373 -2.323618 -0.9452188
1.1535077 -0.43897924 -1.394746 1.0594764 0.10056302 0.3141411 0.35424086 -2.6177402
0.73119193 0.2410638 1.4040246 0.29299182 -0.52777517 2.0451014 0.64413023 2.308887
0.999825 -0.6487147 -1.8239737 1.1775339 -0.20380422 1.2008864 -0.32272092 0.48445478
-0.36623928 1.4671278 -0.07880004 0.06471188 2.3613005 -0.8975475 -1.0312316 -0.03613088
0.08882026 -0.3903918 0.9881342 -0.012395659 -0.4126931 1.1095935 0.08377069 0.96982133
-0.16714467 -0.89744914 -1.6922042 0.45567945 -1.1019258 0.11682059 -0.560453 -0.482871
-0.90973276 -0.6604177 -1.2643504 1.3463639 -1.5379331 0.36133978 0.32633168 1.1553063
0.7275646 -0.36273032 0.07846079 0.8639 0.62556714 0.057693046 1.5719401 -0.23427157
0.35497335 0.7804983 0.16169354 2.0629823 0.04009832 0.7530505 -1.166929 -1.6573149
0.21359077 -0.21770237 -0.46290138 0.6480238 -0.28950402 -0.86207753 0.728429 -1.6191014
0.116832666 -1.4011363 -1.2970049 -0.029400997 -1.9298941 0.88175654 0.04047222 0.50784314
-0.025100483 0.6278367 0.068732515 1.2413061 0.69484514 1.5481287 0.68562216 0.5097925
-0.0709655 -1.2114999 -2.610605 -1.6621736 -0.9424091 0.20976716 0.52724004 0.72931767
1.5071607 -0.6571816 -1.3520232 -1.1996496 0.75437677 -0.31576082 0.6562301 -1.7152919
0.62002575 0.11518882 2.4769344 -0.12875244 -1.3341019 -0.28774557 0.7664564 -0.5444888
0.8600078 -0.5332703 0.5261326 0.45858404 -0.5132295 -0.9420831 -0.2571158 0.62722373
-0.47048137 -0.1676888 -0.6619927 0.017240454 0.03618265 3.2420564 1.0565853 -1.0537138
-1.1050663 -0.88105935 1.961288 -0.80142415 0.4256861 0.27546898 -0.12469729 -1.5877904
-1.6991894 -1.0323468 1.8433878 -0.46073803 0.9494582 2.1345854 -0.7733412 0.4324746
-0.023339693 0.048482664 0.6558729 1.6059982 -1.4414512 0.8936106 -2.229902 -0.2357448
-0.9884618 -0.2672741 -1.5836186 -0.19772276 0.27293867 0.98202276 -1.0255917 0.057160337
0.4333565 0.58961725 -0.89494026 -0.51260644 0.6385615 -0.18409044 -0.48988476 0.98571223
-1.0972958 1.881997 -1.3423288 0.39188492 0.108168505 0.06678081 -0.84432966 0.4498168
0.3903218 -0.5300264 0.9443139 0.331083 -0.10919623 0.9605755 -0.12151692 -2.0074487
