output/section8/checkpoint26.pt (torch, 5881 bytes, 1 tensors)

fc.weight f4 [4, 300]
00000000: e830 883e 2220 8cbd 6f05 483f 49a6 273e
00000010: 70e1 8ebd 69ee a6bf e5b4 94bf 464b ca3e
00000020: 27fb ecbe 8b71 85bf 166b 5a3e 5e30 b33f
00000030: b609 86bf 3b82 7abf bca8 c3bf de3f 663f
00000040: f2d3 903f 3835 1e3d ac04 35bf 6770 03c0
00000050: cdf8 263f 676a 933e d5f7 4d3f ceb4 fbbf
00000060: 86aa e43f 5e16 a73e 01f0 083f b6f5 853f
00000070: 680d 1abf 0b34 3cbf fe22 c43e f43c 443f
00000080: 2d87 803f e98f 08c0 6c89 8dbe eb2a 2440
00000090: abcc 0bbf fe35 9dbc cf43 d4bf 5f2a ad3e
000000a0: e13d 7ebf e7f8 a4bf 6ad2 3d40 4b84 d5bf
000000b0: 7354 e7bf 0100 06c0 23bc c33f c054 d03f
000000c0: 0ca9 1fbf 0178 d23f a91a 903f 9b15 81bf
000000d0: cd71 e4be a40d 083f 3a3e 95bf bd9d 8fbf
000000e0: a865 bb3d 1637 9c3f 9604 cd3e 6525 e6bf
000000f0: f0bc 95bf 0459 4b3f d7e4 1bc0 d460 75bf
00000100: 79e5 923f 6083 0abf 1087 b0bf 4ca7 6b3f
00000110: c347 2a3e dc58 8f3e b9b2 a13e 1c07 26c0
00000120: 67ef 393f 38a4 683e 6d68 b33f 5ab1 9a3e
00000130: 79c9 ffbe 7502 0740 9a69 283f aa30 0b40
00000140: ac77 803f 4f5b 16bf 5743 dfbf 70ae 9b3f
00000150: fd6e 45bd 5eb2 963f f383 a0be ff2d fe3e
00000160: 5276 6dbe 8453 b13f 700c 00be e0aa 053e
00000170: 51a9 1640 2d26 4bbf dd46 92bf 3a42 cdbd
00000180: e424 c93d e879 e7be 1b1e 6d3f 20f1 ca3a
00000190: 41e9 d1be bee6 853f fece a03d a76e 653f
000001a0: 7745 0dbe 433c 6ebf a838 c6bf 95c6 f33e
000001b0: 8d76 8abf 0b59 f53d 81fa 06bf d1a0 08bf
000001c0: 89fe 82bf 4306 2dbf 76b1 aabf 1694 a63f
000001d0: b474 b5bf 2013 d33e 6ed9 af3e c64d 913f
000001e0: 0759 503f f78d a0be 07cd ab3d 1fef 663f
000001f0: 4480 1d3f fc3a 193c 44c2 c13f 5284 9ebe
00000200: 0726 e93e 188d 3c3f fb8c 653e 9bae 0040
00000210: 66cb 333e 090e 4b3f 0dc2 95bf 00a8 cfbf
00000220: 16a4 033e 7110 59be 79e1 d2be 3c70 2d3f
00000230: 3a33 8cbe 906a 7bbf fb6a 3b3f 4521 d3bf
00000240: 5078 283e 78b2 b3bf f2f6 b8bf 4c37 eabd
00000250: 1ae3 f3bf f677 723f 0285 fb3c c957 103f
00000260: 155a bf3d f0f6 103f 0927 233d 79a9 a13f
00000270: f676 2f3f 97b9 c93f e1dc 243f 38e0 0c3f
00000280: 996b 63bd eb03 95bf 5646 22c0 6939 d0bf
00000290: 659f 6ebf 1693 e03d 8f97 073f e637 453f
000002a0: e23c c63f a2b2 1cbf 65f9 bcbf 52db 8dbf
000002b0: e864 523f a77b 91be a660 2c3f e537 dbbf
000002c0: 940f 1c3f 2844 b63d 1903 1d40 d903 2abe
000002d0: 0365 a7bf f37c b7be a52c 2c3f e1e6 edbe
000002e0: 34c9 723f 7e5c 2abf 2a1f 0f3f adfc 0d3f
000002f0: 212a ebbe 820e 81bf 1b85 b0be 1592 1f3f
00000300: 6f69 febe 41e9 e8bd 2139 20bf cd3c 9e3c
00000310: be3e c1bd a6ac 4b40 e748 7f3f 74f4 81bf
00000320: 4c34 93bf c824 5bbf 5923 ee3f 617d 60bf
00000330: fd0f b93e 3069 b03e c984 c9bd 9ac9 bfbf
00000340: 4fba cabf 1bc6 82bf 8428 e73f e281 e3be
00000350: a189 753f 76cf 0a40 a8d6 32bf 044a ed3e
00000360: aeb9 7d3d ce69 043e 1426 203f c78f ce3f
00000370: e59c b0bf f1be 623f 064a 15c0 c26c 9ebe
00000380: 7817 6abf e729 45be c67f cbbf 96ca 0cbe
00000390: 4c1a a63e 4fbc 843f a62c 84bf 2ead 3d3d
000003a0: acd0 e03e 1c22 233f 112d 54bf 5ee8 e5be
000003b0: a786 2f3f 90f0 f2bd b9a4 02bf c98a 713f
000003c0: 5cd5 8dbf f44d ea3f 6af8 b6bf 8cd4 ed3e
000003d0: 24bc 383e 334b 8d3c ab7c 44bf c661 d53e
000003e0: 92ad d23e 2942 eabe 0691 693f c478 8b3e
000003f0: d1c7 25be 0777 6a3f 5f73 3ebe a022 fdbf
0.26599813 -0.06842066 0.7813329 0.16372027 -0.069765925 -1.3041507 -1.1617705 0.39510554
-0.46285364 -1.0425276 0.21329913 1.3999135 -1.0471714 -0.97854966 -1.5285869 0.89941204
1.131468 0.038624972 -0.70710254 -2.0537355 0.6522339 0.28792116 0.80456287 -1.9664552
1.786454 0.32634252 0.53491217 1.046561 -0.60176706 -0.7351691 0.38307947 0.7665551
1.0041252 -2.1337836 -0.27643907 2.5651195 -0.54609174 -0.019190785 -1.6583194 0.3382139
-0.9931317 -1.2888459 2.9659677 -1.6680998 -1.8072647 -2.0937502 1.529179 1.6275864
-0.6236732 1.6442872 1.1258136 -1.0084718 -0.44618073 0.53145814 -1.1659615 -1.1220013
0.09150249 1.2204311 0.4004256 -1.7980162 -1.1698284 0.794327 -2.4358423 -0.95850873
1.147628 -0.5410671 -1.3791218 0.9205215 0.16628937 0.27997482 0.31581667 -2.594184
0.72630924 0.22718894 1.4016243 0.30213434 -0.499584 2.109525 0.65786135 2.1748452
1.0036521 -0.58733076 -1.7442425 1.2162609 -0.04820155 1.1773183 -0.3135067 0.49644467
-0.23189667 1.3853612 -0.12504745 0.13053465 2.3540843 -0.79355127 -1.1427876 -0.10022397
0.098214895 -0.45210195 0.9262406 0.0015483238 -0.4099827 1.0461042 0.078519806 0.8962197
-0.1379603 -0.930607 -1.548604 0.47612444 -1.0817429 0.11979874 -0.5272599 -0.53370386
-1.0233928 -0.6758768 -1.3335407 1.3013942 -1.417624 0.4122553 0.34345573 1.135186
0.81385845 -0.3135831 0.08388715 0.9020862 0.6152384 0.009352442 1.513741 -0.30960327
0.45536825 0.7365279 0.22417061 2.010657 0.17558059 0.7931829 -1.1699845 -1.6223145
0.12855563 -0.21197678 -0.41187647 0.6774938 -0.27382833 -0.98209476 0.73210114 -1.6494528
0.16452146 -1.4038839 -1.4450362 -0.11436328 -1.9053681 0.94714296 0.030703072 0.5638395
0.09343354 0.56626797 0.03983215 1.2629844 0.68540895 1.5759763 0.64399534 0.5502963
-0.055522535 -1.1641821 -2.535543 -1.626752 -0.93211967 0.109655544 0.52965635 0.7703842
1.548733 -0.6121007 -1.4763609 -1.1082556 0.8218522 -0.28414652 0.67334974 -1.7126433
0.6096127 0.088997185 2.453314 -0.1660303 -1.3077701 -0.35837516 0.6725562 -0.4646521
0.9483826 -0.6654738 0.5590693 0.5546368 -0.4593058 -1.0082552 -0.3447655 0.6233228
-0.49689814 -0.11372615 -0.6258717 0.019316101 -0.09435795 3.1824126 0.99720615 -1.0152726
-1.1500335 -0.85603 1.8604537 -0.87691313 0.3614501 0.34455252 -0.0983978 -1.4983399
-1.5838107 -1.0216707 1.8059239 -0.4443503 0.9591313 2.1689124 -0.6985879 0.46345532
0.061944656 0.12930986 0.625581 1.6137627 -1.379788 0.88572603 -2.332643 -0.3094235
-0.9144206 -0.19254266 -1.5898368 -0.13749155 0.32441938 1.0369967 -1.0326126 0.046307735
0.43909204 0.6372392 -0.82881266 -0.44903845 0.6856484 -0.1186229 -0.51032597 0.94352394
-1.1080737 1.830504 -1.429456 0.46451223 0.1804052 0.017247772 -0.7675273 0.41676158
0.4114805 -0.457536 0.91236913 0.27240574 -0.16189505 0.9158787 -0.18598698 -1.9776192
