output/section8/checkpoint16.pt (torch, 5881 bytes, 1 tensors)

fc.weight f4 [4, 300]
0.3477768 -0.06101026 0.8521721 0.01671395 -0.11044262 -1.1787751 -1.2145783 0.31365916
-0.561547 -1.0741968 0.33906156 1.4564378 -1.2831181 -1.1518909 -1.5288768 0.8250281
1.1195225 0.048697855 -0.8169128 -1.849058 0.5724977 0.38983575 0.74836713 -2.0222628
1.7440711 0.13803715 0.6233703 0.9568974 -0.5458104 -0.83789885 0.2703937 0.83392555
1.0991952 -2.1442676 -0.24297644 2.5715046 -0.6613918 -0.16533634 -1.6419132 0.50510335
-1.0761912 -1.3450371 2.7735207 -1.5732777 -1.8355995 -2.043992 1.695597 1.6251843
-0.62425405 1.613631 1.0660423 -1.0341634 -0.6627862 0.46536204 -1.0215324 -1.0567595
0.14566846 1.1945573 0.18708573 -1.6324719 -1.1609104 0.877367 -2.224082 -0.93344414
1.1615158 -0.34761083 -1.402897 1.1720893 0.05337581 0.33671826 0.3699974 -2.6359415
0.71761453 0.24194625 1.4115338 0.28688592 -0.55272865 1.9721518 0.637074 2.4074602
0.99811524 -0.68771255 -1.8779958 1.1469389 -0.3343669 1.2143899 -0.32504436 0.47415316
-0.47015408 1.524304 -0.05883273 0.0137861455 2.368324 -0.9744739 -0.94196904 0.018676931
0.08804613 -0.34008154 1.0223248 -0.012963665 -0.40930748 1.1571712 0.08077886 1.0129597
-0.19281949 -0.8688878 -1.7979556 0.44688532 -1.109813 0.11883763 -0.5901104 -0.43334046
-0.82507956 -0.6509291 -1.2164719 1.374771 -1.6286899 0.32117596 0.30879784 1.1634327
0.6496552 -0.40799695 0.0811761 0.8279763 0.63010556 0.09797076 1.6184211 -0.16986626
0.27493134 0.8178828 0.11945506 2.0967388 -0.072420605 0.7236969 -1.1607602 -1.683623
0.2917547 -0.22110833 -0.4987878 0.6171491 -0.31407243 -0.7556145 0.7211185 -1.5877496
0.08258224 -1.3963506 -1.1803033 0.043969136 -1.9628255 0.82940453 0.04287569 0.46458864
-0.11451254 0.6715209 0.090475634 1.227656 0.7014731 1.5205929 0.7229655 0.47640002
-0.0827039 -1.2464643 -2.6726317 -1.6819713 -0.95545363 0.28830704 0.5170425 0.7039113
1.4679737 -0.6992069 -1.2345763 -1.2641023 0.68977594 -0.3362751 0.6380198 -1.7035649
0.6161264 0.14059469 2.4843526 -0.09551152 -1.3399163 -0.2291921 0.8349645 -0.608785
0.79136145 -0.42364177 0.4953868 0.37756863 -0.5656182 -0.89970654 -0.19336705 0.6298045
-0.44752142 -0.21365571 -0.69126916 0.015198471 0.14419954 3.279972 1.1015892 -1.0736936
-1.0572724 -0.9025356 2.0379179 -0.7298504 0.47859523 0.22129817 -0.1486908 -1.651832
-1.7832913 -1.036189 1.8652439 -0.47233015 0.9452478 2.0949185 -0.82439554 0.40281639
-0.092004985 -0.008765802 0.6802371 1.6011972 -1.4907616 0.8982753 -2.1373668 -0.18543921
-1.0451987 -0.31578922 -1.5840052 -0.24617505 0.22093704 0.9406167 -1.0236738 0.06729931
0.4293633 0.54136586 -0.95258397 -0.5662005 0.58700633 -0.2279295 -0.4767734 1.0193139
-1.0970852 1.9129089 -1.267436 0.32931343 0.053887524 0.10616675 -0.9004525 0.47901332
0.36015335 -0.5809287 0.9654764 0.3704325 -0.06181042 0.98947966 -0.068390794 -2.0263107
00000000: cd0f b23e e5e5 79bd f327 5a3f b2eb 883c
00000010: be2f e2bd 1ae2 96bf 4d77 9bbf ef97 a03e
00000020: 8bc1 0fbf 487f 89bf 7a99 ad3e 8e6c ba3f
00000030: 373d a4bf 2971 93bf 3cb2 c3bf 0b35 533f
00000040: 834c 8f3f 6777 473d 3221 51bf efad ecbf
00000050: 368f 123f 8d98 c73e fd94 3f3f c16c 01c0
00000060: b93d df3f 9c59 0d3e 3295 1f3f 3af7 743f
00000070: 3bba 0bbf 8a80 56bf 0b71 8a3e 257c 553f
00000080: 6eb2 8c3f ae3b 09c0 d1ce 78be 8893 2440
00000090: f950 29bf ee4d 29be 362a d2bf 744e 013f
000000a0: a2c0 89bf 2d2a acbf 5d81 3140 2a61 c9bf
000000b0: edf4 eabf c4d0 02c0 5309 d93f 0a06 d03f
000000c0: 1dcf 1fbf 768b ce3f 1374 883f 775f 84bf
000000d0: 5bac 29bf ef43 ee3e 93c1 82bf e543 87bf
000000e0: 1d2a 153e 41e7 983f 6793 3f3e d7f4 d0bf
000000f0: b698 94bf 209b 603f 5c57 0ec0 32f6 6ebf
00000100: 8dac 943f 0cfa b1be 2192 b3bf 0607 963f
00000110: 98a0 5a3d 5666 ac3e 4d70 bd3e 44b3 28c0
00000120: 96b5 373f c2c0 773e 24ad b43f b6e2 923e
00000130: a07f 0dbf 786f fc3f 4817 233f d413 1a40
00000140: 7b84 7f3f ee0d 30bf 2b62 f0bf e5ce 923f
00000150: 2332 abbe 2171 9b3f 376c a6be 34c4 f23e
00000160: 09b8 f0be 651c c33f 97fa 70bd 49df 613c
00000170: 9f92 1740 1f77 79bf e224 71bf 5d00 993c
00000180: 8851 b43d 2b1f aebe 8adb 823f 8d65 54bc
00000190: c090 d1be 301e 943f 636f a53d aaa8 813f
000001a0: 7972 45be 6e6f 5ebf 6923 e6bf 27ce e43e
000001b0: 5a0e 8ebf 2561 f33d 7a11 17bf cdde ddbe
000001c0: 6a38 53bf 4aa3 26bf 5ab5 9bbf 7ff8 af3f
000001d0: e978 d0bf 2d71 a43e c01a 9e3e 5deb 943f
000001e0: ce4f 263f fae4 d0be a83f a63d 41f6 533f
000001f0: 994e 213f e5a4 c83d 6c28 cf3f 6cf1 2dbe
00000200: cdc3 8c3e c460 513f dba4 f43d f830 0640
00000210: 4151 94bd 3344 393f ca93 94bf f580 d7bf
00000220: df60 953e 396a 62be 1d61 ffbe 7cfd 1d3f
00000230: 1ace a0be f46f 41bf 399b 383f 613b cbbf
00000240: e120 a93d 9ebb b2bf 2e14 97bf fb18 343d
00000250: de3d fbbf db53 543f 6b9e 2f3d 90de ed3e
00000260: 8d85 eabd cbe8 2b3f 4a4b b93d d523 9d3f
00000270: be93 333f caa2 c23f 4414 393f b4ea f33e
00000280: aa60 a9bd 248c 9fbf 660c 2bc0 d64a d7bf
00000290: 9c98 74bf fb9c 933e e65c 043f 8833 343f
000002a0: 90e6 bb3f 39ff 32bf 9906 9ebf 1bce a1bf
000002b0: 2895 303f 402c acbe 4455 233f 6a0e dabf
000002c0: 76ba 1d3f 0ef8 0f3e a2ff 1e40 8b9b c3bd
000002d0: 6182 abbf 55b1 6abe 3cc0 553f 55d9 1bbf
000002e0: aa96 4a3f 93e7 d8be 57a3 fd3e ad50 c13e
000002f0: 5bcc 10bf 2b53 66bf 0302 46be de3a 213f
00000300: 8721 e5be 90c8 5abe 04f7 30bf 0203 793c
00000310: 0ba9 133e 10eb 5140 e000 8d3f cb6e 89bf
00000320: b454 87bf 930c 67bf 3f6d 0240 7ad7 3abf
00000330: 6f0a f53e fd9b 623e 6742 18be 3b6f d3bf
00000340: e442 e4bf d7a1 84bf 50c0 ee3f 42d5 f1be
00000350: c3fb 713f 2513 0640 960b 53bf f33d ce3e
00000360: 1c6d bcbd 709e 0fbc 0524 2e3f 08f4 cc3f
00000370: 47d1 bebf 5ff5 653f 9eca 08c0 c7e3 3dbe
00000380: 12c9 85bf 20af a1be afc0 cabf 5015 7cbe
00000390: 523d 623e 42cc 703f be07 83bf 38d4 893d
000003a0: 82d5 db3e f496 0a3f 8bdc 73bf 84f2 10bf
000003b0: 0c46 163f 5a66 69be a51b f4be e178 823f
000003c0: 4a6d 8cbf 33da f43f 583b a2bf c59b a83e
000003d0: 2ab9 5c3d f46d d93d 0e84 66bf 3c41 f53e
000003e0: 0566 b83e beb7 14bf 7629 773f 54a9 bd3e
000003f0: ec2c 7dbd 8a4e 7d3f 7910 8cbd 13af 01c0
