output/section8/checkpoint3.pt (torch, 5881 bytes, 1 tensors)

fc.weight f4 [4, 300]
000000 83 ab 29 3f cc 4d 16 be 1d 47 85 3f 30 b9 6b be
       0.6627733 -0.14678115 1.0412327 -0.23019862
000010 5c a6 9c be 96 4e 3e bf 6b dd 9c bf 4e b4 1a 3d
       -0.30595672 -0.7433866 -1.2255071 0.03776961
000020 19 9b 4b bf bb d0 8f bf 0c ce 4a 3f 96 a4 a9 3f
       -0.79533535 -1.1235574 0.7922065 1.3253353
000030 5b 95 e3 bf 93 a9 c6 bf ee 92 a6 bf 17 04 2c 3f
       -1.7779955 -1.55205 -1.3013589 0.6719374
000040 50 20 9b 3f 84 52 2d 3e e9 be 84 bf c2 9e b1 bf
       1.2119236 0.16926008 -1.0370761 -1.3876574
000050 a1 00 b9 3e 78 e6 d8 3e 74 7d 03 3f 47 25 0e c0
       0.36133292 0.42363334 0.513633 -2.2210252
000060 31 f0 b7 3f 31 4f c2 be 9c 4e 3b 3f dc 33 4f 3f
       1.4370176 -0.37951043 0.73166823 0.80938506
000070 16 af 88 be 8a bb 9f bf b4 94 7c be ec 78 71 3f
       -0.2669608 -1.2479107 -0.246661 0.9432514
000080 c0 00 aa 3f 9d d8 0a c0 79 7b bc be b3 b2 24 40
       1.3281479 -2.169471 -0.36812952 2.573407
000090 49 c8 70 bf 62 5d 0d bf a4 5b de bf 4a 6c 64 3f
       -0.9405561 -0.55220616 -1.7371716 0.89227736
0000a0 56 64 92 bf 80 42 b1 bf b2 77 0c 40 a9 18 9d bf
       -1.143687 -1.3848419 2.1948056 -1.2273151
0000b0 55 df d3 bf 70 13 fa bf 01 0d 04 40 46 77 c2 3f
       -1.655253 -1.9537182 2.0632937 1.5192649
0000c0 84 4b 13 bf 89 39 c3 3f 24 69 2a 3f ea bd 82 bf
       -0.575371 1.5251933 0.6656668 -1.0214207
0000d0 11 70 8d bf 0d 5a 4c 3e fb 0b 46 bf d2 b3 7d bf
       -1.1049825 0.19956227 -0.7736203 -0.9910251
0000e0 dd 29 bd 3e d0 b9 83 3f 85 19 be be 6a 35 8c bf
       0.36946002 1.029108 -0.37128845 -1.0953801
0000f0 2e 9d 7e bf 8d bd 92 3f aa c0 dc bf f8 33 6c bf
       -0.9945859 1.1464096 -1.7246296 -0.922668
000100 e8 f4 9f 3f ee 5e 32 3e df 44 bc bf 7e cd e5 3f
       1.2496614 0.17419025 -1.4708518 1.7953336
000110 dc af 09 be 04 e9 0d 3f 74 c1 cc 3e dd fb 27 c0
       -0.13445991 0.5543368 0.39991343 -2.6247475
000120 6e 40 bc 3e 8d ce be 3d 6f 9f a5 3f ad c8 6f 3e
       0.36767906 0.0931674 1.293928 0.23416395
000130 77 e3 32 bf ca d5 a3 3f c5 4d 1f 3f 21 ea 36 40
       -0.69878334 1.2799618 0.6222804 2.85804
000140 f2 37 72 3f b2 13 48 bf 4d 28 ff bf a0 71 68 3f
       0.94616616 -0.7815505 -1.9934174 0.9079838
000150 e5 36 88 bf 70 02 9d 3f 14 98 c7 be 03 0d 12 3f
       -1.0641752 1.2266369 -0.38983214 0.57051104
000160 12 e6 58 bf 48 74 db 3f 3b 1d 81 be 1b 28 47 be
       -0.8472606 1.7144861 -0.25217614 -0.19448893
000170 ee c2 12 40 48 9c b1 bf 7e 4b 0a bf fc 16 cf 3e
       2.2931476 -1.3875818 -0.5402144 0.40447223
000180 35 10 72 3e 79 1e d5 bd 7c 7e 92 3f 82 79 ca 3d
       0.23638995 -0.10406203 1.144485 0.09886457
000190 63 14 b2 be dd 92 ab 3f 96 3c 9a 3d b9 4e 84 3f
       -0.3478118 1.3404194 0.07531087 1.0336524
0001a0 8c 40 c1 be 21 1a 3e bf ba 20 12 c0 3c 0c 07 3f
       -0.37744558 -0.7425862 -2.2832475 0.52753043
0001b0 26 11 80 bf d3 0f c4 3d 41 9c 50 bf d8 10 05 be
       -1.0005233 0.09573331 -0.81488425 -0.12994707
0001c0 ae 37 dd be 38 06 3d bf 59 ad 74 bf fa 6f b8 3f
       -0.43206543 -0.73837614 -0.9557701 1.4409173
0001d0 3c a6 01 c0 81 99 b1 3d da 6e 53 3e 4b 63 8f 3f
       -2.0257711 0.08671857 0.20647755 1.1202177
0001e0 d4 c2 0c 3e 6e 10 37 bf 5b 5f fd 3d e7 d4 1c 3f
       0.13746196 -0.71509445 0.12371703 0.61262363
0001f0 7a 6f 39 3f e9 d7 72 3e 61 e6 e4 3f 5f e5 6e 3e
       0.72435725 0.23715176 1.7882806 0.23329686
000200 4c b8 6f bd e4 00 8c 3f 54 23 ee bd ab 4a 02 40
       -0.05852537 1.0937772 -0.11627832 2.0358074
000210 43 20 44 bf d8 ce 26 3f b3 b8 94 bf 1d e8 e3 bf
       -0.7661173 0.6515937 -1.1618866 -1.780521
000220 fe fa 3e 3f 18 80 66 be 0b a2 10 bf 4e b8 00 3f
       0.74601734 -0.22509801 -0.5649726 0.50281227
000230 cd 52 00 bf 7a c7 f6 bd 0a c2 25 3f 63 46 b1 bf
       -0.50126344 -0.12049766 0.64749205 -1.3849605
000240 e3 d2 1d 3c 5f 58 a0 bf b4 9b 28 bf fd 8f ee 3e
       0.009632799 -1.2526969 -0.65862584 0.4659423
000250 7e b3 19 c0 38 95 d0 3e b1 da 56 3e 90 bc 3b 3e
       -2.4015803 0.40738845 0.20981862 0.1833365
000260 8c c2 31 bf 5f ce 59 3f 43 15 be 3d 1b e5 8c 3f
       -0.6943748 0.8508052 0.09281399 1.1007417
000270 dd b7 3f 3f ea fb a9 3f 04 bd 64 3f 83 f0 83 3e
       0.7488993 1.3280003 0.89350915 0.25769433
000280 2e 1e 21 be 89 40 9e bf 98 97 39 c0 50 ec cf bf
       -0.15734169 -1.2363445 -2.8998775 -1.6243992
000290 b9 e4 8b bf 65 33 0d 3f 1e 50 fa 3e f0 72 14 3f
       -1.0929176 0.55156547 0.4888925 0.5798788
0002a0 38 36 88 3f 22 35 7a bf 81 91 09 bf 59 20 bf bf
       1.0641546 -0.97737324 -0.53737646 -1.4931747
0002b0 56 94 5b 3e b4 69 d7 be 79 4f c1 3e ae 92 b7 bf
       0.21443304 -0.42072833 0.37755945 -1.4341638
0002c0 54 b2 29 3f 22 72 3a 3e 8d 20 19 40 f1 32 e3 3d
       0.6628773 0.182076 2.3926117 0.11093701
0002d0 56 89 a2 bf 2f 64 50 3d 59 34 96 3f 07 9b 74 bf
       -1.2698162 0.050876793 1.1734725 -0.9554905
0002e0 b0 f3 c7 3e 90 e6 29 3e 6a 54 7c 3e 00 be f5 bd
       0.39053106 0.16591859 0.24641576 -0.1199913
0002f0 cb a9 60 bf 03 08 43 bf db de af 3d f8 b7 20 3f
       -0.87759084 -0.761841 0.08587428 0.62780714
000300 80 8a 95 be 3e 91 d8 be 23 39 46 bf 4a b3 2a 3e
       -0.2920723 -0.4229831 -0.77430934 0.16669956
000310 ed 66 49 3f 32 b5 54 40 f4 c6 9c 3f 3e ac 90 bf
       0.7867268 3.3235593 1.2248216 -1.1302564
000320 cb 93 3c bf 16 0c 84 bf ec 33 16 40 94 ee 99 be
       -0.73663014 -1.0316188 2.346919 -0.30064833
000330 db 69 5a 3f 04 28 e3 bd 6c 40 bb be 08 6f ea bf
       0.8531777 -0.11091617 -0.36572587 -1.8315134
000340 87 aa 0b c0 78 8e 81 bf 9d 34 f1 3f 5a 85 cc be
       -2.1822832 -1.0121603 1.8844181 -0.3994549
000350 2c 83 57 3f 6c e1 d3 3f d3 4e 90 bf ef 31 71 3e
       0.8418453 1.6553168 -1.1274055 0.23554204
000360 df 93 be be ed 94 72 be f3 db 3a 3f ce f7 bd 3f
       -0.37222192 -0.23689623 0.72991866 1.4841249
000370 e8 63 e4 bf 2b eb 73 3f cf aa b6 bf 96 25 4c 3c
       -1.7842989 0.9528071 -1.4270877 0.012460133
000380 e6 ab 96 bf 0f c2 00 bf a6 87 db bf 66 91 d6 be
       -1.1771209 -0.5029611 -1.7150772 -0.41907805
000390 92 c3 8d be 96 ef 24 3f 10 d1 69 bf ed 50 b4 3d
       -0.2768827 0.6442808 -0.9133463 0.08804498
0003a0 61 59 a4 3e 03 d3 4e 3e 91 d3 9f bf f4 a2 5e bf
       0.3209944 0.20197682 -1.248644 -0.86967397
0003b0 b7 a4 72 3e 33 90 e4 be 05 59 a2 be 49 26 a3 3f
       0.23695646 -0.44641265 -0.31708542 1.2746059
0003c0 45 68 8b bf 6c c9 ff 3f 30 7d 51 bf 06 db 27 be
       -1.0891196 1.9983344 -0.81831646 -0.16392145
0003d0 b4 48 73 be 29 c7 c3 3e e8 77 93 bf 54 c1 61 3f
       -0.23758203 0.38237885 -1.1520967 0.8818562
0003e0 1a 0e 3c 3d 73 4c 5d bf 25 d0 8c 3f 5f 36 28 3f
       0.045911886 -0.8644478 1.1001021 0.65707964
0003f0 3c c9 d5 3e 7c c4 94 3f 61 46 b2 3e 14 3c 08 c0
       0.41755092 1.1622462 0.3481932 -2.1286669
