output/section8/checkpoint13.pt (torch, 5881 bytes, 1 tensors)

fc.weight f4 [4, 300]
00000000: e22e c73e 654f 84bd 9095 613f 2729 febc
00000010: cd7e 0bbe 72af 8fbf b81c 9dbf 6ed2 8c3e
00000020: 1016 18bf aca9 8abf 5456 ca3e f2d6 ba3f
00000030: a320 afbf a7e9 9bbf 7d3f c2bf 4e6f 4c3f
00000040: e6bc 8f3f 3ac5 783d b29a 5bbf 69f6 e2bf
00000050: cdfe 093f 2100 d63e c90e 383f af14 03c0
00000060: 4b8d db3f b763 793d 5f76 263f d6e7 6c3f
00000070: e641 03bf df64 63bf ef75 553e 5345 5a3f
00000080: ad55 913f f880 09c0 fb39 79be 8082 2440
00000090: 8043 35bf 6f47 68be 0e19 d2bf 8f27 123f
000000a0: 5c6a 8cbf e1f1 adbf 1644 2c40 0472 c3bf
000000b0: 67b5 eabf 87c1 01c0 241c e13f 6854 cf3f
000000c0: ef4b 1fbf 59cb cc3f 4691 833f 3d45 85bf
000000d0: ba8b 3ebf 49fd dc3e 1bdb 78bf 54b1 84bf
000000e0: 58fa 2f3e 6974 963f e4fe d13d 3bdf c7bf
000000f0: 9127 93bf 2695 6a3f 453f 09c0 80a3 6dbf
00000100: baab 953f 5f8b 88be 76cb b4bf a85e a33f
00000110: 2336 723c 9c70 ba3e 4b50 c23e aa75 29c0
00000120: 7e58 323f 1226 713e 0789 b33f a046 8e3e
00000130: 2e78 12bf 20f2 f23f 5117 223f 3688 1f40
00000140: 889e 7e3f a693 37bf 956f f5bf 8439 8f3f
00000150: 12c3 e5be 8671 9c3f efd5 abbe e507 f63e
00000160: 0bc7 0dbf e6dc c83f cc03 4ebd 7da8 f0bc
00000170: 9f55 1740 a2aa 85bf e36f 5ebf dbd9 8a3d
00000180: 97f5 c73d 49b7 98be 3610 873f f5dc edbb
00000190: b6f2 cebe 25aa 983f 69fb a43d 7656 853f
000001a0: c1a8 5ebe dae1 58bf 5ef7 f1bf a6cf e43e
000001b0: ec8c 8dbf da85 ea3d b8b5 1ebf 803f c7be
000001c0: 73c6 41bf b568 26bf 63bd 95bf cdcb b23f
000001d0: 31f6 d9bf 68b4 903e c771 993e 69c8 953f
000001e0: 0dd2 123f 8a25 e6be c3e9 a43d c891 4c3f
000001f0: 18b7 233f e039 013e 6793 d33f 68a7 e5bd
00000200: 1c07 573e 543b 5b3f 37b1 a63d 1a1e 0740
00000210: c62e 35be 1d2a 333f 994b 94bf c554 dabf
00000220: 4b50 ba3e 3aeb 64be 8502 07bf 217d 183f
00000230: f19b aabe a59a 2abf c45d 363f 45e5 c6bf
00000240: 7dc1 6e3d 6abe b1bf 2783 8abf cea6 dd3d
00000250: 246d 00c0 20cf 453f c0f7 6f3d 3d8c d73e
00000260: f4b6 4dbe 088c 353f cc98 d03d 680e 9b3f
00000270: 106c 343f 82e1 be3f 8712 403f 07fe e23e
00000280: 0318 c4bd 44cc a1bf 14f4 2dc0 d2bc d8bf
00000290: 57b2 78bf f9db b13e 4978 033f 5664 2e3f
000002a0: fb54 b63f 483c 3dbf 3c45 91bf 266a a8bf
000002b0: 2d53 203f 7234 b7be b23a 1d3f 69bb d7bf
000002c0: 322c 1f3f df8a 1b3e 31e3 1e40 82d4 87bd
000002d0: ec7d acbf de85 3cbe 50a4 643f 57f1 2abf
000002e0: 6f50 3b3f 5d79 a8be 1dc9 ec3e bd40 9e3e
000002f0: aa2b 1cbf 5aef 5cbf 231a 10be a04e 213f
00000300: 4e83 dbbe 447d 81be a87d 37bf 7e34 d73c
00000310: f160 753e 2e5d 5340 2b21 913f 5e27 8cbf
00000320: 97b3 81bf b304 6bbf d670 0640 09a1 2abf
00000330: 4b68 073f e2d2 2e3e f8c1 32be c620 dabf
00000340: 1c8f edbf 37f0 84bf b928 f03f 7a2b f2be
00000350: 9532 6f3f b568 0340 b555 60bf 3204 c13e
00000360: f634 13be 1ede 64bd 7f1b 313f 47e4 cb3f
00000370: 8ec6 c4bf 18d8 673f 02eb 02c0 dc64 12be
00000380: fd1e 8bbf dd51 b7be ec64 cbbf 91ab 91be
00000390: 60f2 2a3e 04b2 663f f296 82bf 5430 993d
000003a0: eda9 d83e 5501 fd3e 305f 80bf 9842 1dbf
000003b0: 5625 0a3f 599e 8abe 6e41 e9be 5bb0 863f
000003c0: 8fa9 8bbf f5e5 f73f ae84 99bf f3e1 853e
000003d0: c2cd 863b 016c 133e c018 73bf bf55 053f
000003e0: 882a a73e f816 21bf 1d9b 7b3f d1cc d13e
000003f0: 4874 21bc af43 823f ffe2 61bc 8202 03c0
0.38902956 -0.06460456 0.8811884 -0.031025482 -0.1362259 -1.1225417 -1.2274389 0.27504295
-0.59408665 -1.083303 0.39518988 1.4596846 -1.3681835 -1.218068 -1.5175625 0.7985734
1.1229522 0.060734965 -0.8578292 -1.7731448 0.5390442 0.41796973 0.7189756 -2.0481374
1.7152494 0.06088611 0.6502437 0.92541254 -0.5127243 -0.8882579 0.2084577 0.8526203
1.1354271 -2.1484966 -0.24338524 2.570465 -0.7080612 -0.226835 -1.6413896 0.5709161
-1.0969958 -1.358944 2.6916556 -1.526917 -1.833661 -2.027437 1.7586713 1.6197634
-0.6222524 1.5999557 1.0278709 -1.0411755 -0.74431956 0.4316199 -0.9720933 -1.0366616
0.17185342 1.1754276 0.10253695 -1.5615 -1.149645 0.9163383 -2.1444867 -0.92827606
1.1693032 -0.26668832 -1.4124591 1.2763262 0.014783415 0.3641404 0.37951884 -2.6478066
0.6966628 0.23549679 1.4026192 0.27788258 -0.5721463 1.8980141 0.6331683 2.4926887
0.9946065 -0.7170967 -1.9174677 1.1189427 -0.4487539 1.2222145 -0.33561656 0.48052898
-0.5538184 1.5692413 -0.05029659 -0.029377216 2.364601 -1.0442698 -0.86889476 0.06779834
0.097636394 -0.29827335 1.0551822 -0.007259006 -0.4041955 1.1926924 0.08055765 1.0417011
-0.21744062 -0.8471962 -1.8903615 0.44689673 -1.1058631 0.114513114 -0.6199603 -0.38915634
-0.75693434 -0.6500352 -1.1698421 1.3968445 -1.7028257 0.2826264 0.29969618 1.1701785
0.5735176 -0.44950515 0.08052399 0.79909945 0.63951254 0.12619734 1.6529359 -0.11213571
0.20998806 0.856374 0.0813927 2.1112123 -0.17693624 0.69986135 -1.158557 -1.705712
0.36389384 -0.22355357 -0.5273822 0.5956593 -0.333221 -0.6664222 0.71236825 -1.5538718
0.058289994 -1.3886235 -1.0821275 0.10822831 -2.0066614 0.7726917 0.058585882 0.4209918
-0.20089322 0.70916796 0.10185394 1.2113771 0.7047739 1.491257 0.7502827 0.44334432
-0.09574892 -1.2640462 -2.7180223 -1.6932623 -0.97147125 0.34738138 0.51355416 0.6812185
1.4244684 -0.73920107 -1.1349254 -1.3157394 0.62626916 -0.357822 0.61417687 -1.6854068
0.6217681 0.15189694 2.4826167 -0.066323295 -1.3475928 -0.18410441 0.8931322 -0.66774505
0.73169607 -0.32905093 0.46247187 0.30908766 -0.61004126 -0.8630272 -0.1407247 0.630106
-0.42873615 -0.25290883 -0.7167611 0.026270147 0.23962761 3.3025622 1.1338247 -1.0949514
-1.0132931 -0.91804045 2.100637 -0.6665197 0.52893513 0.17072633 -0.17456806 -1.7041252
-1.8559299 -1.0385808 1.8762428 -0.47298795 0.9343656 2.0532658 -0.8763078 0.37698513
-0.14375672 -0.05587589 0.6918258 1.592904 -1.5373094 0.9056411 -2.0455937 -0.14296287
-1.0868832 -0.35804644 -1.5890174 -0.28451207 0.16694021 0.9011538 -1.0202315 0.07479921
0.42317143 0.4941508 -1.0029049 -0.6142974 0.5396322 -0.27073935 -0.4555773 1.052257
-1.091112 1.9367052 -1.1993616 0.26148948 0.0041138837 0.14396669 -0.9495964 0.52083963
0.32649636 -0.6292567 0.9828356 0.40976575 -0.009854384 1.0176905 -0.01378703 -2.047028
