output/section8/checkpoint12.pt (torch, 5881 bytes, 1 tensors)

fc.weight f4 [4, 300]
0.40515944 -0.06765225 0.89199626 -0.048869256 -0.14600953 -1.1001968 -1.2318873 0.2623746
-0.607596 -1.0878783 0.41853726 1.4602692 -1.3976369 -1.2422491 -1.5094129 0.787031
1.1241338 0.063961156 -0.87267125 -1.744124 0.526676 0.42571634 0.7060014 -2.0579824
1.702356 0.03236479 0.6610356 0.91273576 -0.49995038 -0.90774196 0.18357337 0.8590395
1.1498073 -2.149554 -0.24496382 2.5702088 -0.7252718 -0.25067967 -1.6434342 0.5937177
-1.1043382 -1.3617175 2.6578364 -1.5093105 -1.8303459 -2.020056 1.7818133 1.617403
-0.6202523 1.5939046 1.0120542 -1.0438412 -0.773932 0.41782305 -0.95448905 -1.0303582
0.18399842 1.1688896 0.07043651 -1.5325146 -1.1436818 0.9301068 -2.1130974 -0.92598367
1.1732496 -0.23538987 -1.4153674 1.314361 0.0015421225 0.37345523 0.38101563 -2.6518517
0.68530846 0.2310831 1.4005213 0.27485174 -0.5800934 1.8661094 0.63216805 2.522408
0.99325377 -0.72646266 -1.9300917 1.1083531 -0.49205387 1.2244612 -0.33827645 0.48197374
-0.5834433 1.5841447 -0.051526736 -0.044377565 2.3636987 -1.0687039 -0.84185225 0.08697098
0.10214894 -0.28279966 1.0640273 -0.0034508873 -0.40123746 1.2052512 0.07943659 1.0494136
-0.22685768 -0.8390826 -1.922353 0.44783774 -1.1034132 0.1140696 -0.63130033 -0.3715202
-0.73241484 -0.6504361 -1.1545764 1.4034429 -1.7290028 0.2690441 0.2946141 1.1706469
0.5444734 -0.4658415 0.081931666 0.78720754 0.64228207 0.13720071 1.6660266 -0.09027082
0.18609649 0.87095547 0.06864095 2.115155 -0.2159403 0.6919095 -1.156931 -1.7134665
0.3918022 -0.22423369 -0.5366885 0.586723 -0.34316954 -0.6310739 0.7084757 -1.5411361
0.049972333 -1.3847545 -1.0467741 0.132715 -2.025349 0.7519178 0.06312572 0.40525776
-0.23188463 0.7219094 0.10604813 1.2062687 0.7062014 1.4800323 0.76130444 0.43144214
-0.10014235 -1.2699386 -2.7350829 -1.695445 -0.9782047 0.36913803 0.5106377 0.6742392
1.4072822 -0.75515586 -1.0949231 -1.3330295 0.6008521 -0.36412477 0.60418504 -1.6761973
0.62151784 0.15721427 2.48031 -0.054593697 -1.3471111 -0.16687357 0.91391736 -0.6891643
0.70958304 -0.29383007 0.44973668 0.28233513 -0.62823796 -0.85147846 -0.12264456 0.6299031
-0.4209066 -0.26755458 -0.7255476 0.030147767 0.27608538 3.3094697 1.1450512 -1.1005068
-0.9949038 -0.92477024 2.1226537 -0.6415147 0.5480317 0.15216215 -0.18471403 -1.7215365
-1.8809062 -1.0387241 1.8793381 -0.4731335 0.9307392 2.0351248 -0.8935174 0.36667755
-0.16324936 -0.07167907 0.69675857 1.589646 -1.5541652 0.9080967 -2.0100703 -0.12929459
-1.1012367 -0.3716379 -1.5925773 -0.29853892 0.14470978 0.8868823 -1.0184308 0.077782474
0.42077285 0.47566113 -1.0222175 -0.6325903 0.5198799 -0.28453374 -0.44877863 1.0644544
-1.0906969 1.9440453 -1.1735796 0.23618002 -0.013239337 0.15788274 -0.9663818 0.5367
0.31179854 -0.64530236 0.98890793 0.4232968 0.010735978 1.0266844 0.006614797 -2.053478
00000000: 0f71 cf3e 438d 8abd de59 643f 212b 48bd
00000010: 8683 15be 40d3 8cbf 7cae 9dbf f755 863e
00000020: 698b 1bbf 993f 8bbf 844a d63e 1aea ba3f
00000030: c4e5 b2bf 0502 9fbf 7134 c1bf dd7a 493f
00000040: 9ee3 8f3f 11fe 823d 6267 5fbf 753f dfbf
00000050: 3dd4 063f 7ef7 d93e 82bc 343f fcb5 03c0
00000060: cde6 d93f f190 043d a139 293f 0da9 693f
00000070: 7ff9 ffbe c761 68bf a8fa 3b3e 03ea 5b3f
00000080: e32c 933f 4b92 09c0 ccd7 7abe 4d7e 2440
00000090: 6aab 39bf 1659 80be 0d5c d2bf e2fd 173f
000000a0: f45a 8dbf c24c aebf fe19 2a40 1631 c1bf
000000b0: c648 eabf 9948 01c0 7512 e43f 1007 cf3f
000000c0: dbc8 1ebf 1105 cc3f fe8a 813f 979c 85bf
000000d0: 6820 46bf e7ec d53e 6559 74bf c7e2 83bf
000000e0: 156a 3c3e 2d9e 953f 0441 903d 7029 c4bf
000000f0: 2a64 92bf 7b1b 6e3f fd3c 07c0 440d 6dbf
00000100: 0b2d 963f 0b0a 71be c22a b5bf fb3c a83f
00000110: 0b21 ca3a 8635 bf3e 7b14 c33e f0b7 29c0
00000120: 6070 2f3f 0ca1 6c3e 4844 b33f 5eb9 8c3e
00000130: 0081 14bf acdc ee3f c4d5 213f 226f 2140
00000140: e145 7e3f 75f9 39bf 3f0d f7bf 84de 8d3f
00000150: 7cee fbbe 25bb 9c3f 9232 adbe 43c5 f63e
00000160: 8a5c 15bf 41c5 ca3f b30d 53bd 40c5 35bd
00000170: d746 1740 4acb 88bf a183 57bf d71d b23d
00000180: 7733 d13d 1ecb 90be 0c32 883f 4828 62bb
00000190: ff6e cdbe ac45 9a3f a7af a23d 2f53 863f
000001a0: 614d 68be 1ece 56bf aa0f f6bf fd4a e53e
000001b0: a53c 8dbf 539d e93d e69c 21bf e537 bebe
000001c0: 8a7f 3bbf fb82 26bf 29c9 93bf 04a4 b33f
000001d0: f74f ddbf 26c0 893e a9d7 963e c2d7 953f
000001e0: 9c62 0b3f c782 eebe cacb a73d 6f86 493f
000001f0: 996c 243f 587e 0c3e 5c40 d53f e8df b8bd
00000200: 1490 3e3e f0f6 5e3f a093 8c3d b35e 0740
00000210: 741f 5dbe fb20 313f 5116 94bf df52 dbbf
00000220: 4c9a c83e 849d 65be 6b64 09bf 7b33 163f
00000230: ebb3 afbe 0f8e 21bf aa5e 353f f343 c5bf
00000240: caaf 4c3d a33f b1bf b2fc 85bf 71e6 073e
00000250: 519f 01c0 af7d 403f 0f48 813d f27d cf3e
00000260: 2a73 6dbe 0ecf 383f c32f d93d 0367 9a3f
00000270: 9dc9 343f b371 bd3f d9e4 423f fce5 dc3e
00000280: 6f17 cdbd 598d a2bf 990b 2fc0 5704 d9bf
00000290: a06b 7abf a9ff bc3e 27b9 023f f19a 2c3f
000002a0: d321 b43f e551 41bf 7126 8cbf b6a0 aabf
000002b0: 71d1 193f 906e babe dfab 1a3f a28d d6bf
000002c0: cb1b 1f3f c7fc 203e 66bd 1e40 a49d 5fbd
000002d0: 236e acbf e8e0 2abe 7df6 693f 126d 30bf
000002e0: 3ca7 353f e570 96be e343 e63e 3b8e 903e
000002f0: 34d4 20bf 7efa 59bf 122d fbbd 5441 213f
00000300: 1281 d7be eafc 88be 7dbd 39bf 73f8 f63c
00000310: 105b 8d3e 5ace 5340 0a91 923f 68dd 8cbf
00000320: 04b2 7ebf bebd 6cbf 8fd9 0740 4f3a 24bf
00000330: ce4b 0c3f 65d0 1b3e ad25 3dbe 4f5b dcbf
00000340: 89c1 f0bf e9f4 84bf 278e f03f 8e3e f2be
00000350: ed44 6e3f 7c3f 0240 8ebd 64bf 29bd bb3e
00000360: d72a 27be 7acc 92bd c55e 323f 8579 cb3f
00000370: e3ee c6bf 0679 683f fea4 00c0 cd65 04be
00000380: 53f5 8cbf 5347 bebe 93d9 cbbf 18da 98be
00000390: cd2e 143e b80a 633f f15b 82bf 6b4c 9f3d
000003a0: 8a6f d73e db89 f33e 06d8 82bf 70f1 21bf
000003b0: d916 053f 68ae 91be 50c6 e5be 0b40 883f
000003c0: f59b 8bbf 7ad6 f83f db37 96bf 2dd9 713e
000003d0: cee9 58bc 03ac 213e cc64 77bf 2c65 093f
000003e0: 0fa4 9f3e 8932 25bf 1229 7d3f 5cba d83e
000003f0: f5e5 2f3c 656a 833f f0c0 d83b 2f6c 03c0
