output/section8/checkpoint17.pt (torch, 5881 bytes, 1 tensors)

fc.weight f4 [4, 300]
0	0x3eac4230	0.33644247
1	0xbd775287	-0.06038144
2	0x3f57f1d4	0.84353375
3	0x3d07277f	0.03299665
4	0xbdd46c8f	-0.103722684
5	0xbf98f2ce	-1.1949098
6	0xbf9adc70	-1.2098522
7	0x3ea5f90d	0.32416573
8	0xbf0d0994	-0.5509274
9	0xbf8909de	-1.0706136
10	0x3ea56e8f	0.32310912
11	0x3fb9ebdd	1.4525105
12	0xbfa0dcc0	-1.2567368
13	0xbf90d136	-1.1313846
14	0xbfc40149	-1.5312892
15	0x3f557a5b	0.83389825
16	0x3f8f4990	1.1194324
17	0x3d3e99b2	0.046533294
18	0xbf4de1ef	-0.8042287
19	0xbfefb8ac	-1.8728232
20	0x3f151e4d	0.5824936
21	0x3ec2829e	0.37990278
22	0x3f41c3fc	0.75689673
23	0xc000f3da	-2.0148835
24	0x3fe02bca	1.7513363
25	0x3e24ba1f	0.16086625
26	0x3f1d2afd	0.6139372
27	0x3f779a69	0.96719986
28	0xbf0de95c	-0.55434203
29	0xbf52f439	-0.82403904
30	0x3e93011e	0.2871179
31	0x3f53d563	0.8274748
32	0x3f8b3ec1	1.0878526
33	0xc00925b3	-2.142926
34	0xbe7a4f32	-0.24444273
35	0x40249091	2.5713236
36	0xbf25b129	-0.6472345
37	0xbe1694ef	-0.14705251
38	0xbfd24342	-1.6426775
39	0x3ef8a997	0.48566887
40	0xbf88bdcb	-1.068292
41	0xbfab90f2	-1.3403609
42	0x403318ed	2.7983963
43	0xbfcb15c9	-1.5866023
44	0xbfead351	-1.8345739
45	0xc0032dcf	-2.049671
46	0x3fd689f5	1.6760851
47	0x3fd02fab	1.6264547
48	0xbf1fe4ff	-0.62458795
49	0x3fcf118c	1.617723
50	0x3f89ab15	1.0755335
51	0xbf84025b	-1.0313219
52	0xbf23409a	-0.6377045
53	0x3ef2fe7b	0.47459778
54	0xbf84c4e0	-1.0372581
55	0xbf88285b	-1.0637316
56	0x3e0d6026	0.13806209
57	0x3f997a4e	1.199045
58	0x3e5988e1	0.21243621
59	0xbfd3a7dc	-1.6535602
60	0xbf94e4fd	-1.1632382
61	0x3f5ddf76	0.866691
62	0xc00fee41	-2.2489169
63	0xbf6f8afb	-0.9357144
64	0x3f94684f	1.1594332
65	0xbebe65a3	-0.37186918
66	0xbfb34251	-1.4004613
67	0x3f9213b5	1.1412264
68	0x3d85cc43	0.065331005
69	0x3ea89abf	0.32930562
70	0x3ebb8f3b	0.36632714
71	0xc0286a79	-2.6314986
72	0x3f38e372	0.72222054
73	0x3e7899fb	0.24277489
74	0x3fb4be41	1.4120561
75	0x3e940270	0.2890811
76	0xbf0bf641	-0.5467263
77	0x3fff0a24	1.992497
78	0x3f238a7e	0.638832
79	0x40186a83	2.381501
80	0x3f7fb4f6	0.998855
81	0xbf2d8c49	-0.67792183
82	0xbfeea6e0	-1.8644676
83	0x3f93d029	1.15479
84	0xbe99d4ac	-0.30045068
85	0x3f9b074b	1.2111601
86	0xbea5328a	-0.3226512
87	0x3ef2e932	0.4744354
88	0xbee31123	-0.44349012
89	0x3fc13bb8	1.509635
90	0xbd827e39	-0.06371731
91	0x3cde61aa	0.02714618
92	0x40178cf8	2.367979
93	0xbf7426d6	-0.9537176
94	0xbf770ae4	-0.9650099
95	0x3b849b5c	0.0040468406
96	0x3db20215	0.08691803
97	0xbeb4b3fd	-0.3529357
98	0x3f818787	1.0119485
99	0xbc6383b5	-0.013886382
100	0xbed245b0	-0.41068792
101	0x3f929eb6	1.1454685
102	0x3da64c34	0.08120003
103	0x3f804e80	1.0023956
104	0xbe3e17f0	-0.18563819
105	0xbf60476d	-0.8760899
106	0xbfe2788d	-1.7693039
107	0x3ee55651	0.44792417
108	0xbf8dfc72	-1.1092665
109	0x3df416da	0.11918421
110	0xbf14f286	-0.5818256
111	0xbee48fdb	-0.44641003
112	0xbf58c04b	-0.84668416
113	0xbf26f562	-0.65218174
114	0xbf9d7ebe	-1.2304304
115	0x3faefa7e	1.3670194
116	0xbfcd7a72	-1.6052992
117	0x3ea9fde6	0.33201522
118	0x3e9faf4e	0.31188434
119	0x3f949d81	1.1610566
120	0x3f2bc7fd	0.6710203
121	0xbecaa7b0	-0.3958106
122	0x3da68b02	0.081319824
123	0x3f5630fa	0.8366848
124	0x3f20b2de	0.6277293
125	0x3db588ac	0.08863959
126	0x3fcdb488	1.6070719
127	0xbe3f73c1	-0.186965
128	0x3e973ca3	0.2953845
129	0x3f4e9ef1	0.80711275
130	0x3e05ed14	0.1307872
131	0x4005bd75	2.0896885
132	0xbd2b180b	-0.041770976
133	0x3f3b5180	0.73171234
134	0xbf94b7db	-1.1618608
135	0xbfd6a122	-1.6767924
136	0x3e8aa551	0.2707925
137	0xbe61615f	-0.220098
138	0xbefa7b6e	-0.48922294
139	0x3f1fd0da	0.6242806
140	0xbe9e07af	-0.30865237
141	0xbf486676	-0.78281343
142	0x3f39235e	0.7231959
143	0xbfcc7027	-1.5971726
144	0x3db9eee9	0.090787716
145	0xbfb2ec38	-1.3978338
146	0xbf9b0089	-1.2109538
147	0x3ccae4c9	0.024767296
148	0xbff9e750	-1.9523716
149	0x3f585d78	0.8451762
150	0x3d240b63	0.04004992
151	0x3ef44767	0.47710726
152	0xbdb6cf3b	-0.08926245
153	0x3f29004c	0.6601608
154	0x3db065ba	0.08613153
155	0x3f9db3f3	1.2320541
156	0x3f332427	0.6997704
157	0x3fc3a04c	1.5283294
158	0x3f36c730	0.71397686
159	0x3ef89471	0.48550752
160	0xbda27c48	-0.07933861
161	0xbf9e9c8a	-1.2391522
162	0xc02a177b	-2.6576831
163	0xbfd6ace5	-1.6771513
164	0xbf739aa7	-0.95157856
165	0x3e898615	0.2686011
166	0x3f04c285	0.51859313
167	0x3f35f45e	0.71076
168	0x3fbd619a	1.4795411
169	0xbf301955	-0.68788654
170	0xbfa1dbf7	-1.2645253
171	0xbf9fac27	-1.2474412
172	0x3f3528a2	0.70765126
173	0xbea9133b	-0.33022484
174	0x3f24d11b	0.6438157
175	0xbfda887d	-1.7072903
176	0x3f1d8d12	0.6154338
177	0x3e0b3f5b	0.13598387
178	0x401eef48	2.4833546
179	0xbdd4f1a9	-0.103976555
180	0xbfab25c5	-1.3370901
181	0xbe79b661	-0.24385978
182	0x3f5118fa	0.81678736
183	0xbf175d57	-0.591268
184	0x3f4f308e	0.80933464
185	0xbee79cd3	-0.45236835
186	0x3f01172f	0.50426
187	0x3ecbdaf0	0.39815474
188	0xbf0d63e0	-0.5523052
189	0xbf693a72	-0.91104805
190	0xbe56be66	-0.20971069
191	0x3f212be6	0.6295761
192	0xbee7fff7	-0.45312473
193	0xbe4e731f	-0.20161103
194	0xbf2ef1dd	-0.68337804
195	0x3c5d4e06	0.013507372
196	0x3decd400	0.11563873
197	0x4051605b	3.271506
198	0x3f8b9614	1.0905175
199	0xbf889b5e	-1.0672414
200	0xbf88ef19	-1.0697967
201	0xbf65c1ca	-0.89748824
202	0x400122ee	2.017757
203	0xbf3fc030	-0.7490263
204	0x3eed6e48	0.463732
205	0x3e719d44	0.23595148
206	0xbe10ea46	-0.14151868
207	0xbfd14933	-1.6350464
208	0xbfe164d5	-1.7608896
209	0xbf848833	-1.0354065
210	0x3fee1c24	1.8602338
211	0xbef0f933	-0.47065124
212	0x3f72a06a	0.9477602
213	0x4006c882	2.105988
214	0xbf4f2f42	-0.80931485
215	0x3ed21665	0.4103271
216	0xbd9a6c00	-0.075401306
217	0x3bcf3715	0.006323705
218	0x3f2cda90	0.67521
219	0x3fcd3c0f	1.6033953
220	0xbfbd106e	-1.4770639
221	0x3f6568e7	0.89613193
222	0xc00a6f95	-2.1630604
223	0xbe4bfc4d	-0.19920464
224	0xbf83fa1f	-1.0310706
225	0xbe9aec07	-0.302582
226	0xbfcaa2cc	-1.5830932
227	0xbe6f85c9	-0.23390879
228	0x3e71501d	0.23565717
229	0x3f73d4d6	0.95246637
230	0xbf831f72	-1.0243971
231	0x3d840c13	0.064476155
232	0x3edc980f	0.43084762
233	0x3f0e14cb	0.5550048
234	0xbf6ff97e	-0.9374007
235	0xbf0d5516	-0.55207956
236	0x3f19c672	0.6006843
237	0xbe5c17b7	-0.21493421
238	0xbef6bee5	-0.48192516
239	0x3f813e8f	1.0097216
240	0xbf8c899f	-1.0979499
241	0x3ff3cf39	1.9047614
242	0xbfa4c928	-1.2873888
243	0x3eb20478	0.34769034
244	0x3d8d2f57	0.06893795
245	0x3dc310f0	0.09524715
246	0xbf62a1b8	-0.88528013
247	0x3eefe31e	0.46852964
248	0x3ebcd25c	0.3687924
249	0xbf1104a0	-0.5664768
250	0x3f75c298	0.9600005
251	0x3eb7b371	0.3587909
252	0xbd9a822e	-0.07544361
253	0x3f7b3dda	0.98141253
254	0xbdab34cf	-0.08359682
255	0xc0015095	-2.0205433
