output/section8/checkpoint10.pt (torch, 5881 bytes, 1 tensors)

fc.weight f4 [4, 300]
00000000: f151 e23e c3f8 9dbd 414c 6a3f 2809 b1bd
00000010: b2b0 2cbe d935 86bf 7cb9 9ebf bc3a 713e
00000020: a470 23bf 1e9d 8cbf cdf6 f13e 8586 ba3f
00000030: 17ed babf d9d3 a5bf f342 bebf 7efc 423f
00000040: f065 903f cf18 933d 0284 67bf fb2b d7bf
00000050: 8f8b ff3e bf5b e03e 75fd 2c3f 942a 05c0
00000060: 93b0 d53f f0ab f7bc 2cf7 2e3f 14df 623f
00000070: 48a0 f0be 4c14 74bf a060 003e e887 5f3f
00000080: 2a38 973f 02aa 09c0 61bb 80be 946f 2440
00000090: 7a5a 43bf 5058 9bbe 0525 d3bf e645 243f
000000a0: de43 8fbf a5a8 aebf a33a 2540 07fe bbbf
000000b0: 73b2 e8bf e842 00c0 c872 ea3f b827 ce3f
000000c0: 1262 1dbf 4434 ca3f a81c 793f 8e3b 86bf
000000d0: bd37 56bf 377f c53e cbf0 6abf e847 82bf
000000e0: 6b09 5a3e 1c9a 933f 0377 eeb9 3ea8 bbbf
000000f0: c551 90bf cce3 753f add6 02c0 bec3 6bbf
00000100: 3358 973f 6866 2abe e70d b6bf 2ac4 b23f
00000110: bcc2 dabc 87dc c93e c302 c43e dc1a 2ac0
00000120: 9871 273f b478 5f3e c08a b23f 215b 893e
00000130: 6d11 19bf bd28 e53f 465b 213f c66a 2540
00000140: 824b 7d3f cf5b 3ebf c40d fabf bea8 8a3f
00000150: 1d63 16bf b942 9d3f 08a6 afbe 7206 f93e
00000160: 0f31 25bf cdae ce3f 1730 7dbd dbcf 9bbd
00000170: c011 1740 a388 8fbf 98a6 48bf 9e58 063e
00000180: 0e79 e93d 156e 7fbe 3365 8a3f 5360 f33b
00000190: 4bea c9be 5c9d 9d3f 9f1e 9c3d b4eb 873f
000001a0: ce8b 7ebe ca0f 52bf 19be febf f904 e83e
000001b0: 6e2b 8cbf faa0 e73d 4a88 28bf e1e5 a9be
000001c0: cc04 2ebf 8a55 27bf 41a4 8fbf 4939 b53f
000001d0: 027b e4bf 5118 743e 01a7 903e ada9 953f
000001e0: d252 f53e 25fa 00bf 37b4 b03d 127e 423f
000001f0: 242f 263f 9cd6 243e 99b4 d83f fea1 25bd
00000200: cdf7 0a3e 0359 673f abfd 263d 0cb7 0740
00000210: 92bb 9abe b677 2d3f 92ac 93bf e554 ddbf
00000220: d1f2 e73e 911b 67be bec4 0dbf ba03 113f
00000230: eebd bbbe b478 0dbf f3ec 323f 43a0 c1bf
00000240: 2a07 0c3d efda afbf 959b 78bf ff5f 3f3e
00000250: 9389 04c0 ab4e 343f c76a 983d 62a2 bd3e
00000260: df98 99be 588f 3f3f 45c0 e73d 55d6 983f
00000270: 0fac 353f ac50 ba3f 1ee5 483f af74 cf3e
00000280: 03cb e0bd 1be3 a3bf ff6e 31c0 fd35 d9bf
00000290: e682 7ebf 6eb5 d33e 48f2 003f 46f7 283f
000002a0: 88c7 ae3f 4582 4abf aaa4 80bf 1611 afbf
000002b0: 58f7 0a3f 18a6 c0be d960 143f ce55 d3bf
000002c0: 4afc 1e3f 18b8 2b3e 3e4b 1e40 ed3c ecbc
000002d0: d6bd abbf 0167 04be c815 753f d586 3cbf
000002e0: bd40 293f 5543 5dbe b118 d73e 95f8 623e
000002f0: ed70 2bbf 2e3b 54bf c02f adbd 5244 213f
00000300: 7b79 cebe c71d 99be f827 3ebf 860e 283d
00000310: a66f b63e 6b8a 5440 d480 953f ef1d 8ebf
00000320: 1afd 73bf a7be 70bf b2c2 0a40 83dd 15bf
00000330: 371d 173f d756 e43d e1d0 54be a7d1 e0bf
00000340: 419b f7bf becd 84bf d72a f13f 6323 f1be
00000350: 3ced 6b3f 1bcc fe3f 5211 6ebf fd32 b03e
00000360: f5a2 51be fa58 d5bd 2ff0 343f 0d77 ca3f
00000370: b7bd cbbf b0c1 693f 52ce f6bf 004d cfbd
00000380: 6a9f 90bf ac02 ccbe b332 cdbf b2b2 a7be
00000390: e74c bc3d 03a9 5a3f 5cb0 81bf 0c52 a93d
000003a0: 08ef d33e ad9c dd3e a63a 88bf e236 2cbf
000003b0: 0804 f33e 4a02 a0be a134 debe bce2 8b3f
000003c0: b9a3 8bbf b59c fa3f bae4 8ebf 0fb2 373e
000003d0: bf0c 4ebd 760a 413e ab3c 80bf fe03 133f
000003e0: e95c 8d3e 43fa 2dbf eb36 803f df08 e83e
000003f0: b30b 773d e6e6 853f d444 583d fd50 04c0
0.4420314 -0.07713463 0.91522604 -0.086443245 -0.16864279 -1.0485183 -1.2400355 0.23557562
-0.6384375 -1.0985448 0.47258607 1.4572302 -1.4603604 -1.2955276 -1.4864181 0.7616652
1.1281109 0.07182466 -0.904358 -1.6810297 0.49911162 0.43819997 0.67574245 -2.0807238
1.6694511 -0.030233353 0.68345904 0.8862164 -0.46997285 -0.9534347 0.1253686 0.8731675
1.1814015 -2.1510015 -0.2514296 2.5693102 -0.7630993 -0.30340815 -1.6495672 0.64169157
-1.1192586 -1.3645216 2.581704 -1.4686898 -1.8179458 -2.0040836 1.8316278 1.6105871
-0.6147777 1.57972 0.9730935 -1.0486925 -0.836788 0.3857362 -0.9177367 -1.0178194
0.21292655 1.1531405 -0.00045483568 -1.4660718 -1.1274954 0.96050715 -2.0443528 -0.92095554
1.1823791 -0.16640627 -1.4222993 1.3966115 -0.026704185 0.39426062 0.38283357 -2.6578894
0.65407705 0.21823388 1.3948593 0.26827338 -0.59792215 1.7903057 0.630299 2.584642
0.9894334 -0.7435884 -1.9535451 1.0832746 -0.58744985 1.2285987 -0.3430636 0.4863773
-0.6452798 1.6147095 -0.06181344 -0.07608005 2.3604584 -1.1213573 -0.783792 0.13119742
0.114000425 -0.24944337 1.0812134 0.007427254 -0.39436564 1.2313647 0.07623028 1.0618806
-0.24858019 -0.8205534 -1.9901763 0.45316294 -1.0950754 0.11310001 -0.6583296 -0.33183196
-0.6797607 -0.653649 -1.1222001 1.4158107 -1.7850039 0.23837401 0.28252414 1.1692406
0.4791475 -0.5038169 0.08628123 0.7597362 0.6491568 0.16097492 1.6930114 -0.04043769
0.13571091 0.90370196 0.04076926 2.1205473 -0.3022123 0.6776079 -1.1537039 -1.7291533
0.45302442 -0.2256911 -0.5537833 0.5664631 -0.36668342 -0.55262303 0.69892806 -1.5127033
0.03418652 -1.3738688 -0.971124 0.18688963 -2.0708969 0.7043254 0.07442241 0.3703795
-0.29999444 0.748281 0.113159694 1.1940409 0.70965666 1.4555869 0.78474605 0.4051871
-0.109762214 -1.2803682 -2.7723997 -1.6969601 -0.99418485 0.41349357 0.5036969 0.6600231
1.3654642 -0.79105026 -1.0050251 -1.3677089 0.54283667 -0.3762672 0.5796028 -1.651056
0.6210371 0.16769445 2.4733424 -0.028837645 -1.3417308 -0.12929918 0.9573636 -0.7364324
0.6611441 -0.21607716 0.42011026 0.22165139 -0.66969186 -0.829028 -0.08456373 0.62994874
-0.40327057 -0.2990553 -0.7427974 0.041029476 0.35632056 3.3209484 1.167994 -1.1102885
-0.9530808 -0.9404091 2.1681333 -0.58541125 0.59028953 0.11149376 -0.20782806 -1.7563981
-1.9344255 -1.0375288 1.8841199 -0.4709731 0.92158866 1.9906038 -0.9299518 0.344139
-0.2047232 -0.104173616 0.7067899 1.5817581 -1.5917271 0.9131117 -1.9281714 -0.101221085
-1.1298649 -0.39845788 -1.6031097 -0.3275352 0.091943555 0.8541414 -1.0131946 0.08267602
0.41393304 0.43283597 -1.0642898 -0.67271245 0.47464013 -0.31251746 -0.43399528 1.0928569
-1.0909339 1.9579073 -1.1163552 0.17939018 -0.050305124 0.18851647 -1.0018514 0.57427967
0.27609947 -0.67959994 1.001676 0.45319268 0.06031389 1.046109 0.052800015 -2.0674431
